module attributes {tf.versions = {bad_consumers = [], min_consumer = 0 : i32, producer = 0 : i32}} {
  func.func @main(
	  %arg0: tensor<?x?xf32>, %arg1: tensor<?x?xf32>, %arg2: tensor<?x?xf32>, %arg3: tensor<?x?xf32>,
	  %arg4: tensor<?x?xf32>, %arg5: tensor<?x?xf32>, %arg6: tensor<?x?xf32>, %arg7: tensor<?x?xf32>,
	  %arg8: tensor<?x?xf32>, %arg9: tensor<?x?xf32>, %arg10: tensor<?x?xf32>, %arg11: tensor<?x?xf32>,
	  %arg12: tensor<?x?xf32>, %arg13: tensor<?x?xf32>, %arg14: tensor<?x?xf32>, %arg15: tensor<?x?xf32>,
	  %arg16: tensor<?x?xf32>, %arg17: tensor<?x?xf32>, %arg18: tensor<?x?xf32>, %arg19: tensor<?x?xf32>,
	  %arg20: tensor<?x?xf32>, %arg21: tensor<?x?xf32>, %arg22: tensor<?x?xf32>, %arg23: tensor<?x?xf32>,
	  %arg24: tensor<?x?xf32>, %arg25: tensor<?x?xf32>, %arg26: tensor<?x?xf32>, %arg27: tensor<?x?xf32>,
	  %arg28: tensor<?x?xf32>, %arg29: tensor<?x?xf32>, %arg30: tensor<?x?xf32>, %arg31: tensor<?x?xf32>,
	  %arg32: tensor<?x?xf32>, %arg33: tensor<?x?xf32>, %arg34: tensor<?x?xf32>, %arg35: tensor<?x?xf32>,
	  %arg36: tensor<?x?xf32>, %arg37: tensor<?x?xf32>, %arg38: tensor<?x?xf32>, %arg39: tensor<?x?xf32>,
	  %arg40: tensor<?x?xf32>, %arg41: tensor<?x?xf32>, %arg42: tensor<?x?xf32>, %arg43: tensor<?x?xf32>,
	  %arg44: tensor<?x?xf32>, %arg45: tensor<?x?xf32>, %arg46: tensor<?x?xf32>, %arg47: tensor<?x?xf32>,
	  %arg48: tensor<?x?xf32>, %arg49: tensor<?x?xf32>, %arg50: tensor<?x?xf32>, %arg51: tensor<?x?xf32>,
	  %arg52: tensor<?x?xf32>, %arg53: tensor<?x?xf32>, %arg54: tensor<?x?xf32>, %arg55: tensor<?x?xf32>,
	  %arg56: tensor<?x?xf32>, %arg57: tensor<?x?xf32>, %arg58: tensor<?x?xf32>, %arg59: tensor<?x?xf32>,
	  %arg60: tensor<?x?xf32>, %arg61: tensor<?x?xf32>, %arg62: tensor<?x?xf32>, %arg63: tensor<?x?xf32>
	  ) -> tensor<?x?xf32> attributes {tf.entry_function = {inputs = "{{INPUTS}}", outputs = "{{OUTPUTS}}", input_placements="{{INPUT_PLACEMENTS}}", output_placements="{{OUTPUT_PLACEMENTS}}"}} {
    %graph = tf_executor.graph {
      %0:2 = tf_executor.island wraps "tf.Const"() {value = dense<1> : tensor<i32>} : () -> tensor<i32>
      %2:2 = tf_executor.island wraps "tf.ConcatV2"(
	      %arg0, %arg1, %arg2, %arg3,
	      %arg4, %arg5, %arg6, %arg7,
	      %arg8, %arg9, %arg10, %arg11,
	      %arg12, %arg13, %arg14, %arg15,
	      %arg16, %arg17, %arg18, %arg19,
	      %arg20, %arg21, %arg22, %arg23,
	      %arg24, %arg25, %arg26, %arg27,
	      %arg28, %arg29, %arg30, %arg31,
	      %arg32, %arg33, %arg34, %arg35,
	      %arg36, %arg37, %arg38, %arg39,
	      %arg40, %arg41, %arg42, %arg43,
	      %arg44, %arg45, %arg46, %arg47,
	      %arg48, %arg49, %arg50, %arg51,
	      %arg52, %arg53, %arg54, %arg55,
	      %arg56, %arg57, %arg58, %arg59,
	      %arg60, %arg61, %arg62, %arg63,
	      %0) : (
		  tensor<?x?xf32>, tensor<?x?xf32>, tensor<?x?xf32>, tensor<?x?xf32>,
		  tensor<?x?xf32>, tensor<?x?xf32>, tensor<?x?xf32>, tensor<?x?xf32>,
		  tensor<?x?xf32>, tensor<?x?xf32>, tensor<?x?xf32>, tensor<?x?xf32>,
		  tensor<?x?xf32>, tensor<?x?xf32>, tensor<?x?xf32>, tensor<?x?xf32>,
		  tensor<?x?xf32>, tensor<?x?xf32>, tensor<?x?xf32>, tensor<?x?xf32>,
		  tensor<?x?xf32>, tensor<?x?xf32>, tensor<?x?xf32>, tensor<?x?xf32>,
		  tensor<?x?xf32>, tensor<?x?xf32>, tensor<?x?xf32>, tensor<?x?xf32>,
		  tensor<?x?xf32>, tensor<?x?xf32>, tensor<?x?xf32>, tensor<?x?xf32>,
		  tensor<?x?xf32>, tensor<?x?xf32>, tensor<?x?xf32>, tensor<?x?xf32>,
		  tensor<?x?xf32>, tensor<?x?xf32>, tensor<?x?xf32>, tensor<?x?xf32>,
		  tensor<?x?xf32>, tensor<?x?xf32>, tensor<?x?xf32>, tensor<?x?xf32>,
		  tensor<?x?xf32>, tensor<?x?xf32>, tensor<?x?xf32>, tensor<?x?xf32>,
		  tensor<?x?xf32>, tensor<?x?xf32>, tensor<?x?xf32>, tensor<?x?xf32>,
		  tensor<?x?xf32>, tensor<?x?xf32>, tensor<?x?xf32>, tensor<?x?xf32>,
		  tensor<?x?xf32>, tensor<?x?xf32>, tensor<?x?xf32>, tensor<?x?xf32>,
		  tensor<?x?xf32>, tensor<?x?xf32>, tensor<?x?xf32>, tensor<?x?xf32>,
		  tensor<i32>) -> tensor<?x?xf32>
      tf_executor.fetch %2 : tensor<?x?xf32>
    }
    return %graph : tensor<?x?xf32>
  }
}