exec ${PAGER:-/usr/bin/less} "$0" || exit 1
Executing tests from //tensorflow/compiler/mlir/disc/tests/tensorflow_ops:softmax.cpp.test
-----------------------------------------------------------------------------
[==========] Running 1 test from 1 test suite.
[----------] Global test environment set-up.
[----------] 1 test from TFSoftmaxOpTest
[ RUN      ] TFSoftmaxOpTest.FullyDynamicShape3DF32
2022-08-24 06:21:49.982450: I tensorflow/compiler/mlir/disc/tests/mlir_feature_test.cc:306] Testing for CUDA backend
2022-08-24 06:21:49.982542: I tensorflow/compiler/mlir/disc/tests/mlir_feature_test.cc:145] Original TF code: func.func @main(%arg0: tensor<?x?x?xf32>) -> tensor<?x?x?xf32> attributes {tf.entry_function = {inputs = "{{INPUTS}}", outputs = "{{OUTPUTS}}", input_placements="{{INPUT_PLACEMENTS}}", output_placements="{{OUTPUT_PLACEMENTS}}"}} {
  %graph = tf_executor.graph {
    %1:2 = tf_executor.island wraps "tf.Softmax"(%arg0) : (tensor<?x?x?xf32>) -> tensor<?x?x?xf32>
    tf_executor.fetch %1 : tensor <?x?x?xf32>
  }
  return %graph : tensor<?x?x?xf32>
}
2022-08-24 06:21:49.982556: I tensorflow/compiler/mlir/disc/tests/mlir_feature_test.cc:149] New TF code: func.func @main(%arg0: tensor<?x?x?xf32>) -> tensor<?x?x?xf32> attributes {tf.entry_function = {inputs = "input0", outputs = "output0", input_placements="gpu", output_placements="gpu"}} {
  %graph = tf_executor.graph {
    %1:2 = tf_executor.island wraps "tf.Softmax"(%arg0) : (tensor<?x?x?xf32>) -> tensor<?x?x?xf32>
    tf_executor.fetch %1 : tensor <?x?x?xf32>
  }
  return %graph : tensor<?x?x?xf32>
}
2022-08-24 06:21:49.982631: I tensorflow/compiler/mlir/disc/tests/mlir_test.cc:232] mlir_file_path: /root/.cache/bazel/_bazel_root/4cf787dd368afbf575ff6140b2d24691/execroot/org_tensorflow/_tmp/e877672218cbaf0733fb74fb1644a598/tempfile-330bb2f99ddd-844a7b9d-16839-5e6f6b239176e
2022-08-24 06:21:49.982634: I tensorflow/compiler/mlir/disc/tests/mlir_test.cc:233] tmp_dir: /root/.cache/bazel/_bazel_root/4cf787dd368afbf575ff6140b2d24691/execroot/org_tensorflow/_tmp/e877672218cbaf0733fb74fb1644a598
2022-08-24 06:21:49.982636: I tensorflow/compiler/mlir/disc/tests/mlir_test.cc:234] test_name: FullyDynamicShape3DF32_0
2022-08-24 06:21:50.057734: I tensorflow/compiler/mlir/disc/tests/mlir_test.cc:264] Executed: tensorflow/compiler/mlir/tf-opt --tf-standard-pipeline /root/.cache/bazel/_bazel_root/4cf787dd368afbf575ff6140b2d24691/execroot/org_tensorflow/_tmp/e877672218cbaf0733fb74fb1644a598/tempfile-330bb2f99ddd-844a7b9d-16839-5e6f6b239176e -o /root/.cache/bazel/_bazel_root/4cf787dd368afbf575ff6140b2d24691/execroot/org_tensorflow/_tmp/e877672218cbaf0733fb74fb1644a598FullyDynamicShape3DF32_0_tf_dialect.mlir 
2022-08-24 06:21:50.057748: I tensorflow/compiler/mlir/disc/tests/mlir_test.cc:265] tensorflow/compiler/mlir/tf-opt: 0
2022-08-24 06:21:50.057751: I tensorflow/compiler/mlir/disc/tests/mlir_test.cc:266] -- stdout:

============ END ============

2022-08-24 06:21:50.057753: I tensorflow/compiler/mlir/disc/tests/mlir_test.cc:268] -- stderr:
2022-08-24 06:21:50.025512: I tensorflow/core/platform/cpu_feature_guard.cc:193] This TensorFlow binary is optimized with oneAPI Deep Neural Network Library (oneDNN) to use the following CPU instructions in performance-critical operations:  SSE3 SSE4.1 SSE4.2 AVX AVX2 AVX512F AVX512_VNNI FMA
To enable them in other operations, rebuild TensorFlow with the appropriate compiler flags.

============ END ============

2022-08-24 06:21:50.943059: I tensorflow/compiler/mlir/disc/tests/mlir_test.cc:264] Executed: tensorflow/compiler/mlir/disc/disc_compiler_main --mlir-print-elementsattrs-with-hex-if-larger -1 --mlir-elide-elementsattrs-if-larger 8 /root/.cache/bazel/_bazel_root/4cf787dd368afbf575ff6140b2d24691/execroot/org_tensorflow/_tmp/e877672218cbaf0733fb74fb1644a598FullyDynamicShape3DF32_0_tf_dialect.mlir /root/.cache/bazel/_bazel_root/4cf787dd368afbf575ff6140b2d24691/execroot/org_tensorflow/_tmp/e877672218cbaf0733fb74fb1644a598FullyDynamicShape3DF32_0.so 
2022-08-24 06:21:50.943080: I tensorflow/compiler/mlir/disc/tests/mlir_test.cc:265] tensorflow/compiler/mlir/disc/disc_compiler_main: 0
2022-08-24 06:21:50.943087: I tensorflow/compiler/mlir/disc/tests/mlir_test.cc:266] -- stdout:

============ END ============

2022-08-24 06:21:50.945602: I tensorflow/compiler/mlir/disc/tests/mlir_test.cc:268] -- stderr:
======== BEGIN Original Module =========
module {
  func.func @main(%arg0: tensor<?x?x?xf32>) -> tensor<?x?x?xf32> attributes {tf.entry_function = {input_placements = "gpu", inputs = "input0", output_placements = "gpu", outputs = "output0"}} {
    %0 = "tf.Softmax"(%arg0) : (tensor<?x?x?xf32>) -> tensor<?x?x?xf32>
    return %0 : tensor<?x?x?xf32>
  }
}

======= END Original Module ==========
[[ INFO ]] Running TF2XLA
2022-08-24 06:21:50.101657: I tensorflow/core/platform/cpu_feature_guard.cc:193] This TensorFlow binary is optimized with oneAPI Deep Neural Network Library (oneDNN) to use the following CPU instructions in performance-critical operations:  SSE3 SSE4.1 SSE4.2 AVX AVX2 AVX512F AVX512_VNNI FMA
To enable them in other operations, rebuild TensorFlow with the appropriate compiler flags.
// -----// IR Dump After LegalizeTF (xla-legalize-tf) //----- //
func.func @main(%arg0: tensor<?x?x?xf32>) -> tensor<?x?x?xf32> attributes {tf.entry_function = {input_placements = "gpu", inputs = "input0", output_placements = "gpu", outputs = "output0"}} {
  %0 = mhlo.constant dense<-1> : tensor<1xi64>
  %1 = mhlo.convert %arg0 : tensor<?x?x?xf32>
  %2 = mhlo.constant dense<0xFF800000> : tensor<f32>
  %3 = mhlo.reduce(%1 init: %2) applies mhlo.maximum across dimensions = [2] : (tensor<?x?x?xf32>, tensor<f32>) -> tensor<?x?xf32>
  %4 = mhlo.convert %3 : tensor<?x?xf32>
  %cst = arith.constant dense<2> : tensor<1xi32>
  %5 = shape.shape_of %4 : tensor<?x?xf32> -> tensor<2xindex>
  %c1 = arith.constant 1 : index
  %c0 = arith.constant 0 : index
  %6 = tensor.extract %5[%c0] : tensor<2xindex>
  %c1_0 = arith.constant 1 : index
  %7 = tensor.extract %5[%c1_0] : tensor<2xindex>
  %8 = tensor.from_elements %6, %7, %c1 : tensor<3xindex>
  %9 = mhlo.dynamic_reshape %4, %8 : (tensor<?x?xf32>, tensor<3xindex>) -> tensor<?x?x1xf32>
  %10 = shape.shape_of %arg0 : tensor<?x?x?xf32> -> tensor<3xindex>
  %11 = shape.shape_of %9 : tensor<?x?x1xf32> -> tensor<3xindex>
  %12 = shape.cstr_broadcastable %10, %11 : tensor<3xindex>, tensor<3xindex>
  %13 = shape.assuming %12 -> (tensor<?x?x?xf32>) {
    %28 = shape.shape_of %arg0 : tensor<?x?x?xf32> -> tensor<3xindex>
    %29 = shape.shape_of %9 : tensor<?x?x1xf32> -> tensor<3xindex>
    %30 = shape.broadcast %28, %29 : tensor<3xindex>, tensor<3xindex> -> tensor<3xindex>
    %31 = "mhlo.dynamic_broadcast_in_dim"(%arg0, %30) {broadcast_dimensions = dense<[0, 1, 2]> : tensor<3xi64>} : (tensor<?x?x?xf32>, tensor<3xindex>) -> tensor<?x?x?xf32>
    %32 = "mhlo.dynamic_broadcast_in_dim"(%9, %30) {broadcast_dimensions = dense<[0, 1, 2]> : tensor<3xi64>} : (tensor<?x?x1xf32>, tensor<3xindex>) -> tensor<?x?x?xf32>
    %33 = mhlo.subtract %31, %32 : tensor<?x?x?xf32>
    shape.assuming_yield %33 : tensor<?x?x?xf32>
  }
  %14 = mhlo.exponential %13 : tensor<?x?x?xf32>
  %15 = mhlo.convert %14 : tensor<?x?x?xf32>
  %16 = mhlo.constant dense<-0.000000e+00> : tensor<f32>
  %17 = mhlo.reduce(%15 init: %16) applies mhlo.add across dimensions = [2] : (tensor<?x?x?xf32>, tensor<f32>) -> tensor<?x?xf32>
  %18 = mhlo.convert %17 : tensor<?x?xf32>
  %cst_1 = arith.constant dense<2> : tensor<1xi32>
  %19 = shape.shape_of %18 : tensor<?x?xf32> -> tensor<2xindex>
  %c1_2 = arith.constant 1 : index
  %c0_3 = arith.constant 0 : index
  %20 = tensor.extract %19[%c0_3] : tensor<2xindex>
  %c1_4 = arith.constant 1 : index
  %21 = tensor.extract %19[%c1_4] : tensor<2xindex>
  %22 = tensor.from_elements %20, %21, %c1_2 : tensor<3xindex>
  %23 = mhlo.dynamic_reshape %18, %22 : (tensor<?x?xf32>, tensor<3xindex>) -> tensor<?x?x1xf32>
  %24 = shape.shape_of %14 : tensor<?x?x?xf32> -> tensor<3xindex>
  %25 = shape.shape_of %23 : tensor<?x?x1xf32> -> tensor<3xindex>
  %26 = shape.cstr_broadcastable %24, %25 : tensor<3xindex>, tensor<3xindex>
  %27 = shape.assuming %26 -> (tensor<?x?x?xf32>) {
    %28 = shape.shape_of %14 : tensor<?x?x?xf32> -> tensor<3xindex>
    %29 = shape.shape_of %23 : tensor<?x?x1xf32> -> tensor<3xindex>
    %30 = shape.broadcast %28, %29 : tensor<3xindex>, tensor<3xindex> -> tensor<3xindex>
    %31 = "mhlo.dynamic_broadcast_in_dim"(%14, %30) {broadcast_dimensions = dense<[0, 1, 2]> : tensor<3xi64>} : (tensor<?x?x?xf32>, tensor<3xindex>) -> tensor<?x?x?xf32>
    %32 = "mhlo.dynamic_broadcast_in_dim"(%23, %30) {broadcast_dimensions = dense<[0, 1, 2]> : tensor<3xi64>} : (tensor<?x?x1xf32>, tensor<3xindex>) -> tensor<?x?x?xf32>
    %33 = mhlo.divide %31, %32 : tensor<?x?x?xf32>
    shape.assuming_yield %33 : tensor<?x?x?xf32>
  }
  return %27 : tensor<?x?x?xf32>
}

// -----// IR Dump After DiscLowerTfPass (disc-lower-tf) //----- //
func.func @main(%arg0: tensor<?x?x?xf32>) -> tensor<?x?x?xf32> attributes {tf.entry_function = {input_placements = "gpu", inputs = "input0", output_placements = "gpu", outputs = "output0"}} {
  %0 = mhlo.constant dense<-0.000000e+00> : tensor<f32>
  %c0 = arith.constant 0 : index
  %c1 = arith.constant 1 : index
  %1 = mhlo.constant dense<0xFF800000> : tensor<f32>
  %2 = mhlo.reduce(%arg0 init: %1) applies mhlo.maximum across dimensions = [2] : (tensor<?x?x?xf32>, tensor<f32>) -> tensor<?x?xf32>
  %3 = shape.shape_of %2 : tensor<?x?xf32> -> tensor<2xindex>
  %4 = tensor.extract %3[%c0] : tensor<2xindex>
  %5 = tensor.extract %3[%c1] : tensor<2xindex>
  %6 = tensor.from_elements %4, %5, %c1 : tensor<3xindex>
  %7 = mhlo.dynamic_reshape %2, %6 : (tensor<?x?xf32>, tensor<3xindex>) -> tensor<?x?x1xf32>
  %8 = shape.shape_of %arg0 : tensor<?x?x?xf32> -> tensor<3xindex>
  %9 = shape.shape_of %7 : tensor<?x?x1xf32> -> tensor<3xindex>
  %10 = shape.cstr_broadcastable %8, %9 : tensor<3xindex>, tensor<3xindex>
  %11 = shape.assuming %10 -> (tensor<?x?x?xf32>) {
    %23 = shape.shape_of %arg0 : tensor<?x?x?xf32> -> tensor<3xindex>
    %24 = shape.shape_of %7 : tensor<?x?x1xf32> -> tensor<3xindex>
    %25 = shape.broadcast %23, %24 : tensor<3xindex>, tensor<3xindex> -> tensor<3xindex>
    %26 = "mhlo.dynamic_broadcast_in_dim"(%arg0, %25) {broadcast_dimensions = dense<[0, 1, 2]> : tensor<3xi64>} : (tensor<?x?x?xf32>, tensor<3xindex>) -> tensor<?x?x?xf32>
    %27 = "mhlo.dynamic_broadcast_in_dim"(%7, %25) {broadcast_dimensions = dense<[0, 1, 2]> : tensor<3xi64>} : (tensor<?x?x1xf32>, tensor<3xindex>) -> tensor<?x?x?xf32>
    %28 = mhlo.subtract %26, %27 : tensor<?x?x?xf32>
    shape.assuming_yield %28 : tensor<?x?x?xf32>
  }
  %12 = mhlo.exponential %11 : tensor<?x?x?xf32>
  %13 = mhlo.reduce(%12 init: %0) applies mhlo.add across dimensions = [2] : (tensor<?x?x?xf32>, tensor<f32>) -> tensor<?x?xf32>
  %14 = shape.shape_of %13 : tensor<?x?xf32> -> tensor<2xindex>
  %15 = tensor.extract %14[%c0] : tensor<2xindex>
  %16 = tensor.extract %14[%c1] : tensor<2xindex>
  %17 = tensor.from_elements %15, %16, %c1 : tensor<3xindex>
  %18 = mhlo.dynamic_reshape %13, %17 : (tensor<?x?xf32>, tensor<3xindex>) -> tensor<?x?x1xf32>
  %19 = shape.shape_of %12 : tensor<?x?x?xf32> -> tensor<3xindex>
  %20 = shape.shape_of %18 : tensor<?x?x1xf32> -> tensor<3xindex>
  %21 = shape.cstr_broadcastable %19, %20 : tensor<3xindex>, tensor<3xindex>
  %22 = shape.assuming %21 -> (tensor<?x?x?xf32>) {
    %23 = shape.shape_of %12 : tensor<?x?x?xf32> -> tensor<3xindex>
    %24 = shape.shape_of %18 : tensor<?x?x1xf32> -> tensor<3xindex>
    %25 = shape.broadcast %23, %24 : tensor<3xindex>, tensor<3xindex> -> tensor<3xindex>
    %26 = "mhlo.dynamic_broadcast_in_dim"(%12, %25) {broadcast_dimensions = dense<[0, 1, 2]> : tensor<3xi64>} : (tensor<?x?x?xf32>, tensor<3xindex>) -> tensor<?x?x?xf32>
    %27 = "mhlo.dynamic_broadcast_in_dim"(%18, %25) {broadcast_dimensions = dense<[0, 1, 2]> : tensor<3xi64>} : (tensor<?x?x1xf32>, tensor<3xindex>) -> tensor<?x?x?xf32>
    %28 = mhlo.divide %26, %27 : tensor<?x?x?xf32>
    shape.assuming_yield %28 : tensor<?x?x?xf32>
  }
  return %22 : tensor<?x?x?xf32>
}

// -----// IR Dump After Canonicalizer (canonicalize) //----- //
func.func @main(%arg0: tensor<?x?x?xf32>) -> tensor<?x?x?xf32> attributes {tf.entry_function = {input_placements = "gpu", inputs = "input0", output_placements = "gpu", outputs = "output0"}} {
  %0 = mhlo.constant dense<-0.000000e+00> : tensor<f32>
  %c0 = arith.constant 0 : index
  %c1 = arith.constant 1 : index
  %1 = mhlo.constant dense<0xFF800000> : tensor<f32>
  %2 = mhlo.reduce(%arg0 init: %1) applies mhlo.maximum across dimensions = [2] : (tensor<?x?x?xf32>, tensor<f32>) -> tensor<?x?xf32>
  %3 = tensor.dim %2, %c0 : tensor<?x?xf32>
  %4 = tensor.dim %2, %c1 : tensor<?x?xf32>
  %5 = tensor.from_elements %3, %4, %c1 : tensor<3xindex>
  %6 = mhlo.dynamic_reshape %2, %5 : (tensor<?x?xf32>, tensor<3xindex>) -> tensor<?x?x1xf32>
  %7 = shape.shape_of %arg0 : tensor<?x?x?xf32> -> tensor<3xindex>
  %8 = shape.cstr_broadcastable %7, %5 : tensor<3xindex>, tensor<3xindex>
  %9 = shape.assuming %8 -> (tensor<?x?x?xf32>) {
    %19 = shape.shape_of %arg0 : tensor<?x?x?xf32> -> tensor<3xindex>
    %20 = shape.broadcast %19, %5 : tensor<3xindex>, tensor<3xindex> -> tensor<3xindex>
    %21 = "mhlo.dynamic_broadcast_in_dim"(%arg0, %20) {broadcast_dimensions = dense<[0, 1, 2]> : tensor<3xi64>} : (tensor<?x?x?xf32>, tensor<3xindex>) -> tensor<?x?x?xf32>
    %22 = "mhlo.dynamic_broadcast_in_dim"(%6, %20) {broadcast_dimensions = dense<[0, 1, 2]> : tensor<3xi64>} : (tensor<?x?x1xf32>, tensor<3xindex>) -> tensor<?x?x?xf32>
    %23 = mhlo.subtract %21, %22 : tensor<?x?x?xf32>
    shape.assuming_yield %23 : tensor<?x?x?xf32>
  }
  %10 = mhlo.exponential %9 : tensor<?x?x?xf32>
  %11 = mhlo.reduce(%10 init: %0) applies mhlo.add across dimensions = [2] : (tensor<?x?x?xf32>, tensor<f32>) -> tensor<?x?xf32>
  %12 = tensor.dim %11, %c0 : tensor<?x?xf32>
  %13 = tensor.dim %11, %c1 : tensor<?x?xf32>
  %14 = tensor.from_elements %12, %13, %c1 : tensor<3xindex>
  %15 = mhlo.dynamic_reshape %11, %14 : (tensor<?x?xf32>, tensor<3xindex>) -> tensor<?x?x1xf32>
  %16 = shape.shape_of %10 : tensor<?x?x?xf32> -> tensor<3xindex>
  %17 = shape.cstr_broadcastable %16, %14 : tensor<3xindex>, tensor<3xindex>
  %18 = shape.assuming %17 -> (tensor<?x?x?xf32>) {
    %19 = shape.shape_of %10 : tensor<?x?x?xf32> -> tensor<3xindex>
    %20 = shape.broadcast %19, %14 : tensor<3xindex>, tensor<3xindex> -> tensor<3xindex>
    %21 = "mhlo.dynamic_broadcast_in_dim"(%10, %20) {broadcast_dimensions = dense<[0, 1, 2]> : tensor<3xi64>} : (tensor<?x?x?xf32>, tensor<3xindex>) -> tensor<?x?x?xf32>
    %22 = "mhlo.dynamic_broadcast_in_dim"(%15, %20) {broadcast_dimensions = dense<[0, 1, 2]> : tensor<3xi64>} : (tensor<?x?x1xf32>, tensor<3xindex>) -> tensor<?x?x?xf32>
    %23 = mhlo.divide %21, %22 : tensor<?x?x?xf32>
    shape.assuming_yield %23 : tensor<?x?x?xf32>
  }
  return %18 : tensor<?x?x?xf32>
}

======== BEGIN After TF2HLO =========
module {
  func.func @main(%arg0: tensor<?x?x?xf32>) -> tensor<?x?x?xf32> attributes {tf.entry_function = {input_placements = "gpu", inputs = "input0", output_placements = "gpu", outputs = "output0"}} {
    %0 = mhlo.constant dense<-0.000000e+00> : tensor<f32>
    %c0 = arith.constant 0 : index
    %c1 = arith.constant 1 : index
    %1 = mhlo.constant dense<0xFF800000> : tensor<f32>
    %2 = mhlo.reduce(%arg0 init: %1) applies mhlo.maximum across dimensions = [2] : (tensor<?x?x?xf32>, tensor<f32>) -> tensor<?x?xf32>
    %3 = tensor.dim %2, %c0 : tensor<?x?xf32>
    %4 = tensor.dim %2, %c1 : tensor<?x?xf32>
    %5 = tensor.from_elements %3, %4, %c1 : tensor<3xindex>
    %6 = mhlo.dynamic_reshape %2, %5 : (tensor<?x?xf32>, tensor<3xindex>) -> tensor<?x?x1xf32>
    %7 = shape.shape_of %arg0 : tensor<?x?x?xf32> -> tensor<3xindex>
    %8 = shape.cstr_broadcastable %7, %5 : tensor<3xindex>, tensor<3xindex>
    %9 = shape.assuming %8 -> (tensor<?x?x?xf32>) {
      %19 = shape.shape_of %arg0 : tensor<?x?x?xf32> -> tensor<3xindex>
      %20 = shape.broadcast %19, %5 : tensor<3xindex>, tensor<3xindex> -> tensor<3xindex>
      %21 = "mhlo.dynamic_broadcast_in_dim"(%arg0, %20) {broadcast_dimensions = dense<[0, 1, 2]> : tensor<3xi64>} : (tensor<?x?x?xf32>, tensor<3xindex>) -> tensor<?x?x?xf32>
      %22 = "mhlo.dynamic_broadcast_in_dim"(%6, %20) {broadcast_dimensions = dense<[0, 1, 2]> : tensor<3xi64>} : (tensor<?x?x1xf32>, tensor<3xindex>) -> tensor<?x?x?xf32>
      %23 = mhlo.subtract %21, %22 : tensor<?x?x?xf32>
      shape.assuming_yield %23 : tensor<?x?x?xf32>
    }
    %10 = mhlo.exponential %9 : tensor<?x?x?xf32>
    %11 = mhlo.reduce(%10 init: %0) applies mhlo.add across dimensions = [2] : (tensor<?x?x?xf32>, tensor<f32>) -> tensor<?x?xf32>
    %12 = tensor.dim %11, %c0 : tensor<?x?xf32>
    %13 = tensor.dim %11, %c1 : tensor<?x?xf32>
    %14 = tensor.from_elements %12, %13, %c1 : tensor<3xindex>
    %15 = mhlo.dynamic_reshape %11, %14 : (tensor<?x?xf32>, tensor<3xindex>) -> tensor<?x?x1xf32>
    %16 = shape.shape_of %10 : tensor<?x?x?xf32> -> tensor<3xindex>
    %17 = shape.cstr_broadcastable %16, %14 : tensor<3xindex>, tensor<3xindex>
    %18 = shape.assuming %17 -> (tensor<?x?x?xf32>) {
      %19 = shape.shape_of %10 : tensor<?x?x?xf32> -> tensor<3xindex>
      %20 = shape.broadcast %19, %14 : tensor<3xindex>, tensor<3xindex> -> tensor<3xindex>
      %21 = "mhlo.dynamic_broadcast_in_dim"(%10, %20) {broadcast_dimensions = dense<[0, 1, 2]> : tensor<3xi64>} : (tensor<?x?x?xf32>, tensor<3xindex>) -> tensor<?x?x?xf32>
      %22 = "mhlo.dynamic_broadcast_in_dim"(%15, %20) {broadcast_dimensions = dense<[0, 1, 2]> : tensor<3xi64>} : (tensor<?x?x1xf32>, tensor<3xindex>) -> tensor<?x?x?xf32>
      %23 = mhlo.divide %21, %22 : tensor<?x?x?xf32>
      shape.assuming_yield %23 : tensor<?x?x?xf32>
    }
    return %18 : tensor<?x?x?xf32>
  }
}

======= END After TF2HLO ==========
// -----// IR Dump After RemoveShapeConstraintsPass (disc-remove-shape-constraint) //----- //
func.func @main(%arg0: tensor<?x?x?xf32>) -> tensor<?x?x?xf32> attributes {tf.entry_function = {input_placements = "gpu", inputs = "input0", output_placements = "gpu", outputs = "output0"}} {
  %0 = shape.const_witness true
  %1 = mhlo.constant dense<-0.000000e+00> : tensor<f32>
  %c0 = arith.constant 0 : index
  %c1 = arith.constant 1 : index
  %2 = mhlo.constant dense<0xFF800000> : tensor<f32>
  %3 = mhlo.reduce(%arg0 init: %2) applies mhlo.maximum across dimensions = [2] : (tensor<?x?x?xf32>, tensor<f32>) -> tensor<?x?xf32>
  %4 = tensor.dim %3, %c0 : tensor<?x?xf32>
  %5 = tensor.dim %3, %c1 : tensor<?x?xf32>
  %6 = tensor.from_elements %4, %5, %c1 : tensor<3xindex>
  %7 = mhlo.dynamic_reshape %3, %6 : (tensor<?x?xf32>, tensor<3xindex>) -> tensor<?x?x1xf32>
  %8 = shape.assuming %0 -> (tensor<?x?x?xf32>) {
    %16 = shape.shape_of %arg0 : tensor<?x?x?xf32> -> tensor<3xindex>
    %17 = shape.broadcast %16, %6 : tensor<3xindex>, tensor<3xindex> -> tensor<3xindex>
    %18 = "mhlo.dynamic_broadcast_in_dim"(%arg0, %17) {broadcast_dimensions = dense<[0, 1, 2]> : tensor<3xi64>} : (tensor<?x?x?xf32>, tensor<3xindex>) -> tensor<?x?x?xf32>
    %19 = "mhlo.dynamic_broadcast_in_dim"(%7, %17) {broadcast_dimensions = dense<[0, 1, 2]> : tensor<3xi64>} : (tensor<?x?x1xf32>, tensor<3xindex>) -> tensor<?x?x?xf32>
    %20 = mhlo.subtract %18, %19 : tensor<?x?x?xf32>
    shape.assuming_yield %20 : tensor<?x?x?xf32>
  }
  %9 = mhlo.exponential %8 : tensor<?x?x?xf32>
  %10 = mhlo.reduce(%9 init: %1) applies mhlo.add across dimensions = [2] : (tensor<?x?x?xf32>, tensor<f32>) -> tensor<?x?xf32>
  %11 = tensor.dim %10, %c0 : tensor<?x?xf32>
  %12 = tensor.dim %10, %c1 : tensor<?x?xf32>
  %13 = tensor.from_elements %11, %12, %c1 : tensor<3xindex>
  %14 = mhlo.dynamic_reshape %10, %13 : (tensor<?x?xf32>, tensor<3xindex>) -> tensor<?x?x1xf32>
  %15 = shape.assuming %0 -> (tensor<?x?x?xf32>) {
    %16 = shape.shape_of %9 : tensor<?x?x?xf32> -> tensor<3xindex>
    %17 = shape.broadcast %16, %13 : tensor<3xindex>, tensor<3xindex> -> tensor<3xindex>
    %18 = "mhlo.dynamic_broadcast_in_dim"(%9, %17) {broadcast_dimensions = dense<[0, 1, 2]> : tensor<3xi64>} : (tensor<?x?x?xf32>, tensor<3xindex>) -> tensor<?x?x?xf32>
    %19 = "mhlo.dynamic_broadcast_in_dim"(%14, %17) {broadcast_dimensions = dense<[0, 1, 2]> : tensor<3xi64>} : (tensor<?x?x1xf32>, tensor<3xindex>) -> tensor<?x?x?xf32>
    %20 = mhlo.divide %18, %19 : tensor<?x?x?xf32>
    shape.assuming_yield %20 : tensor<?x?x?xf32>
  }
  return %15 : tensor<?x?x?xf32>
}

// -----// IR Dump After Canonicalizer (canonicalize) //----- //
func.func @main(%arg0: tensor<?x?x?xf32>) -> tensor<?x?x?xf32> attributes {tf.entry_function = {input_placements = "gpu", inputs = "input0", output_placements = "gpu", outputs = "output0"}} {
  %0 = mhlo.constant dense<-0.000000e+00> : tensor<f32>
  %c0 = arith.constant 0 : index
  %c1 = arith.constant 1 : index
  %1 = mhlo.constant dense<0xFF800000> : tensor<f32>
  %2 = mhlo.reduce(%arg0 init: %1) applies mhlo.maximum across dimensions = [2] : (tensor<?x?x?xf32>, tensor<f32>) -> tensor<?x?xf32>
  %3 = tensor.dim %2, %c0 : tensor<?x?xf32>
  %4 = tensor.dim %2, %c1 : tensor<?x?xf32>
  %5 = tensor.from_elements %3, %4, %c1 : tensor<3xindex>
  %6 = mhlo.dynamic_reshape %2, %5 : (tensor<?x?xf32>, tensor<3xindex>) -> tensor<?x?x1xf32>
  %7 = shape.shape_of %arg0 : tensor<?x?x?xf32> -> tensor<3xindex>
  %8 = shape.broadcast %7, %5 : tensor<3xindex>, tensor<3xindex> -> tensor<3xindex>
  %9 = "mhlo.dynamic_broadcast_in_dim"(%arg0, %8) {broadcast_dimensions = dense<[0, 1, 2]> : tensor<3xi64>} : (tensor<?x?x?xf32>, tensor<3xindex>) -> tensor<?x?x?xf32>
  %10 = "mhlo.dynamic_broadcast_in_dim"(%6, %8) {broadcast_dimensions = dense<[0, 1, 2]> : tensor<3xi64>} : (tensor<?x?x1xf32>, tensor<3xindex>) -> tensor<?x?x?xf32>
  %11 = mhlo.subtract %9, %10 : tensor<?x?x?xf32>
  %12 = mhlo.exponential %11 : tensor<?x?x?xf32>
  %13 = mhlo.reduce(%12 init: %0) applies mhlo.add across dimensions = [2] : (tensor<?x?x?xf32>, tensor<f32>) -> tensor<?x?xf32>
  %14 = tensor.dim %13, %c0 : tensor<?x?xf32>
  %15 = tensor.dim %13, %c1 : tensor<?x?xf32>
  %16 = tensor.from_elements %14, %15, %c1 : tensor<3xindex>
  %17 = mhlo.dynamic_reshape %13, %16 : (tensor<?x?xf32>, tensor<3xindex>) -> tensor<?x?x1xf32>
  %18 = shape.shape_of %12 : tensor<?x?x?xf32> -> tensor<3xindex>
  %19 = shape.broadcast %18, %16 : tensor<3xindex>, tensor<3xindex> -> tensor<3xindex>
  %20 = "mhlo.dynamic_broadcast_in_dim"(%12, %19) {broadcast_dimensions = dense<[0, 1, 2]> : tensor<3xi64>} : (tensor<?x?x?xf32>, tensor<3xindex>) -> tensor<?x?x?xf32>
  %21 = "mhlo.dynamic_broadcast_in_dim"(%17, %19) {broadcast_dimensions = dense<[0, 1, 2]> : tensor<3xi64>} : (tensor<?x?x1xf32>, tensor<3xindex>) -> tensor<?x?x?xf32>
  %22 = mhlo.divide %20, %21 : tensor<?x?x?xf32>
  return %22 : tensor<?x?x?xf32>
}

// -----// IR Dump After ConvertShapeToStandardPass (disc-convert-shape-to-std) //----- //
func.func @main(%arg0: tensor<?x?x?xf32>) -> tensor<?x?x?xf32> attributes {tf.entry_function = {input_placements = "gpu", inputs = "input0", output_placements = "gpu", outputs = "output0"}} {
  %0 = mhlo.constant dense<-0.000000e+00> : tensor<f32>
  %c0 = arith.constant 0 : index
  %c1 = arith.constant 1 : index
  %1 = mhlo.constant dense<0xFF800000> : tensor<f32>
  %2 = mhlo.reduce(%arg0 init: %1) applies mhlo.maximum across dimensions = [2] : (tensor<?x?x?xf32>, tensor<f32>) -> tensor<?x?xf32>
  %3 = tensor.dim %2, %c0 : tensor<?x?xf32>
  %4 = tensor.dim %2, %c1 : tensor<?x?xf32>
  %5 = tensor.from_elements %3, %4, %c1 : tensor<3xindex>
  %6 = mhlo.dynamic_reshape %2, %5 : (tensor<?x?xf32>, tensor<3xindex>) -> tensor<?x?x1xf32>
  %c0_0 = arith.constant 0 : index
  %7 = tensor.dim %arg0, %c0_0 : tensor<?x?x?xf32>
  %c1_1 = arith.constant 1 : index
  %8 = tensor.dim %arg0, %c1_1 : tensor<?x?x?xf32>
  %c2 = arith.constant 2 : index
  %9 = tensor.dim %arg0, %c2 : tensor<?x?x?xf32>
  %10 = tensor.from_elements %7, %8, %9 : tensor<3xindex>
  %c0_2 = arith.constant 0 : index
  %c1_3 = arith.constant 1 : index
  %c0_4 = arith.constant 0 : index
  %11 = tensor.extract %10[%c0_4] : tensor<3xindex>
  %12 = arith.cmpi eq, %11, %c1_3 : index
  %13 = arith.select %12, %c1_3, %11 : index
  %c0_5 = arith.constant 0 : index
  %14 = tensor.extract %5[%c0_5] : tensor<3xindex>
  %15 = arith.cmpi eq, %14, %c1_3 : index
  %16 = arith.select %15, %13, %14 : index
  %c1_6 = arith.constant 1 : index
  %c1_7 = arith.constant 1 : index
  %17 = tensor.extract %10[%c1_7] : tensor<3xindex>
  %18 = arith.cmpi eq, %17, %c1_6 : index
  %19 = arith.select %18, %c1_6, %17 : index
  %c1_8 = arith.constant 1 : index
  %20 = tensor.extract %5[%c1_8] : tensor<3xindex>
  %21 = arith.cmpi eq, %20, %c1_6 : index
  %22 = arith.select %21, %19, %20 : index
  %c1_9 = arith.constant 1 : index
  %c2_10 = arith.constant 2 : index
  %23 = tensor.extract %10[%c2_10] : tensor<3xindex>
  %24 = arith.cmpi eq, %23, %c1_9 : index
  %25 = arith.select %24, %c1_9, %23 : index
  %c2_11 = arith.constant 2 : index
  %26 = tensor.extract %5[%c2_11] : tensor<3xindex>
  %27 = arith.cmpi eq, %26, %c1_9 : index
  %28 = arith.select %27, %25, %26 : index
  %29 = tensor.from_elements %16, %22, %28 : tensor<3xindex>
  %30 = "mhlo.dynamic_broadcast_in_dim"(%arg0, %29) {broadcast_dimensions = dense<[0, 1, 2]> : tensor<3xi64>} : (tensor<?x?x?xf32>, tensor<3xindex>) -> tensor<?x?x?xf32>
  %31 = "mhlo.dynamic_broadcast_in_dim"(%6, %29) {broadcast_dimensions = dense<[0, 1, 2]> : tensor<3xi64>} : (tensor<?x?x1xf32>, tensor<3xindex>) -> tensor<?x?x?xf32>
  %32 = mhlo.subtract %30, %31 : tensor<?x?x?xf32>
  %33 = mhlo.exponential %32 : tensor<?x?x?xf32>
  %34 = mhlo.reduce(%33 init: %0) applies mhlo.add across dimensions = [2] : (tensor<?x?x?xf32>, tensor<f32>) -> tensor<?x?xf32>
  %35 = tensor.dim %34, %c0 : tensor<?x?xf32>
  %36 = tensor.dim %34, %c1 : tensor<?x?xf32>
  %37 = tensor.from_elements %35, %36, %c1 : tensor<3xindex>
  %38 = mhlo.dynamic_reshape %34, %37 : (tensor<?x?xf32>, tensor<3xindex>) -> tensor<?x?x1xf32>
  %c0_12 = arith.constant 0 : index
  %39 = tensor.dim %33, %c0_12 : tensor<?x?x?xf32>
  %c1_13 = arith.constant 1 : index
  %40 = tensor.dim %33, %c1_13 : tensor<?x?x?xf32>
  %c2_14 = arith.constant 2 : index
  %41 = tensor.dim %33, %c2_14 : tensor<?x?x?xf32>
  %42 = tensor.from_elements %39, %40, %41 : tensor<3xindex>
  %c0_15 = arith.constant 0 : index
  %c1_16 = arith.constant 1 : index
  %c0_17 = arith.constant 0 : index
  %43 = tensor.extract %42[%c0_17] : tensor<3xindex>
  %44 = arith.cmpi eq, %43, %c1_16 : index
  %45 = arith.select %44, %c1_16, %43 : index
  %c0_18 = arith.constant 0 : index
  %46 = tensor.extract %37[%c0_18] : tensor<3xindex>
  %47 = arith.cmpi eq, %46, %c1_16 : index
  %48 = arith.select %47, %45, %46 : index
  %c1_19 = arith.constant 1 : index
  %c1_20 = arith.constant 1 : index
  %49 = tensor.extract %42[%c1_20] : tensor<3xindex>
  %50 = arith.cmpi eq, %49, %c1_19 : index
  %51 = arith.select %50, %c1_19, %49 : index
  %c1_21 = arith.constant 1 : index
  %52 = tensor.extract %37[%c1_21] : tensor<3xindex>
  %53 = arith.cmpi eq, %52, %c1_19 : index
  %54 = arith.select %53, %51, %52 : index
  %c1_22 = arith.constant 1 : index
  %c2_23 = arith.constant 2 : index
  %55 = tensor.extract %42[%c2_23] : tensor<3xindex>
  %56 = arith.cmpi eq, %55, %c1_22 : index
  %57 = arith.select %56, %c1_22, %55 : index
  %c2_24 = arith.constant 2 : index
  %58 = tensor.extract %37[%c2_24] : tensor<3xindex>
  %59 = arith.cmpi eq, %58, %c1_22 : index
  %60 = arith.select %59, %57, %58 : index
  %61 = tensor.from_elements %48, %54, %60 : tensor<3xindex>
  %62 = "mhlo.dynamic_broadcast_in_dim"(%33, %61) {broadcast_dimensions = dense<[0, 1, 2]> : tensor<3xi64>} : (tensor<?x?x?xf32>, tensor<3xindex>) -> tensor<?x?x?xf32>
  %63 = "mhlo.dynamic_broadcast_in_dim"(%38, %61) {broadcast_dimensions = dense<[0, 1, 2]> : tensor<3xi64>} : (tensor<?x?x1xf32>, tensor<3xindex>) -> tensor<?x?x?xf32>
  %64 = mhlo.divide %62, %63 : tensor<?x?x?xf32>
  return %64 : tensor<?x?x?xf32>
}

// -----// IR Dump After CSE (cse) //----- //
module {
  func.func @main(%arg0: tensor<?x?x?xf32>) -> tensor<?x?x?xf32> attributes {tf.entry_function = {input_placements = "gpu", inputs = "input0", output_placements = "gpu", outputs = "output0"}} {
    %c0 = arith.constant 0 : index
    %c1 = arith.constant 1 : index
    %c3 = arith.constant 3 : index
    %c2 = arith.constant 2 : index
    %0 = mhlo.constant dense<0xFF800000> : tensor<f32>
    %1 = mhlo.constant dense<-0.000000e+00> : tensor<f32>
    %2 = tensor.dim %arg0, %c0 : tensor<?x?x?xf32>
    %3 = tensor.dim %arg0, %c1 : tensor<?x?x?xf32>
    %4 = tensor.dim %arg0, %c2 : tensor<?x?x?xf32>
    %5 = "disc_shape.tie_shape"(%arg0, %2, %3, %4) : (tensor<?x?x?xf32>, index, index, index) -> tensor<?x?x?xf32>
    %6 = mhlo.reduce(%5 init: %0) applies mhlo.maximum across dimensions = [2] : (tensor<?x?x?xf32>, tensor<f32>) -> tensor<?x?xf32>
    %7 = "disc_shape.tie_shape"(%6, %2, %3) : (tensor<?x?xf32>, index, index) -> tensor<?x?xf32>
    %8 = tensor.from_elements %2, %3, %c1 : tensor<3xindex>
    %9 = "disc_shape.tie_shape"(%8, %c3) : (tensor<3xindex>, index) -> tensor<3xindex>
    %10 = mhlo.dynamic_reshape %7, %9 : (tensor<?x?xf32>, tensor<3xindex>) -> tensor<?x?x1xf32>
    %11 = "disc_shape.tie_shape"(%10, %2, %3, %c1) : (tensor<?x?x1xf32>, index, index, index) -> tensor<?x?x1xf32>
    %12 = tensor.from_elements %2, %3, %4 : tensor<3xindex>
    %13 = "disc_shape.tie_shape"(%12, %c3) : (tensor<3xindex>, index) -> tensor<3xindex>
    %14 = "mhlo.dynamic_broadcast_in_dim"(%5, %13) {broadcast_dimensions = dense<[0, 1, 2]> : tensor<3xi64>} : (tensor<?x?x?xf32>, tensor<3xindex>) -> tensor<?x?x?xf32>
    %15 = "disc_shape.tie_shape"(%14, %2, %3, %4) : (tensor<?x?x?xf32>, index, index, index) -> tensor<?x?x?xf32>
    %16 = "mhlo.dynamic_broadcast_in_dim"(%11, %13) {broadcast_dimensions = dense<[0, 1, 2]> : tensor<3xi64>} : (tensor<?x?x1xf32>, tensor<3xindex>) -> tensor<?x?x?xf32>
    %17 = "disc_shape.tie_shape"(%16, %2, %3, %4) : (tensor<?x?x?xf32>, index, index, index) -> tensor<?x?x?xf32>
    %18 = mhlo.subtract %15, %17 : tensor<?x?x?xf32>
    %19 = "disc_shape.tie_shape"(%18, %2, %3, %4) : (tensor<?x?x?xf32>, index, index, index) -> tensor<?x?x?xf32>
    %20 = mhlo.exponential %19 : tensor<?x?x?xf32>
    %21 = "disc_shape.tie_shape"(%20, %2, %3, %4) : (tensor<?x?x?xf32>, index, index, index) -> tensor<?x?x?xf32>
    %22 = mhlo.reduce(%21 init: %1) applies mhlo.add across dimensions = [2] : (tensor<?x?x?xf32>, tensor<f32>) -> tensor<?x?xf32>
    %23 = "disc_shape.tie_shape"(%22, %2, %3) : (tensor<?x?xf32>, index, index) -> tensor<?x?xf32>
    %24 = mhlo.dynamic_reshape %23, %9 : (tensor<?x?xf32>, tensor<3xindex>) -> tensor<?x?x1xf32>
    %25 = "disc_shape.tie_shape"(%24, %2, %3, %c1) : (tensor<?x?x1xf32>, index, index, index) -> tensor<?x?x1xf32>
    %26 = "mhlo.dynamic_broadcast_in_dim"(%21, %13) {broadcast_dimensions = dense<[0, 1, 2]> : tensor<3xi64>} : (tensor<?x?x?xf32>, tensor<3xindex>) -> tensor<?x?x?xf32>
    %27 = "disc_shape.tie_shape"(%26, %2, %3, %4) : (tensor<?x?x?xf32>, index, index, index) -> tensor<?x?x?xf32>
    %28 = "mhlo.dynamic_broadcast_in_dim"(%25, %13) {broadcast_dimensions = dense<[0, 1, 2]> : tensor<3xi64>} : (tensor<?x?x1xf32>, tensor<3xindex>) -> tensor<?x?x?xf32>
    %29 = "disc_shape.tie_shape"(%28, %2, %3, %4) : (tensor<?x?x?xf32>, index, index, index) -> tensor<?x?x?xf32>
    %30 = mhlo.divide %27, %29 : tensor<?x?x?xf32>
    %31 = "disc_shape.tie_shape"(%30, %2, %3, %4) : (tensor<?x?x?xf32>, index, index, index) -> tensor<?x?x?xf32>
    return %31 : tensor<?x?x?xf32>
  }
}


// -----// IR Dump After DiscShapeOptimizationPass (disc-shape-optimization) //----- //
module {
  func.func @main(%arg0: tensor<?x?x?xf32, [@S0, @S1, @S2]>) -> tensor<?x?x?xf32, [@S0, @S1, @S2]> attributes {tf.entry_function = {input_placements = "gpu", inputs = "input0", output_placements = "gpu", outputs = "output0"}} {
    %c0 = arith.constant 0 : index
    %c1 = arith.constant 1 : index
    %c2 = arith.constant 2 : index
    %0 = mhlo.constant dense<0xFF800000> : tensor<f32>
    %1 = mhlo.constant dense<-0.000000e+00> : tensor<f32>
    %2 = tensor.dim %arg0, %c0 : tensor<?x?x?xf32, [@S0, @S1, @S2]>
    %3 = tensor.dim %arg0, %c1 : tensor<?x?x?xf32, [@S0, @S1, @S2]>
    %4 = tensor.dim %arg0, %c2 : tensor<?x?x?xf32, [@S0, @S1, @S2]>
    %5 = mhlo.reduce(%arg0 init: %0) applies mhlo.maximum across dimensions = [2] : (tensor<?x?x?xf32, [@S0, @S1, @S2]>, tensor<f32>) -> tensor<?x?xf32, [@S0, @S1]>
    %6 = tensor.from_elements %2, %3, %c1 : tensor<3xindex>
    %7 = mhlo.dynamic_reshape %5, %6 : (tensor<?x?xf32, [@S0, @S1]>, tensor<3xindex>) -> tensor<?x?x1xf32, [@S0, @S1, @C1]>
    %8 = tensor.from_elements %2, %3, %4 : tensor<3xindex>
    %9 = "mhlo.dynamic_broadcast_in_dim"(%arg0, %8) {broadcast_dimensions = dense<[0, 1, 2]> : tensor<3xi64>} : (tensor<?x?x?xf32, [@S0, @S1, @S2]>, tensor<3xindex>) -> tensor<?x?x?xf32, [@S0, @S1, @S2]>
    %10 = "mhlo.dynamic_broadcast_in_dim"(%7, %8) {broadcast_dimensions = dense<[0, 1, 2]> : tensor<3xi64>} : (tensor<?x?x1xf32, [@S0, @S1, @C1]>, tensor<3xindex>) -> tensor<?x?x?xf32, [@S0, @S1, @S2]>
    %11 = mhlo.subtract %9, %10 : tensor<?x?x?xf32, [@S0, @S1, @S2]>
    %12 = mhlo.exponential %11 : tensor<?x?x?xf32, [@S0, @S1, @S2]>
    %13 = mhlo.reduce(%12 init: %1) applies mhlo.add across dimensions = [2] : (tensor<?x?x?xf32, [@S0, @S1, @S2]>, tensor<f32>) -> tensor<?x?xf32, [@S0, @S1]>
    %14 = mhlo.dynamic_reshape %13, %6 : (tensor<?x?xf32, [@S0, @S1]>, tensor<3xindex>) -> tensor<?x?x1xf32, [@S0, @S1, @C1]>
    %15 = "mhlo.dynamic_broadcast_in_dim"(%12, %8) {broadcast_dimensions = dense<[0, 1, 2]> : tensor<3xi64>} : (tensor<?x?x?xf32, [@S0, @S1, @S2]>, tensor<3xindex>) -> tensor<?x?x?xf32, [@S0, @S1, @S2]>
    %16 = "mhlo.dynamic_broadcast_in_dim"(%14, %8) {broadcast_dimensions = dense<[0, 1, 2]> : tensor<3xi64>} : (tensor<?x?x1xf32, [@S0, @S1, @C1]>, tensor<3xindex>) -> tensor<?x?x?xf32, [@S0, @S1, @S2]>
    %17 = mhlo.divide %15, %16 : tensor<?x?x?xf32, [@S0, @S1, @S2]>
    return %17 : tensor<?x?x?xf32, [@S0, @S1, @S2]>
  }
  "disc_shape.SymbolicDim"() {knownNegativeOne = false, knownNonNegative = true, knownNonSizeOne = false, knownNonSizeZero = false, sym_name = "S0", value = -1 : i64} : () -> ()
  "disc_shape.SymbolicDim"() {knownNegativeOne = false, knownNonNegative = true, knownNonSizeOne = false, knownNonSizeZero = false, sym_name = "S1", value = -1 : i64} : () -> ()
  "disc_shape.SymbolicDim"() {knownNegativeOne = false, knownNonNegative = true, knownNonSizeOne = false, knownNonSizeZero = false, sym_name = "S2", value = -1 : i64} : () -> ()
  "disc_shape.SymbolicDim"() {knownNegativeOne = false, knownNonNegative = true, knownNonSizeOne = false, knownNonSizeZero = true, sym_name = "C1", value = 1 : i64} : () -> ()
  func.func @shape_constraint_graph() {
    return
  }
}


// -----// IR Dump After DiscAlgebraSimplifierPass (disc-algebra-simplifier) //----- //
func.func @main(%arg0: tensor<?x?x?xf32, [@S0, @S1, @S2]>) -> tensor<?x?x?xf32, [@S0, @S1, @S2]> attributes {tf.entry_function = {input_placements = "gpu", inputs = "input0", output_placements = "gpu", outputs = "output0"}} {
  %c0 = arith.constant 0 : index
  %c1 = arith.constant 1 : index
  %c2 = arith.constant 2 : index
  %0 = mhlo.constant dense<0xFF800000> : tensor<f32>
  %1 = mhlo.constant dense<-0.000000e+00> : tensor<f32>
  %2 = tensor.dim %arg0, %c0 : tensor<?x?x?xf32, [@S0, @S1, @S2]>
  %3 = tensor.dim %arg0, %c1 : tensor<?x?x?xf32, [@S0, @S1, @S2]>
  %4 = tensor.dim %arg0, %c2 : tensor<?x?x?xf32, [@S0, @S1, @S2]>
  %5 = mhlo.reduce(%arg0 init: %0) applies mhlo.maximum across dimensions = [2] : (tensor<?x?x?xf32, [@S0, @S1, @S2]>, tensor<f32>) -> tensor<?x?xf32, [@S0, @S1]>
  %6 = tensor.from_elements %2, %3, %4 : tensor<3xindex>
  %7 = "mhlo.dynamic_broadcast_in_dim"(%5, %6) {broadcast_dimensions = dense<[0, 1]> : tensor<2xi64>} : (tensor<?x?xf32, [@S0, @S1]>, tensor<3xindex>) -> tensor<?x?x?xf32, [@S0, @S1, @S2]>
  %8 = mhlo.subtract %arg0, %7 : tensor<?x?x?xf32, [@S0, @S1, @S2]>
  %9 = mhlo.exponential %8 : tensor<?x?x?xf32, [@S0, @S1, @S2]>
  %10 = mhlo.reduce(%9 init: %1) applies mhlo.add across dimensions = [2] : (tensor<?x?x?xf32, [@S0, @S1, @S2]>, tensor<f32>) -> tensor<?x?xf32, [@S0, @S1]>
  %11 = "mhlo.dynamic_broadcast_in_dim"(%10, %6) {broadcast_dimensions = dense<[0, 1]> : tensor<2xi64>} : (tensor<?x?xf32, [@S0, @S1]>, tensor<3xindex>) -> tensor<?x?x?xf32, [@S0, @S1, @S2]>
  %12 = mhlo.divide %9, %11 : tensor<?x?x?xf32, [@S0, @S1, @S2]>
  return %12 : tensor<?x?x?xf32, [@S0, @S1, @S2]>
}

// -----// IR Dump After DiscShapeOptimizationPass (disc-shape-optimization) //----- //
module {
  func.func @main(%arg0: tensor<?x?x?xf32, [@S0, @S1, @S2]>) -> tensor<?x?x?xf32, [@S0, @S1, @S2]> attributes {tf.entry_function = {input_placements = "gpu", inputs = "input0", output_placements = "gpu", outputs = "output0"}} {
    %c0 = arith.constant 0 : index
    %c1 = arith.constant 1 : index
    %c2 = arith.constant 2 : index
    %0 = mhlo.constant dense<-0.000000e+00> : tensor<f32>
    %1 = mhlo.constant dense<0xFF800000> : tensor<f32>
    %2 = tensor.dim %arg0, %c0 : tensor<?x?x?xf32, [@S0, @S1, @S2]>
    %3 = tensor.dim %arg0, %c1 : tensor<?x?x?xf32, [@S0, @S1, @S2]>
    %4 = tensor.dim %arg0, %c2 : tensor<?x?x?xf32, [@S0, @S1, @S2]>
    %5 = mhlo.reduce(%arg0 init: %1) applies mhlo.maximum across dimensions = [2] : (tensor<?x?x?xf32, [@S0, @S1, @S2]>, tensor<f32>) -> tensor<?x?xf32, [@S0, @S1]>
    %6 = tensor.from_elements %2, %3, %4 : tensor<3xindex>
    %7 = "mhlo.dynamic_broadcast_in_dim"(%5, %6) {broadcast_dimensions = dense<[0, 1]> : tensor<2xi64>} : (tensor<?x?xf32, [@S0, @S1]>, tensor<3xindex>) -> tensor<?x?x?xf32, [@S0, @S1, @S2]>
    %8 = mhlo.subtract %arg0, %7 : tensor<?x?x?xf32, [@S0, @S1, @S2]>
    %9 = mhlo.exponential %8 : tensor<?x?x?xf32, [@S0, @S1, @S2]>
    %10 = mhlo.reduce(%9 init: %0) applies mhlo.add across dimensions = [2] : (tensor<?x?x?xf32, [@S0, @S1, @S2]>, tensor<f32>) -> tensor<?x?xf32, [@S0, @S1]>
    %11 = "mhlo.dynamic_broadcast_in_dim"(%10, %6) {broadcast_dimensions = dense<[0, 1]> : tensor<2xi64>} : (tensor<?x?xf32, [@S0, @S1]>, tensor<3xindex>) -> tensor<?x?x?xf32, [@S0, @S1, @S2]>
    %12 = mhlo.divide %9, %11 : tensor<?x?x?xf32, [@S0, @S1, @S2]>
    return %12 : tensor<?x?x?xf32, [@S0, @S1, @S2]>
  }
  "disc_shape.SymbolicDim"() {knownNegativeOne = false, knownNonNegative = true, knownNonSizeOne = false, knownNonSizeZero = false, sym_name = "S0", value = -1 : i64} : () -> ()
  "disc_shape.SymbolicDim"() {knownNegativeOne = false, knownNonNegative = true, knownNonSizeOne = false, knownNonSizeZero = false, sym_name = "S1", value = -1 : i64} : () -> ()
  "disc_shape.SymbolicDim"() {knownNegativeOne = false, knownNonNegative = true, knownNonSizeOne = false, knownNonSizeZero = false, sym_name = "S2", value = -1 : i64} : () -> ()
  func.func @shape_constraint_graph() {
    return
  }
}


// -----// IR Dump After DiscShapeOptimizationPass (disc-shape-optimization) //----- //
module {
  func.func @main(%arg0: tensor<?x?x?xf32, [@S0, @S1, @S2]>) -> tensor<?x?x?xf32, [@S0, @S1, @S2]> attributes {tf.entry_function = {input_placements = "gpu", inputs = "input0", output_placements = "gpu", outputs = "output0"}} {
    %c0 = arith.constant 0 : index
    %c1 = arith.constant 1 : index
    %c2 = arith.constant 2 : index
    %0 = mhlo.constant dense<0xFF800000> : tensor<f32>
    %1 = mhlo.constant dense<-0.000000e+00> : tensor<f32>
    %2 = tensor.dim %arg0, %c0 : tensor<?x?x?xf32, [@S0, @S1, @S2]>
    %3 = tensor.dim %arg0, %c1 : tensor<?x?x?xf32, [@S0, @S1, @S2]>
    %4 = tensor.dim %arg0, %c2 : tensor<?x?x?xf32, [@S0, @S1, @S2]>
    %5 = mhlo.reduce(%arg0 init: %0) applies mhlo.maximum across dimensions = [2] : (tensor<?x?x?xf32, [@S0, @S1, @S2]>, tensor<f32>) -> tensor<?x?xf32, [@S0, @S1]>
    %6 = tensor.from_elements %2, %3, %4 : tensor<3xindex>
    %7 = "mhlo.dynamic_broadcast_in_dim"(%5, %6) {broadcast_dimensions = dense<[0, 1]> : tensor<2xi64>} : (tensor<?x?xf32, [@S0, @S1]>, tensor<3xindex>) -> tensor<?x?x?xf32, [@S0, @S1, @S2]>
    %8 = mhlo.subtract %arg0, %7 : tensor<?x?x?xf32, [@S0, @S1, @S2]>
    %9 = mhlo.exponential %8 : tensor<?x?x?xf32, [@S0, @S1, @S2]>
    %10 = mhlo.reduce(%9 init: %1) applies mhlo.add across dimensions = [2] : (tensor<?x?x?xf32, [@S0, @S1, @S2]>, tensor<f32>) -> tensor<?x?xf32, [@S0, @S1]>
    %11 = "mhlo.dynamic_broadcast_in_dim"(%10, %6) {broadcast_dimensions = dense<[0, 1]> : tensor<2xi64>} : (tensor<?x?xf32, [@S0, @S1]>, tensor<3xindex>) -> tensor<?x?x?xf32, [@S0, @S1, @S2]>
    %12 = mhlo.divide %9, %11 : tensor<?x?x?xf32, [@S0, @S1, @S2]>
    return %12 : tensor<?x?x?xf32, [@S0, @S1, @S2]>
  }
  "disc_shape.SymbolicDim"() {knownNegativeOne = false, knownNonNegative = true, knownNonSizeOne = false, knownNonSizeZero = false, sym_name = "S0", value = -1 : i64} : () -> ()
  "disc_shape.SymbolicDim"() {knownNegativeOne = false, knownNonNegative = true, knownNonSizeOne = false, knownNonSizeZero = false, sym_name = "S1", value = -1 : i64} : () -> ()
  "disc_shape.SymbolicDim"() {knownNegativeOne = false, knownNonNegative = true, knownNonSizeOne = false, knownNonSizeZero = false, sym_name = "S2", value = -1 : i64} : () -> ()
  func.func @shape_constraint_graph() {
    return
  }
}


// -----// IR Dump After HloCanonicalizeReductionPass (hlo-canonicalize-reduction) //----- //
func.func @main(%arg0: tensor<?x?x?xf32, [@S0, @S1, @S2]>) -> tensor<?x?x?xf32, [@S0, @S1, @S2]> attributes {tf.entry_function = {input_placements = "gpu", inputs = "input0", output_placements = "gpu", outputs = "output0"}} {
  %c0 = arith.constant 0 : index
  %c1 = arith.constant 1 : index
  %c2 = arith.constant 2 : index
  %0 = mhlo.constant dense<0xFF800000> : tensor<f32>
  %1 = mhlo.constant dense<-0.000000e+00> : tensor<f32>
  %2 = tensor.dim %arg0, %c0 : tensor<?x?x?xf32, [@S0, @S1, @S2]>
  %3 = tensor.dim %arg0, %c1 : tensor<?x?x?xf32, [@S0, @S1, @S2]>
  %4 = tensor.dim %arg0, %c2 : tensor<?x?x?xf32, [@S0, @S1, @S2]>
  %c1_i32 = arith.constant 1 : i32
  %c2_0 = arith.constant 2 : index
  %5 = tensor.dim %arg0, %c2_0 : tensor<?x?x?xf32, [@S0, @S1, @S2]>
  %6 = arith.index_cast %5 : index to i32
  %7 = arith.muli %c1_i32, %6 : i32
  %c0_1 = arith.constant 0 : index
  %8 = tensor.dim %arg0, %c0_1 : tensor<?x?x?xf32, [@S0, @S1, @S2]>
  %9 = arith.index_cast %8 : index to i32
  %10 = arith.muli %c1_i32, %9 : i32
  %c1_2 = arith.constant 1 : index
  %11 = tensor.dim %arg0, %c1_2 : tensor<?x?x?xf32, [@S0, @S1, @S2]>
  %12 = arith.index_cast %11 : index to i32
  %13 = arith.muli %10, %12 : i32
  %14 = tensor.from_elements %13, %7 : tensor<2xi32>
  %15 = mhlo.dynamic_reshape %arg0, %14 : (tensor<?x?x?xf32, [@S0, @S1, @S2]>, tensor<2xi32>) -> tensor<?x?xf32>
  %16 = mhlo.reduce(%15 init: %0) applies mhlo.maximum across dimensions = [1] : (tensor<?x?xf32>, tensor<f32>) -> tensor<?xf32>
  %c0_3 = arith.constant 0 : index
  %17 = tensor.dim %arg0, %c0_3 : tensor<?x?x?xf32, [@S0, @S1, @S2]>
  %18 = arith.index_cast %17 : index to i32
  %c1_4 = arith.constant 1 : index
  %19 = tensor.dim %arg0, %c1_4 : tensor<?x?x?xf32, [@S0, @S1, @S2]>
  %20 = arith.index_cast %19 : index to i32
  %21 = tensor.from_elements %18, %20 : tensor<2xi32>
  %22 = mhlo.dynamic_reshape %16, %21 : (tensor<?xf32>, tensor<2xi32>) -> tensor<?x?xf32, [@S0, @S1]>
  %23 = tensor.from_elements %2, %3, %4 : tensor<3xindex>
  %24 = "mhlo.dynamic_broadcast_in_dim"(%22, %23) {broadcast_dimensions = dense<[0, 1]> : tensor<2xi64>} : (tensor<?x?xf32, [@S0, @S1]>, tensor<3xindex>) -> tensor<?x?x?xf32, [@S0, @S1, @S2]>
  %25 = mhlo.subtract %arg0, %24 : tensor<?x?x?xf32, [@S0, @S1, @S2]>
  %26 = mhlo.exponential %25 : tensor<?x?x?xf32, [@S0, @S1, @S2]>
  %c1_i32_5 = arith.constant 1 : i32
  %c2_6 = arith.constant 2 : index
  %27 = tensor.dim %26, %c2_6 : tensor<?x?x?xf32, [@S0, @S1, @S2]>
  %28 = arith.index_cast %27 : index to i32
  %29 = arith.muli %c1_i32_5, %28 : i32
  %c0_7 = arith.constant 0 : index
  %30 = tensor.dim %26, %c0_7 : tensor<?x?x?xf32, [@S0, @S1, @S2]>
  %31 = arith.index_cast %30 : index to i32
  %32 = arith.muli %c1_i32_5, %31 : i32
  %c1_8 = arith.constant 1 : index
  %33 = tensor.dim %26, %c1_8 : tensor<?x?x?xf32, [@S0, @S1, @S2]>
  %34 = arith.index_cast %33 : index to i32
  %35 = arith.muli %32, %34 : i32
  %36 = tensor.from_elements %35, %29 : tensor<2xi32>
  %37 = mhlo.dynamic_reshape %26, %36 : (tensor<?x?x?xf32, [@S0, @S1, @S2]>, tensor<2xi32>) -> tensor<?x?xf32>
  %38 = mhlo.reduce(%37 init: %1) applies mhlo.add across dimensions = [1] : (tensor<?x?xf32>, tensor<f32>) -> tensor<?xf32>
  %c0_9 = arith.constant 0 : index
  %39 = tensor.dim %26, %c0_9 : tensor<?x?x?xf32, [@S0, @S1, @S2]>
  %40 = arith.index_cast %39 : index to i32
  %c1_10 = arith.constant 1 : index
  %41 = tensor.dim %26, %c1_10 : tensor<?x?x?xf32, [@S0, @S1, @S2]>
  %42 = arith.index_cast %41 : index to i32
  %43 = tensor.from_elements %40, %42 : tensor<2xi32>
  %44 = mhlo.dynamic_reshape %38, %43 : (tensor<?xf32>, tensor<2xi32>) -> tensor<?x?xf32, [@S0, @S1]>
  %45 = "mhlo.dynamic_broadcast_in_dim"(%44, %23) {broadcast_dimensions = dense<[0, 1]> : tensor<2xi64>} : (tensor<?x?xf32, [@S0, @S1]>, tensor<3xindex>) -> tensor<?x?x?xf32, [@S0, @S1, @S2]>
  %46 = mhlo.divide %26, %45 : tensor<?x?x?xf32, [@S0, @S1, @S2]>
  return %46 : tensor<?x?x?xf32, [@S0, @S1, @S2]>
}

// -----// IR Dump After CSE (cse) //----- //
module {
  func.func @main(%arg0: tensor<?x?x?xf32, [@S0, @S1, @S2]>) -> tensor<?x?x?xf32, [@S0, @S1, @S2]> attributes {tf.entry_function = {input_placements = "gpu", inputs = "input0", output_placements = "gpu", outputs = "output0"}} {
    %c2 = arith.constant 2 : index
    %c0 = arith.constant 0 : index
    %c1 = arith.constant 1 : index
    %c3 = arith.constant 3 : index
    %0 = mhlo.constant dense<-0.000000e+00> : tensor<f32>
    %1 = mhlo.constant dense<0xFF800000> : tensor<f32>
    %2 = tensor.dim %arg0, %c0 : tensor<?x?x?xf32, [@S0, @S1, @S2]>
    %3 = tensor.dim %arg0, %c1 : tensor<?x?x?xf32, [@S0, @S1, @S2]>
    %4 = tensor.dim %arg0, %c2 : tensor<?x?x?xf32, [@S0, @S1, @S2]>
    %5 = "disc_shape.tie_shape"(%arg0, %2, %3, %4) : (tensor<?x?x?xf32, [@S0, @S1, @S2]>, index, index, index) -> tensor<?x?x?xf32, [@S0, @S1, @S2]>
    %6 = arith.index_cast %4 : index to i32
    %7 = arith.index_cast %2 : index to i32
    %8 = arith.index_cast %3 : index to i32
    %9 = arith.muli %7, %8 : i32
    %10 = tensor.from_elements %9, %6 : tensor<2xi32>
    %11 = "disc_shape.tie_shape"(%10, %c2) : (tensor<2xi32>, index) -> tensor<2xi32>
    %12 = mhlo.dynamic_reshape %5, %11 : (tensor<?x?x?xf32, [@S0, @S1, @S2]>, tensor<2xi32>) -> tensor<?x?xf32>
    %13 = arith.index_cast %9 : i32 to index
    %14 = "disc_shape.tie_shape"(%12, %13, %4) : (tensor<?x?xf32>, index, index) -> tensor<?x?xf32>
    %15 = mhlo.reduce(%14 init: %1) applies mhlo.maximum across dimensions = [1] : (tensor<?x?xf32>, tensor<f32>) -> tensor<?xf32>
    %16 = "disc_shape.tie_shape"(%15, %13) : (tensor<?xf32>, index) -> tensor<?xf32>
    %17 = tensor.from_elements %7, %8 : tensor<2xi32>
    %18 = "disc_shape.tie_shape"(%17, %c2) : (tensor<2xi32>, index) -> tensor<2xi32>
    %19 = mhlo.dynamic_reshape %16, %18 : (tensor<?xf32>, tensor<2xi32>) -> tensor<?x?xf32, [@S0, @S1]>
    %20 = "disc_shape.tie_shape"(%19, %2, %3) : (tensor<?x?xf32, [@S0, @S1]>, index, index) -> tensor<?x?xf32, [@S0, @S1]>
    %21 = tensor.from_elements %2, %3, %4 : tensor<3xindex>
    %22 = "disc_shape.tie_shape"(%21, %c3) : (tensor<3xindex>, index) -> tensor<3xindex>
    %23 = "mhlo.dynamic_broadcast_in_dim"(%20, %22) {broadcast_dimensions = dense<[0, 1]> : tensor<2xi64>} : (tensor<?x?xf32, [@S0, @S1]>, tensor<3xindex>) -> tensor<?x?x?xf32, [@S0, @S1, @S2]>
    %24 = "disc_shape.tie_shape"(%23, %2, %3, %4) : (tensor<?x?x?xf32, [@S0, @S1, @S2]>, index, index, index) -> tensor<?x?x?xf32, [@S0, @S1, @S2]>
    %25 = mhlo.subtract %5, %24 : tensor<?x?x?xf32, [@S0, @S1, @S2]>
    %26 = "disc_shape.tie_shape"(%25, %2, %3, %4) : (tensor<?x?x?xf32, [@S0, @S1, @S2]>, index, index, index) -> tensor<?x?x?xf32, [@S0, @S1, @S2]>
    %27 = mhlo.exponential %26 : tensor<?x?x?xf32, [@S0, @S1, @S2]>
    %28 = "disc_shape.tie_shape"(%27, %2, %3, %4) : (tensor<?x?x?xf32, [@S0, @S1, @S2]>, index, index, index) -> tensor<?x?x?xf32, [@S0, @S1, @S2]>
    %29 = mhlo.dynamic_reshape %28, %11 : (tensor<?x?x?xf32, [@S0, @S1, @S2]>, tensor<2xi32>) -> tensor<?x?xf32>
    %30 = "disc_shape.tie_shape"(%29, %13, %4) : (tensor<?x?xf32>, index, index) -> tensor<?x?xf32>
    %31 = mhlo.reduce(%30 init: %0) applies mhlo.add across dimensions = [1] : (tensor<?x?xf32>, tensor<f32>) -> tensor<?xf32>
    %32 = "disc_shape.tie_shape"(%31, %13) : (tensor<?xf32>, index) -> tensor<?xf32>
    %33 = mhlo.dynamic_reshape %32, %18 : (tensor<?xf32>, tensor<2xi32>) -> tensor<?x?xf32, [@S0, @S1]>
    %34 = "disc_shape.tie_shape"(%33, %2, %3) : (tensor<?x?xf32, [@S0, @S1]>, index, index) -> tensor<?x?xf32, [@S0, @S1]>
    %35 = "mhlo.dynamic_broadcast_in_dim"(%34, %22) {broadcast_dimensions = dense<[0, 1]> : tensor<2xi64>} : (tensor<?x?xf32, [@S0, @S1]>, tensor<3xindex>) -> tensor<?x?x?xf32, [@S0, @S1, @S2]>
    %36 = "disc_shape.tie_shape"(%35, %2, %3, %4) : (tensor<?x?x?xf32, [@S0, @S1, @S2]>, index, index, index) -> tensor<?x?x?xf32, [@S0, @S1, @S2]>
    %37 = mhlo.divide %28, %36 : tensor<?x?x?xf32, [@S0, @S1, @S2]>
    %38 = "disc_shape.tie_shape"(%37, %2, %3, %4) : (tensor<?x?x?xf32, [@S0, @S1, @S2]>, index, index, index) -> tensor<?x?x?xf32, [@S0, @S1, @S2]>
    return %38 : tensor<?x?x?xf32, [@S0, @S1, @S2]>
  }
  "disc_shape.SymbolicDim"() {knownNegativeOne = false, knownNonNegative = true, knownNonSizeOne = false, knownNonSizeZero = false, sym_name = "S0", value = -1 : i64} : () -> ()
  "disc_shape.SymbolicDim"() {knownNegativeOne = false, knownNonNegative = true, knownNonSizeOne = false, knownNonSizeZero = false, sym_name = "S1", value = -1 : i64} : () -> ()
  "disc_shape.SymbolicDim"() {knownNegativeOne = false, knownNonNegative = true, knownNonSizeOne = false, knownNonSizeZero = false, sym_name = "S2", value = -1 : i64} : () -> ()
  func.func @shape_constraint_graph() {
    return
  }
}


// -----// IR Dump After DiscShapeOptimizationPass (disc-shape-optimization) //----- //
module {
  func.func @main(%arg0: tensor<?x?x?xf32, [@S0, @S1, @S2]>) -> tensor<?x?x?xf32, [@S0, @S1, @S2]> attributes {tf.entry_function = {input_placements = "gpu", inputs = "input0", output_placements = "gpu", outputs = "output0"}} {
    %c2 = arith.constant 2 : index
    %c0 = arith.constant 0 : index
    %c1 = arith.constant 1 : index
    %0 = mhlo.constant dense<-0.000000e+00> : tensor<f32>
    %1 = mhlo.constant dense<0xFF800000> : tensor<f32>
    %2 = tensor.dim %arg0, %c0 : tensor<?x?x?xf32, [@S0, @S1, @S2]>
    %3 = tensor.dim %arg0, %c1 : tensor<?x?x?xf32, [@S0, @S1, @S2]>
    %4 = tensor.dim %arg0, %c2 : tensor<?x?x?xf32, [@S0, @S1, @S2]>
    %5 = arith.index_cast %4 : index to i32
    %6 = arith.index_cast %2 : index to i32
    %7 = arith.index_cast %3 : index to i32
    %8 = arith.muli %6, %7 : i32
    %9 = tensor.from_elements %8, %5 : tensor<2xi32>
    %10 = mhlo.dynamic_reshape %arg0, %9 : (tensor<?x?x?xf32, [@S0, @S1, @S2]>, tensor<2xi32>) -> tensor<?x?xf32, [@S3, @S2]>
    %11 = mhlo.reduce(%10 init: %1) applies mhlo.maximum across dimensions = [1] : (tensor<?x?xf32, [@S3, @S2]>, tensor<f32>) -> tensor<?xf32, [@S3]>
    %12 = tensor.from_elements %6, %7 : tensor<2xi32>
    %13 = mhlo.dynamic_reshape %11, %12 : (tensor<?xf32, [@S3]>, tensor<2xi32>) -> tensor<?x?xf32, [@S0, @S1]>
    %14 = tensor.from_elements %2, %3, %4 : tensor<3xindex>
    %15 = "mhlo.dynamic_broadcast_in_dim"(%13, %14) {broadcast_dimensions = dense<[0, 1]> : tensor<2xi64>} : (tensor<?x?xf32, [@S0, @S1]>, tensor<3xindex>) -> tensor<?x?x?xf32, [@S0, @S1, @S2]>
    %16 = mhlo.subtract %arg0, %15 : tensor<?x?x?xf32, [@S0, @S1, @S2]>
    %17 = mhlo.exponential %16 : tensor<?x?x?xf32, [@S0, @S1, @S2]>
    %18 = mhlo.dynamic_reshape %17, %9 : (tensor<?x?x?xf32, [@S0, @S1, @S2]>, tensor<2xi32>) -> tensor<?x?xf32, [@S3, @S2]>
    %19 = mhlo.reduce(%18 init: %0) applies mhlo.add across dimensions = [1] : (tensor<?x?xf32, [@S3, @S2]>, tensor<f32>) -> tensor<?xf32, [@S3]>
    %20 = mhlo.dynamic_reshape %19, %12 : (tensor<?xf32, [@S3]>, tensor<2xi32>) -> tensor<?x?xf32, [@S0, @S1]>
    %21 = "mhlo.dynamic_broadcast_in_dim"(%20, %14) {broadcast_dimensions = dense<[0, 1]> : tensor<2xi64>} : (tensor<?x?xf32, [@S0, @S1]>, tensor<3xindex>) -> tensor<?x?x?xf32, [@S0, @S1, @S2]>
    %22 = mhlo.divide %17, %21 : tensor<?x?x?xf32, [@S0, @S1, @S2]>
    return %22 : tensor<?x?x?xf32, [@S0, @S1, @S2]>
  }
  "disc_shape.SymbolicDim"() {knownNegativeOne = false, knownNonNegative = true, knownNonSizeOne = false, knownNonSizeZero = false, sym_name = "S0", value = -1 : i64} : () -> ()
  "disc_shape.SymbolicDim"() {knownNegativeOne = false, knownNonNegative = true, knownNonSizeOne = false, knownNonSizeZero = false, sym_name = "S1", value = -1 : i64} : () -> ()
  "disc_shape.SymbolicDim"() {knownNegativeOne = false, knownNonNegative = true, knownNonSizeOne = false, knownNonSizeZero = false, sym_name = "S2", value = -1 : i64} : () -> ()
  "disc_shape.SymbolicDim"() {knownNegativeOne = false, knownNonNegative = true, knownNonSizeOne = false, knownNonSizeZero = false, sym_name = "S3", value = -1 : i64} : () -> ()
  func.func @shape_constraint_graph() {
    %0 = "disc_shape.dim"() {name = @S3} : () -> index
    %1 = "disc_shape.dim"() {name = @S0} : () -> index
    %2 = "disc_shape.dim"() {name = @S1} : () -> index
    "disc_shape.tie_product_equal"(%0, %1, %2) {operand_segment_sizes = dense<[1, 2]> : vector<2xi32>} : (index, index, index) -> ()
    return
  }
}


// -----// IR Dump After DiscMarkShapeCalculationPass (disc-mhlo-mark-shape-calc) //----- //
module {
  func.func @main(%arg0: tensor<?x?x?xf32, [@S0, @S1, @S2]>) -> tensor<?x?x?xf32, [@S0, @S1, @S2]> attributes {tf.entry_function = {input_placements = "gpu", inputs = "input0", output_placements = "gpu", outputs = "output0"}} {
    %c2 = arith.constant 2 : index
    %c0 = arith.constant 0 : index
    %c1 = arith.constant 1 : index
    %0 = mhlo.constant dense<-0.000000e+00> : tensor<f32>
    %1 = mhlo.constant dense<0xFF800000> : tensor<f32>
    %2 = tensor.dim %arg0, %c0 : tensor<?x?x?xf32, [@S0, @S1, @S2]>
    %3 = tensor.dim %arg0, %c1 : tensor<?x?x?xf32, [@S0, @S1, @S2]>
    %4 = tensor.dim %arg0, %c2 : tensor<?x?x?xf32, [@S0, @S1, @S2]>
    %5 = arith.index_cast %4 : index to i32
    %6 = arith.index_cast %2 : index to i32
    %7 = arith.index_cast %3 : index to i32
    %8 = arith.muli %6, %7 : i32
    %9 = tensor.from_elements %8, %5 {disc.shape_op = true} : tensor<2xi32>
    %10 = mhlo.dynamic_reshape %arg0, %9 : (tensor<?x?x?xf32, [@S0, @S1, @S2]>, tensor<2xi32>) -> tensor<?x?xf32, [@S3, @S2]>
    %11 = mhlo.reduce(%10 init: %1) applies mhlo.maximum across dimensions = [1] : (tensor<?x?xf32, [@S3, @S2]>, tensor<f32>) -> tensor<?xf32, [@S3]>
    %12 = tensor.from_elements %6, %7 {disc.shape_op = true} : tensor<2xi32>
    %13 = mhlo.dynamic_reshape %11, %12 : (tensor<?xf32, [@S3]>, tensor<2xi32>) -> tensor<?x?xf32, [@S0, @S1]>
    %14 = tensor.from_elements %2, %3, %4 {disc.shape_op = true} : tensor<3xindex>
    %15 = "mhlo.dynamic_broadcast_in_dim"(%13, %14) {broadcast_dimensions = dense<[0, 1]> : tensor<2xi64>} : (tensor<?x?xf32, [@S0, @S1]>, tensor<3xindex>) -> tensor<?x?x?xf32, [@S0, @S1, @S2]>
    %16 = mhlo.subtract %arg0, %15 : tensor<?x?x?xf32, [@S0, @S1, @S2]>
    %17 = mhlo.exponential %16 : tensor<?x?x?xf32, [@S0, @S1, @S2]>
    %18 = mhlo.dynamic_reshape %17, %9 : (tensor<?x?x?xf32, [@S0, @S1, @S2]>, tensor<2xi32>) -> tensor<?x?xf32, [@S3, @S2]>
    %19 = mhlo.reduce(%18 init: %0) applies mhlo.add across dimensions = [1] : (tensor<?x?xf32, [@S3, @S2]>, tensor<f32>) -> tensor<?xf32, [@S3]>
    %20 = mhlo.dynamic_reshape %19, %12 : (tensor<?xf32, [@S3]>, tensor<2xi32>) -> tensor<?x?xf32, [@S0, @S1]>
    %21 = "mhlo.dynamic_broadcast_in_dim"(%20, %14) {broadcast_dimensions = dense<[0, 1]> : tensor<2xi64>} : (tensor<?x?xf32, [@S0, @S1]>, tensor<3xindex>) -> tensor<?x?x?xf32, [@S0, @S1, @S2]>
    %22 = mhlo.divide %17, %21 : tensor<?x?x?xf32, [@S0, @S1, @S2]>
    return %22 : tensor<?x?x?xf32, [@S0, @S1, @S2]>
  }
  "disc_shape.SymbolicDim"() {knownNegativeOne = false, knownNonNegative = true, knownNonSizeOne = false, knownNonSizeZero = false, sym_name = "S0", value = -1 : i64} : () -> ()
  "disc_shape.SymbolicDim"() {knownNegativeOne = false, knownNonNegative = true, knownNonSizeOne = false, knownNonSizeZero = false, sym_name = "S1", value = -1 : i64} : () -> ()
  "disc_shape.SymbolicDim"() {knownNegativeOne = false, knownNonNegative = true, knownNonSizeOne = false, knownNonSizeZero = false, sym_name = "S2", value = -1 : i64} : () -> ()
  "disc_shape.SymbolicDim"() {knownNegativeOne = false, knownNonNegative = true, knownNonSizeOne = false, knownNonSizeZero = false, sym_name = "S3", value = -1 : i64} : () -> ()
  func.func @shape_constraint_graph() {
    %0 = "disc_shape.dim"() {name = @S3} : () -> index
    %1 = "disc_shape.dim"() {name = @S0} : () -> index
    %2 = "disc_shape.dim"() {name = @S1} : () -> index
    "disc_shape.tie_product_equal"(%0, %1, %2) {operand_segment_sizes = dense<[1, 2]> : vector<2xi32>} : (index, index, index) -> ()
    return
  }
}


// -----// IR Dump After PlaceOpsPass (mhlo-place-ops) //----- //
module {
  func.func @main(%arg0: tensor<?x?x?xf32, [@S0, @S1, @S2]>) -> tensor<?x?x?xf32, [@S0, @S1, @S2]> attributes {tf.entry_function = {input_placements = "gpu", inputs = "input0", output_placements = "gpu", outputs = "output0"}} {
    %c2 = arith.constant 2 : index
    %c0 = arith.constant 0 : index
    %c1 = arith.constant 1 : index
    %0 = mhlo.constant {disc.device = "gpu"} dense<-0.000000e+00> : tensor<f32>
    %1 = mhlo.constant {disc.device = "gpu"} dense<0xFF800000> : tensor<f32>
    %2 = tensor.dim %arg0, %c0 : tensor<?x?x?xf32, [@S0, @S1, @S2]>
    %3 = tensor.dim %arg0, %c1 : tensor<?x?x?xf32, [@S0, @S1, @S2]>
    %4 = tensor.dim %arg0, %c2 : tensor<?x?x?xf32, [@S0, @S1, @S2]>
    %5 = arith.index_cast %4 : index to i32
    %6 = arith.index_cast %2 : index to i32
    %7 = arith.index_cast %3 : index to i32
    %8 = arith.muli %6, %7 : i32
    %9 = tensor.from_elements %8, %5 {disc.shape_op = true} : tensor<2xi32>
    %10 = mhlo.dynamic_reshape %arg0, %9 {disc.device = "gpu"} : (tensor<?x?x?xf32, [@S0, @S1, @S2]>, tensor<2xi32>) -> tensor<?x?xf32, [@S3, @S2]>
    %11 = mhlo.reduce(%10 init: %1) applies mhlo.maximum across dimensions = [1] : (tensor<?x?xf32, [@S3, @S2]>, tensor<f32>) -> tensor<?xf32, [@S3]>
    %12 = tensor.from_elements %6, %7 {disc.shape_op = true} : tensor<2xi32>
    %13 = mhlo.dynamic_reshape %11, %12 {disc.device = "gpu"} : (tensor<?xf32, [@S3]>, tensor<2xi32>) -> tensor<?x?xf32, [@S0, @S1]>
    %14 = tensor.from_elements %2, %3, %4 {disc.shape_op = true} : tensor<3xindex>
    %15 = "mhlo.dynamic_broadcast_in_dim"(%13, %14) {broadcast_dimensions = dense<[0, 1]> : tensor<2xi64>, disc.device = "gpu"} : (tensor<?x?xf32, [@S0, @S1]>, tensor<3xindex>) -> tensor<?x?x?xf32, [@S0, @S1, @S2]>
    %16 = mhlo.subtract %arg0, %15 {disc.device = "gpu"} : tensor<?x?x?xf32, [@S0, @S1, @S2]>
    %17 = mhlo.exponential %16 {disc.device = "gpu"} : tensor<?x?x?xf32, [@S0, @S1, @S2]>
    %18 = mhlo.dynamic_reshape %17, %9 {disc.device = "gpu"} : (tensor<?x?x?xf32, [@S0, @S1, @S2]>, tensor<2xi32>) -> tensor<?x?xf32, [@S3, @S2]>
    %19 = mhlo.reduce(%18 init: %0) applies mhlo.add across dimensions = [1] : (tensor<?x?xf32, [@S3, @S2]>, tensor<f32>) -> tensor<?xf32, [@S3]>
    %20 = mhlo.dynamic_reshape %19, %12 {disc.device = "gpu"} : (tensor<?xf32, [@S3]>, tensor<2xi32>) -> tensor<?x?xf32, [@S0, @S1]>
    %21 = "mhlo.dynamic_broadcast_in_dim"(%20, %14) {broadcast_dimensions = dense<[0, 1]> : tensor<2xi64>, disc.device = "gpu"} : (tensor<?x?xf32, [@S0, @S1]>, tensor<3xindex>) -> tensor<?x?x?xf32, [@S0, @S1, @S2]>
    %22 = mhlo.divide %17, %21 {disc.device = "gpu"} : tensor<?x?x?xf32, [@S0, @S1, @S2]>
    return %22 : tensor<?x?x?xf32, [@S0, @S1, @S2]>
  }
  "disc_shape.SymbolicDim"() {knownNegativeOne = false, knownNonNegative = true, knownNonSizeOne = false, knownNonSizeZero = false, sym_name = "S0", value = -1 : i64} : () -> ()
  "disc_shape.SymbolicDim"() {knownNegativeOne = false, knownNonNegative = true, knownNonSizeOne = false, knownNonSizeZero = false, sym_name = "S1", value = -1 : i64} : () -> ()
  "disc_shape.SymbolicDim"() {knownNegativeOne = false, knownNonNegative = true, knownNonSizeOne = false, knownNonSizeZero = false, sym_name = "S2", value = -1 : i64} : () -> ()
  "disc_shape.SymbolicDim"() {knownNegativeOne = false, knownNonNegative = true, knownNonSizeOne = false, knownNonSizeZero = false, sym_name = "S3", value = -1 : i64} : () -> ()
  func.func @shape_constraint_graph() {
    %0 = "disc_shape.dim"() {name = @S3} : () -> index
    %1 = "disc_shape.dim"() {name = @S0} : () -> index
    %2 = "disc_shape.dim"() {name = @S1} : () -> index
    "disc_shape.tie_product_equal"(%0, %1, %2) {operand_segment_sizes = dense<[1, 2]> : vector<2xi32>} : (index, index, index) -> ()
    return
  }
}


// -----// IR Dump After CSE (cse) //----- //
module {
  func.func @main(%arg0: tensor<?x?x?xf32, [@S0, @S1, @S2]>) -> tensor<?x?x?xf32, [@S0, @S1, @S2]> attributes {tf.entry_function = {input_placements = "gpu", inputs = "input0", output_placements = "gpu", outputs = "output0"}} {
    %c2 = arith.constant 2 : index
    %c0 = arith.constant 0 : index
    %c1 = arith.constant 1 : index
    %c3 = arith.constant 3 : index
    %0 = mhlo.constant {disc.device = "gpu"} dense<0xFF800000> : tensor<f32>
    %1 = mhlo.constant {disc.device = "gpu"} dense<-0.000000e+00> : tensor<f32>
    %2 = tensor.dim %arg0, %c0 : tensor<?x?x?xf32, [@S0, @S1, @S2]>
    %3 = tensor.dim %arg0, %c1 : tensor<?x?x?xf32, [@S0, @S1, @S2]>
    %4 = tensor.dim %arg0, %c2 : tensor<?x?x?xf32, [@S0, @S1, @S2]>
    %5 = "disc_shape.tie_shape"(%arg0, %2, %3, %4) : (tensor<?x?x?xf32, [@S0, @S1, @S2]>, index, index, index) -> tensor<?x?x?xf32, [@S0, @S1, @S2]>
    %6 = arith.index_cast %4 : index to i32
    %7 = arith.index_cast %2 : index to i32
    %8 = arith.index_cast %3 : index to i32
    %9 = arith.muli %7, %8 : i32
    %10 = tensor.from_elements %9, %6 {disc.shape_op = true} : tensor<2xi32>
    %11 = "disc_shape.tie_shape"(%10, %c2) : (tensor<2xi32>, index) -> tensor<2xi32>
    %12 = mhlo.dynamic_reshape %5, %11 {disc.device = "gpu"} : (tensor<?x?x?xf32, [@S0, @S1, @S2]>, tensor<2xi32>) -> tensor<?x?xf32, [@S3, @S2]>
    %13 = arith.index_cast %9 : i32 to index
    %14 = "disc_shape.tie_shape"(%12, %13, %4) : (tensor<?x?xf32, [@S3, @S2]>, index, index) -> tensor<?x?xf32, [@S3, @S2]>
    %15 = mhlo.reduce(%14 init: %0) applies mhlo.maximum across dimensions = [1] : (tensor<?x?xf32, [@S3, @S2]>, tensor<f32>) -> tensor<?xf32, [@S3]>
    %16 = "disc_shape.tie_shape"(%15, %13) : (tensor<?xf32, [@S3]>, index) -> tensor<?xf32, [@S3]>
    %17 = tensor.from_elements %7, %8 {disc.shape_op = true} : tensor<2xi32>
    %18 = "disc_shape.tie_shape"(%17, %c2) : (tensor<2xi32>, index) -> tensor<2xi32>
    %19 = mhlo.dynamic_reshape %16, %18 {disc.device = "gpu"} : (tensor<?xf32, [@S3]>, tensor<2xi32>) -> tensor<?x?xf32, [@S0, @S1]>
    %20 = "disc_shape.tie_shape"(%19, %2, %3) : (tensor<?x?xf32, [@S0, @S1]>, index, index) -> tensor<?x?xf32, [@S0, @S1]>
    %21 = tensor.from_elements %2, %3, %4 {disc.shape_op = true} : tensor<3xindex>
    %22 = "disc_shape.tie_shape"(%21, %c3) : (tensor<3xindex>, index) -> tensor<3xindex>
    %23 = "mhlo.dynamic_broadcast_in_dim"(%20, %22) {broadcast_dimensions = dense<[0, 1]> : tensor<2xi64>, disc.device = "gpu"} : (tensor<?x?xf32, [@S0, @S1]>, tensor<3xindex>) -> tensor<?x?x?xf32, [@S0, @S1, @S2]>
    %24 = "disc_shape.tie_shape"(%23, %2, %3, %4) : (tensor<?x?x?xf32, [@S0, @S1, @S2]>, index, index, index) -> tensor<?x?x?xf32, [@S0, @S1, @S2]>
    %25 = mhlo.subtract %5, %24 {disc.device = "gpu"} : tensor<?x?x?xf32, [@S0, @S1, @S2]>
    %26 = "disc_shape.tie_shape"(%25, %2, %3, %4) : (tensor<?x?x?xf32, [@S0, @S1, @S2]>, index, index, index) -> tensor<?x?x?xf32, [@S0, @S1, @S2]>
    %27 = mhlo.exponential %26 {disc.device = "gpu"} : tensor<?x?x?xf32, [@S0, @S1, @S2]>
    %28 = "disc_shape.tie_shape"(%27, %2, %3, %4) : (tensor<?x?x?xf32, [@S0, @S1, @S2]>, index, index, index) -> tensor<?x?x?xf32, [@S0, @S1, @S2]>
    %29 = mhlo.dynamic_reshape %28, %11 {disc.device = "gpu"} : (tensor<?x?x?xf32, [@S0, @S1, @S2]>, tensor<2xi32>) -> tensor<?x?xf32, [@S3, @S2]>
    %30 = "disc_shape.tie_shape"(%29, %13, %4) : (tensor<?x?xf32, [@S3, @S2]>, index, index) -> tensor<?x?xf32, [@S3, @S2]>
    %31 = mhlo.reduce(%30 init: %1) applies mhlo.add across dimensions = [1] : (tensor<?x?xf32, [@S3, @S2]>, tensor<f32>) -> tensor<?xf32, [@S3]>
    %32 = "disc_shape.tie_shape"(%31, %13) : (tensor<?xf32, [@S3]>, index) -> tensor<?xf32, [@S3]>
    %33 = mhlo.dynamic_reshape %32, %18 {disc.device = "gpu"} : (tensor<?xf32, [@S3]>, tensor<2xi32>) -> tensor<?x?xf32, [@S0, @S1]>
    %34 = "disc_shape.tie_shape"(%33, %2, %3) : (tensor<?x?xf32, [@S0, @S1]>, index, index) -> tensor<?x?xf32, [@S0, @S1]>
    %35 = "mhlo.dynamic_broadcast_in_dim"(%34, %22) {broadcast_dimensions = dense<[0, 1]> : tensor<2xi64>, disc.device = "gpu"} : (tensor<?x?xf32, [@S0, @S1]>, tensor<3xindex>) -> tensor<?x?x?xf32, [@S0, @S1, @S2]>
    %36 = "disc_shape.tie_shape"(%35, %2, %3, %4) : (tensor<?x?x?xf32, [@S0, @S1, @S2]>, index, index, index) -> tensor<?x?x?xf32, [@S0, @S1, @S2]>
    %37 = mhlo.divide %28, %36 {disc.device = "gpu"} : tensor<?x?x?xf32, [@S0, @S1, @S2]>
    %38 = "disc_shape.tie_shape"(%37, %2, %3, %4) : (tensor<?x?x?xf32, [@S0, @S1, @S2]>, index, index, index) -> tensor<?x?x?xf32, [@S0, @S1, @S2]>
    return %38 : tensor<?x?x?xf32, [@S0, @S1, @S2]>
  }
  "disc_shape.SymbolicDim"() {knownNegativeOne = false, knownNonNegative = true, knownNonSizeOne = false, knownNonSizeZero = false, sym_name = "S0", value = -1 : i64} : () -> ()
  "disc_shape.SymbolicDim"() {knownNegativeOne = false, knownNonNegative = true, knownNonSizeOne = false, knownNonSizeZero = false, sym_name = "S1", value = -1 : i64} : () -> ()
  "disc_shape.SymbolicDim"() {knownNegativeOne = false, knownNonNegative = true, knownNonSizeOne = false, knownNonSizeZero = false, sym_name = "S2", value = -1 : i64} : () -> ()
  "disc_shape.SymbolicDim"() {knownNegativeOne = false, knownNonNegative = true, knownNonSizeOne = false, knownNonSizeZero = false, sym_name = "S3", value = -1 : i64} : () -> ()
  func.func @shape_constraint_graph() {
    %0 = "disc_shape.dim"() {name = @S3} : () -> index
    %1 = "disc_shape.dim"() {name = @S0} : () -> index
    %2 = "disc_shape.dim"() {name = @S1} : () -> index
    "disc_shape.tie_product_equal"(%0, %1, %2) {operand_segment_sizes = dense<[1, 2]> : vector<2xi32>} : (index, index, index) -> ()
    return
  }
}


// -----// IR Dump After DiscShapeOptimizationPass (disc-shape-optimization) //----- //
module {
  func.func @main(%arg0: tensor<?x?x?xf32, [@S0, @S1, @S2]>) -> tensor<?x?x?xf32, [@S0, @S1, @S2]> attributes {tf.entry_function = {input_placements = "gpu", inputs = "input0", output_placements = "gpu", outputs = "output0"}} {
    %c2 = arith.constant 2 : index
    %c0 = arith.constant 0 : index
    %c1 = arith.constant 1 : index
    %0 = mhlo.constant {disc.device = "gpu"} dense<0xFF800000> : tensor<f32>
    %1 = mhlo.constant {disc.device = "gpu"} dense<-0.000000e+00> : tensor<f32>
    %2 = tensor.dim %arg0, %c0 : tensor<?x?x?xf32, [@S0, @S1, @S2]>
    %3 = tensor.dim %arg0, %c1 : tensor<?x?x?xf32, [@S0, @S1, @S2]>
    %4 = tensor.dim %arg0, %c2 : tensor<?x?x?xf32, [@S0, @S1, @S2]>
    %5 = arith.index_cast %4 : index to i32
    %6 = arith.index_cast %2 : index to i32
    %7 = arith.index_cast %3 : index to i32
    %8 = arith.muli %6, %7 : i32
    %9 = tensor.from_elements %8, %5 {disc.shape_op = true} : tensor<2xi32>
    %10 = mhlo.dynamic_reshape %arg0, %9 {disc.device = "gpu"} : (tensor<?x?x?xf32, [@S0, @S1, @S2]>, tensor<2xi32>) -> tensor<?x?xf32, [@S3, @S2]>
    %11 = mhlo.reduce(%10 init: %0) applies mhlo.maximum across dimensions = [1] : (tensor<?x?xf32, [@S3, @S2]>, tensor<f32>) -> tensor<?xf32, [@S3]>
    %12 = tensor.from_elements %6, %7 {disc.shape_op = true} : tensor<2xi32>
    %13 = mhlo.dynamic_reshape %11, %12 {disc.device = "gpu"} : (tensor<?xf32, [@S3]>, tensor<2xi32>) -> tensor<?x?xf32, [@S0, @S1]>
    %14 = tensor.from_elements %2, %3, %4 {disc.shape_op = true} : tensor<3xindex>
    %15 = "mhlo.dynamic_broadcast_in_dim"(%13, %14) {broadcast_dimensions = dense<[0, 1]> : tensor<2xi64>, disc.device = "gpu"} : (tensor<?x?xf32, [@S0, @S1]>, tensor<3xindex>) -> tensor<?x?x?xf32, [@S0, @S1, @S2]>
    %16 = mhlo.subtract %arg0, %15 {disc.device = "gpu"} : tensor<?x?x?xf32, [@S0, @S1, @S2]>
    %17 = mhlo.exponential %16 {disc.device = "gpu"} : tensor<?x?x?xf32, [@S0, @S1, @S2]>
    %18 = mhlo.dynamic_reshape %17, %9 {disc.device = "gpu"} : (tensor<?x?x?xf32, [@S0, @S1, @S2]>, tensor<2xi32>) -> tensor<?x?xf32, [@S3, @S2]>
    %19 = mhlo.reduce(%18 init: %1) applies mhlo.add across dimensions = [1] : (tensor<?x?xf32, [@S3, @S2]>, tensor<f32>) -> tensor<?xf32, [@S3]>
    %20 = mhlo.dynamic_reshape %19, %12 {disc.device = "gpu"} : (tensor<?xf32, [@S3]>, tensor<2xi32>) -> tensor<?x?xf32, [@S0, @S1]>
    %21 = "mhlo.dynamic_broadcast_in_dim"(%20, %14) {broadcast_dimensions = dense<[0, 1]> : tensor<2xi64>, disc.device = "gpu"} : (tensor<?x?xf32, [@S0, @S1]>, tensor<3xindex>) -> tensor<?x?x?xf32, [@S0, @S1, @S2]>
    %22 = mhlo.divide %17, %21 {disc.device = "gpu"} : tensor<?x?x?xf32, [@S0, @S1, @S2]>
    return %22 : tensor<?x?x?xf32, [@S0, @S1, @S2]>
  }
  "disc_shape.SymbolicDim"() {knownNegativeOne = false, knownNonNegative = true, knownNonSizeOne = false, knownNonSizeZero = false, sym_name = "S0", value = -1 : i64} : () -> ()
  "disc_shape.SymbolicDim"() {knownNegativeOne = false, knownNonNegative = true, knownNonSizeOne = false, knownNonSizeZero = false, sym_name = "S1", value = -1 : i64} : () -> ()
  "disc_shape.SymbolicDim"() {knownNegativeOne = false, knownNonNegative = true, knownNonSizeOne = false, knownNonSizeZero = false, sym_name = "S2", value = -1 : i64} : () -> ()
  "disc_shape.SymbolicDim"() {knownNegativeOne = false, knownNonNegative = true, knownNonSizeOne = false, knownNonSizeZero = false, sym_name = "S3", value = -1 : i64} : () -> ()
  func.func @shape_constraint_graph() {
    %0 = "disc_shape.dim"() {name = @S3} : () -> index
    %1 = "disc_shape.dim"() {name = @S0} : () -> index
    %2 = "disc_shape.dim"() {name = @S1} : () -> index
    "disc_shape.tie_product_equal"(%0, %1, %2) {operand_segment_sizes = dense<[1, 2]> : vector<2xi32>} : (index, index, index) -> ()
    return
  }
}


// -----// IR Dump After CSE (cse) //----- //
module {
  func.func @main(%arg0: tensor<?x?x?xf32, [@S0, @S1, @S2]>) -> tensor<?x?x?xf32, [@S0, @S1, @S2]> attributes {tf.entry_function = {input_placements = "gpu", inputs = "input0", output_placements = "gpu", outputs = "output0"}} {
    %c2 = arith.constant 2 : index
    %c0 = arith.constant 0 : index
    %c1 = arith.constant 1 : index
    %c3 = arith.constant 3 : index
    %0 = mhlo.constant {disc.device = "gpu"} dense<-0.000000e+00> : tensor<f32>
    %1 = mhlo.constant {disc.device = "gpu"} dense<0xFF800000> : tensor<f32>
    %2 = tensor.dim %arg0, %c0 : tensor<?x?x?xf32, [@S0, @S1, @S2]>
    %3 = tensor.dim %arg0, %c1 : tensor<?x?x?xf32, [@S0, @S1, @S2]>
    %4 = tensor.dim %arg0, %c2 : tensor<?x?x?xf32, [@S0, @S1, @S2]>
    %5 = "disc_shape.tie_shape"(%arg0, %2, %3, %4) : (tensor<?x?x?xf32, [@S0, @S1, @S2]>, index, index, index) -> tensor<?x?x?xf32, [@S0, @S1, @S2]>
    %6 = arith.index_cast %4 : index to i32
    %7 = arith.index_cast %2 : index to i32
    %8 = arith.index_cast %3 : index to i32
    %9 = arith.muli %7, %8 : i32
    %10 = tensor.from_elements %9, %6 {disc.shape_op = true} : tensor<2xi32>
    %11 = "disc_shape.tie_shape"(%10, %c2) : (tensor<2xi32>, index) -> tensor<2xi32>
    %12 = mhlo.dynamic_reshape %5, %11 {disc.device = "gpu"} : (tensor<?x?x?xf32, [@S0, @S1, @S2]>, tensor<2xi32>) -> tensor<?x?xf32, [@S3, @S2]>
    %13 = arith.index_cast %9 : i32 to index
    %14 = "disc_shape.tie_shape"(%12, %13, %4) : (tensor<?x?xf32, [@S3, @S2]>, index, index) -> tensor<?x?xf32, [@S3, @S2]>
    %15 = mhlo.reduce(%14 init: %1) applies mhlo.maximum across dimensions = [1] : (tensor<?x?xf32, [@S3, @S2]>, tensor<f32>) -> tensor<?xf32, [@S3]>
    %16 = "disc_shape.tie_shape"(%15, %13) : (tensor<?xf32, [@S3]>, index) -> tensor<?xf32, [@S3]>
    %17 = tensor.from_elements %7, %8 {disc.shape_op = true} : tensor<2xi32>
    %18 = "disc_shape.tie_shape"(%17, %c2) : (tensor<2xi32>, index) -> tensor<2xi32>
    %19 = mhlo.dynamic_reshape %16, %18 {disc.device = "gpu"} : (tensor<?xf32, [@S3]>, tensor<2xi32>) -> tensor<?x?xf32, [@S0, @S1]>
    %20 = "disc_shape.tie_shape"(%19, %2, %3) : (tensor<?x?xf32, [@S0, @S1]>, index, index) -> tensor<?x?xf32, [@S0, @S1]>
    %21 = tensor.from_elements %2, %3, %4 {disc.shape_op = true} : tensor<3xindex>
    %22 = "disc_shape.tie_shape"(%21, %c3) : (tensor<3xindex>, index) -> tensor<3xindex>
    %23 = "mhlo.dynamic_broadcast_in_dim"(%20, %22) {broadcast_dimensions = dense<[0, 1]> : tensor<2xi64>, disc.device = "gpu"} : (tensor<?x?xf32, [@S0, @S1]>, tensor<3xindex>) -> tensor<?x?x?xf32, [@S0, @S1, @S2]>
    %24 = "disc_shape.tie_shape"(%23, %2, %3, %4) : (tensor<?x?x?xf32, [@S0, @S1, @S2]>, index, index, index) -> tensor<?x?x?xf32, [@S0, @S1, @S2]>
    %25 = mhlo.subtract %5, %24 {disc.device = "gpu"} : tensor<?x?x?xf32, [@S0, @S1, @S2]>
    %26 = "disc_shape.tie_shape"(%25, %2, %3, %4) : (tensor<?x?x?xf32, [@S0, @S1, @S2]>, index, index, index) -> tensor<?x?x?xf32, [@S0, @S1, @S2]>
    %27 = mhlo.exponential %26 {disc.device = "gpu"} : tensor<?x?x?xf32, [@S0, @S1, @S2]>
    %28 = "disc_shape.tie_shape"(%27, %2, %3, %4) : (tensor<?x?x?xf32, [@S0, @S1, @S2]>, index, index, index) -> tensor<?x?x?xf32, [@S0, @S1, @S2]>
    %29 = mhlo.dynamic_reshape %28, %11 {disc.device = "gpu"} : (tensor<?x?x?xf32, [@S0, @S1, @S2]>, tensor<2xi32>) -> tensor<?x?xf32, [@S3, @S2]>
    %30 = "disc_shape.tie_shape"(%29, %13, %4) : (tensor<?x?xf32, [@S3, @S2]>, index, index) -> tensor<?x?xf32, [@S3, @S2]>
    %31 = mhlo.reduce(%30 init: %0) applies mhlo.add across dimensions = [1] : (tensor<?x?xf32, [@S3, @S2]>, tensor<f32>) -> tensor<?xf32, [@S3]>
    %32 = "disc_shape.tie_shape"(%31, %13) : (tensor<?xf32, [@S3]>, index) -> tensor<?xf32, [@S3]>
    %33 = mhlo.dynamic_reshape %32, %18 {disc.device = "gpu"} : (tensor<?xf32, [@S3]>, tensor<2xi32>) -> tensor<?x?xf32, [@S0, @S1]>
    %34 = "disc_shape.tie_shape"(%33, %2, %3) : (tensor<?x?xf32, [@S0, @S1]>, index, index) -> tensor<?x?xf32, [@S0, @S1]>
    %35 = "mhlo.dynamic_broadcast_in_dim"(%34, %22) {broadcast_dimensions = dense<[0, 1]> : tensor<2xi64>, disc.device = "gpu"} : (tensor<?x?xf32, [@S0, @S1]>, tensor<3xindex>) -> tensor<?x?x?xf32, [@S0, @S1, @S2]>
    %36 = "disc_shape.tie_shape"(%35, %2, %3, %4) : (tensor<?x?x?xf32, [@S0, @S1, @S2]>, index, index, index) -> tensor<?x?x?xf32, [@S0, @S1, @S2]>
    %37 = mhlo.divide %28, %36 {disc.device = "gpu"} : tensor<?x?x?xf32, [@S0, @S1, @S2]>
    %38 = "disc_shape.tie_shape"(%37, %2, %3, %4) : (tensor<?x?x?xf32, [@S0, @S1, @S2]>, index, index, index) -> tensor<?x?x?xf32, [@S0, @S1, @S2]>
    return %38 : tensor<?x?x?xf32, [@S0, @S1, @S2]>
  }
  "disc_shape.SymbolicDim"() {knownNegativeOne = false, knownNonNegative = true, knownNonSizeOne = false, knownNonSizeZero = false, sym_name = "S0", value = -1 : i64} : () -> ()
  "disc_shape.SymbolicDim"() {knownNegativeOne = false, knownNonNegative = true, knownNonSizeOne = false, knownNonSizeZero = false, sym_name = "S1", value = -1 : i64} : () -> ()
  "disc_shape.SymbolicDim"() {knownNegativeOne = false, knownNonNegative = true, knownNonSizeOne = false, knownNonSizeZero = false, sym_name = "S2", value = -1 : i64} : () -> ()
  "disc_shape.SymbolicDim"() {knownNegativeOne = false, knownNonNegative = true, knownNonSizeOne = false, knownNonSizeZero = false, sym_name = "S3", value = -1 : i64} : () -> ()
  func.func @shape_constraint_graph() {
    %0 = "disc_shape.dim"() {name = @S3} : () -> index
    %1 = "disc_shape.dim"() {name = @S0} : () -> index
    %2 = "disc_shape.dim"() {name = @S1} : () -> index
    "disc_shape.tie_product_equal"(%0, %1, %2) {operand_segment_sizes = dense<[1, 2]> : vector<2xi32>} : (index, index, index) -> ()
    return
  }
}


// -----// IR Dump After DiscShapeOptimizationPass (disc-shape-optimization) //----- //
module {
  func.func @main(%arg0: tensor<?x?x?xf32, [@S0, @S1, @S2]>) -> tensor<?x?x?xf32, [@S0, @S1, @S2]> attributes {tf.entry_function = {input_placements = "gpu", inputs = "input0", output_placements = "gpu", outputs = "output0"}} {
    %c2 = arith.constant 2 : index
    %c0 = arith.constant 0 : index
    %c1 = arith.constant 1 : index
    %0 = mhlo.constant {disc.device = "gpu"} dense<-0.000000e+00> : tensor<f32>
    %1 = mhlo.constant {disc.device = "gpu"} dense<0xFF800000> : tensor<f32>
    %2 = tensor.dim %arg0, %c0 : tensor<?x?x?xf32, [@S0, @S1, @S2]>
    %3 = tensor.dim %arg0, %c1 : tensor<?x?x?xf32, [@S0, @S1, @S2]>
    %4 = tensor.dim %arg0, %c2 : tensor<?x?x?xf32, [@S0, @S1, @S2]>
    %5 = arith.index_cast %4 : index to i32
    %6 = arith.index_cast %2 : index to i32
    %7 = arith.index_cast %3 : index to i32
    %8 = arith.muli %6, %7 : i32
    %9 = tensor.from_elements %8, %5 {disc.shape_op = true} : tensor<2xi32>
    %10 = mhlo.dynamic_reshape %arg0, %9 {disc.device = "gpu"} : (tensor<?x?x?xf32, [@S0, @S1, @S2]>, tensor<2xi32>) -> tensor<?x?xf32, [@S3, @S2]>
    %11 = mhlo.reduce(%10 init: %1) applies mhlo.maximum across dimensions = [1] : (tensor<?x?xf32, [@S3, @S2]>, tensor<f32>) -> tensor<?xf32, [@S3]>
    %12 = tensor.from_elements %6, %7 {disc.shape_op = true} : tensor<2xi32>
    %13 = mhlo.dynamic_reshape %11, %12 {disc.device = "gpu"} : (tensor<?xf32, [@S3]>, tensor<2xi32>) -> tensor<?x?xf32, [@S0, @S1]>
    %14 = tensor.from_elements %2, %3, %4 {disc.shape_op = true} : tensor<3xindex>
    %15 = "mhlo.dynamic_broadcast_in_dim"(%13, %14) {broadcast_dimensions = dense<[0, 1]> : tensor<2xi64>, disc.device = "gpu"} : (tensor<?x?xf32, [@S0, @S1]>, tensor<3xindex>) -> tensor<?x?x?xf32, [@S0, @S1, @S2]>
    %16 = mhlo.subtract %arg0, %15 {disc.device = "gpu"} : tensor<?x?x?xf32, [@S0, @S1, @S2]>
    %17 = mhlo.exponential %16 {disc.device = "gpu"} : tensor<?x?x?xf32, [@S0, @S1, @S2]>
    %18 = mhlo.dynamic_reshape %17, %9 {disc.device = "gpu"} : (tensor<?x?x?xf32, [@S0, @S1, @S2]>, tensor<2xi32>) -> tensor<?x?xf32, [@S3, @S2]>
    %19 = mhlo.reduce(%18 init: %0) applies mhlo.add across dimensions = [1] : (tensor<?x?xf32, [@S3, @S2]>, tensor<f32>) -> tensor<?xf32, [@S3]>
    %20 = mhlo.dynamic_reshape %19, %12 {disc.device = "gpu"} : (tensor<?xf32, [@S3]>, tensor<2xi32>) -> tensor<?x?xf32, [@S0, @S1]>
    %21 = "mhlo.dynamic_broadcast_in_dim"(%20, %14) {broadcast_dimensions = dense<[0, 1]> : tensor<2xi64>, disc.device = "gpu"} : (tensor<?x?xf32, [@S0, @S1]>, tensor<3xindex>) -> tensor<?x?x?xf32, [@S0, @S1, @S2]>
    %22 = mhlo.divide %17, %21 {disc.device = "gpu"} : tensor<?x?x?xf32, [@S0, @S1, @S2]>
    return %22 : tensor<?x?x?xf32, [@S0, @S1, @S2]>
  }
  "disc_shape.SymbolicDim"() {knownNegativeOne = false, knownNonNegative = true, knownNonSizeOne = false, knownNonSizeZero = false, sym_name = "S0", value = -1 : i64} : () -> ()
  "disc_shape.SymbolicDim"() {knownNegativeOne = false, knownNonNegative = true, knownNonSizeOne = false, knownNonSizeZero = false, sym_name = "S1", value = -1 : i64} : () -> ()
  "disc_shape.SymbolicDim"() {knownNegativeOne = false, knownNonNegative = true, knownNonSizeOne = false, knownNonSizeZero = false, sym_name = "S2", value = -1 : i64} : () -> ()
  "disc_shape.SymbolicDim"() {knownNegativeOne = false, knownNonNegative = true, knownNonSizeOne = false, knownNonSizeZero = false, sym_name = "S3", value = -1 : i64} : () -> ()
  func.func @shape_constraint_graph() {
    %0 = "disc_shape.dim"() {name = @S3} : () -> index
    %1 = "disc_shape.dim"() {name = @S0} : () -> index
    %2 = "disc_shape.dim"() {name = @S1} : () -> index
    "disc_shape.tie_product_equal"(%0, %1, %2) {operand_segment_sizes = dense<[1, 2]> : vector<2xi32>} : (index, index, index) -> ()
    return
  }
}


// -----// IR Dump After CSE (cse) //----- //
module {
  func.func @main(%arg0: tensor<?x?x?xf32, [@S0, @S1, @S2]>) -> tensor<?x?x?xf32, [@S0, @S1, @S2]> attributes {tf.entry_function = {input_placements = "gpu", inputs = "input0", output_placements = "gpu", outputs = "output0"}} {
    %c2 = arith.constant 2 : index
    %c0 = arith.constant 0 : index
    %c1 = arith.constant 1 : index
    %c3 = arith.constant 3 : index
    %0 = mhlo.constant {disc.device = "gpu"} dense<0xFF800000> : tensor<f32>
    %1 = mhlo.constant {disc.device = "gpu"} dense<-0.000000e+00> : tensor<f32>
    %2 = tensor.dim %arg0, %c0 : tensor<?x?x?xf32, [@S0, @S1, @S2]>
    %3 = tensor.dim %arg0, %c1 : tensor<?x?x?xf32, [@S0, @S1, @S2]>
    %4 = tensor.dim %arg0, %c2 : tensor<?x?x?xf32, [@S0, @S1, @S2]>
    %5 = "disc_shape.tie_shape"(%arg0, %2, %3, %4) : (tensor<?x?x?xf32, [@S0, @S1, @S2]>, index, index, index) -> tensor<?x?x?xf32, [@S0, @S1, @S2]>
    %6 = arith.index_cast %4 : index to i32
    %7 = arith.index_cast %2 : index to i32
    %8 = arith.index_cast %3 : index to i32
    %9 = arith.muli %7, %8 : i32
    %10 = tensor.from_elements %9, %6 {disc.shape_op = true} : tensor<2xi32>
    %11 = "disc_shape.tie_shape"(%10, %c2) : (tensor<2xi32>, index) -> tensor<2xi32>
    %12 = mhlo.dynamic_reshape %5, %11 {disc.device = "gpu"} : (tensor<?x?x?xf32, [@S0, @S1, @S2]>, tensor<2xi32>) -> tensor<?x?xf32, [@S3, @S2]>
    %13 = arith.index_cast %9 : i32 to index
    %14 = "disc_shape.tie_shape"(%12, %13, %4) : (tensor<?x?xf32, [@S3, @S2]>, index, index) -> tensor<?x?xf32, [@S3, @S2]>
    %15 = mhlo.reduce(%14 init: %0) applies mhlo.maximum across dimensions = [1] : (tensor<?x?xf32, [@S3, @S2]>, tensor<f32>) -> tensor<?xf32, [@S3]>
    %16 = "disc_shape.tie_shape"(%15, %13) : (tensor<?xf32, [@S3]>, index) -> tensor<?xf32, [@S3]>
    %17 = tensor.from_elements %7, %8 {disc.shape_op = true} : tensor<2xi32>
    %18 = "disc_shape.tie_shape"(%17, %c2) : (tensor<2xi32>, index) -> tensor<2xi32>
    %19 = mhlo.dynamic_reshape %16, %18 {disc.device = "gpu"} : (tensor<?xf32, [@S3]>, tensor<2xi32>) -> tensor<?x?xf32, [@S0, @S1]>
    %20 = "disc_shape.tie_shape"(%19, %2, %3) : (tensor<?x?xf32, [@S0, @S1]>, index, index) -> tensor<?x?xf32, [@S0, @S1]>
    %21 = tensor.from_elements %2, %3, %4 {disc.shape_op = true} : tensor<3xindex>
    %22 = "disc_shape.tie_shape"(%21, %c3) : (tensor<3xindex>, index) -> tensor<3xindex>
    %23 = "mhlo.dynamic_broadcast_in_dim"(%20, %22) {broadcast_dimensions = dense<[0, 1]> : tensor<2xi64>, disc.device = "gpu"} : (tensor<?x?xf32, [@S0, @S1]>, tensor<3xindex>) -> tensor<?x?x?xf32, [@S0, @S1, @S2]>
    %24 = "disc_shape.tie_shape"(%23, %2, %3, %4) : (tensor<?x?x?xf32, [@S0, @S1, @S2]>, index, index, index) -> tensor<?x?x?xf32, [@S0, @S1, @S2]>
    %25 = mhlo.subtract %5, %24 {disc.device = "gpu"} : tensor<?x?x?xf32, [@S0, @S1, @S2]>
    %26 = "disc_shape.tie_shape"(%25, %2, %3, %4) : (tensor<?x?x?xf32, [@S0, @S1, @S2]>, index, index, index) -> tensor<?x?x?xf32, [@S0, @S1, @S2]>
    %27 = mhlo.exponential %26 {disc.device = "gpu"} : tensor<?x?x?xf32, [@S0, @S1, @S2]>
    %28 = "disc_shape.tie_shape"(%27, %2, %3, %4) : (tensor<?x?x?xf32, [@S0, @S1, @S2]>, index, index, index) -> tensor<?x?x?xf32, [@S0, @S1, @S2]>
    %29 = mhlo.dynamic_reshape %28, %11 {disc.device = "gpu"} : (tensor<?x?x?xf32, [@S0, @S1, @S2]>, tensor<2xi32>) -> tensor<?x?xf32, [@S3, @S2]>
    %30 = "disc_shape.tie_shape"(%29, %13, %4) : (tensor<?x?xf32, [@S3, @S2]>, index, index) -> tensor<?x?xf32, [@S3, @S2]>
    %31 = mhlo.reduce(%30 init: %1) applies mhlo.add across dimensions = [1] : (tensor<?x?xf32, [@S3, @S2]>, tensor<f32>) -> tensor<?xf32, [@S3]>
    %32 = "disc_shape.tie_shape"(%31, %13) : (tensor<?xf32, [@S3]>, index) -> tensor<?xf32, [@S3]>
    %33 = mhlo.dynamic_reshape %32, %18 {disc.device = "gpu"} : (tensor<?xf32, [@S3]>, tensor<2xi32>) -> tensor<?x?xf32, [@S0, @S1]>
    %34 = "disc_shape.tie_shape"(%33, %2, %3) : (tensor<?x?xf32, [@S0, @S1]>, index, index) -> tensor<?x?xf32, [@S0, @S1]>
    %35 = "mhlo.dynamic_broadcast_in_dim"(%34, %22) {broadcast_dimensions = dense<[0, 1]> : tensor<2xi64>, disc.device = "gpu"} : (tensor<?x?xf32, [@S0, @S1]>, tensor<3xindex>) -> tensor<?x?x?xf32, [@S0, @S1, @S2]>
    %36 = "disc_shape.tie_shape"(%35, %2, %3, %4) : (tensor<?x?x?xf32, [@S0, @S1, @S2]>, index, index, index) -> tensor<?x?x?xf32, [@S0, @S1, @S2]>
    %37 = mhlo.divide %28, %36 {disc.device = "gpu"} : tensor<?x?x?xf32, [@S0, @S1, @S2]>
    %38 = "disc_shape.tie_shape"(%37, %2, %3, %4) : (tensor<?x?x?xf32, [@S0, @S1, @S2]>, index, index, index) -> tensor<?x?x?xf32, [@S0, @S1, @S2]>
    return %38 : tensor<?x?x?xf32, [@S0, @S1, @S2]>
  }
  "disc_shape.SymbolicDim"() {knownNegativeOne = false, knownNonNegative = true, knownNonSizeOne = false, knownNonSizeZero = false, sym_name = "S0", value = -1 : i64} : () -> ()
  "disc_shape.SymbolicDim"() {knownNegativeOne = false, knownNonNegative = true, knownNonSizeOne = false, knownNonSizeZero = false, sym_name = "S1", value = -1 : i64} : () -> ()
  "disc_shape.SymbolicDim"() {knownNegativeOne = false, knownNonNegative = true, knownNonSizeOne = false, knownNonSizeZero = false, sym_name = "S2", value = -1 : i64} : () -> ()
  "disc_shape.SymbolicDim"() {knownNegativeOne = false, knownNonNegative = true, knownNonSizeOne = false, knownNonSizeZero = false, sym_name = "S3", value = -1 : i64} : () -> ()
  func.func @shape_constraint_graph() {
    %0 = "disc_shape.dim"() {name = @S3} : () -> index
    %1 = "disc_shape.dim"() {name = @S0} : () -> index
    %2 = "disc_shape.dim"() {name = @S1} : () -> index
    "disc_shape.tie_product_equal"(%0, %1, %2) {operand_segment_sizes = dense<[1, 2]> : vector<2xi32>} : (index, index, index) -> ()
    return
  }
}


// -----// IR Dump After DiscShapeOptimizationPass (disc-shape-optimization) //----- //
module {
  func.func @main(%arg0: tensor<?x?x?xf32, [@S0, @S1, @S2]>) -> tensor<?x?x?xf32, [@S0, @S1, @S2]> attributes {tf.entry_function = {input_placements = "gpu", inputs = "input0", output_placements = "gpu", outputs = "output0"}} {
    %c2 = arith.constant 2 : index
    %c0 = arith.constant 0 : index
    %c1 = arith.constant 1 : index
    %0 = mhlo.constant {disc.device = "gpu"} dense<0xFF800000> : tensor<f32>
    %1 = mhlo.constant {disc.device = "gpu"} dense<-0.000000e+00> : tensor<f32>
    %2 = tensor.dim %arg0, %c0 : tensor<?x?x?xf32, [@S0, @S1, @S2]>
    %3 = tensor.dim %arg0, %c1 : tensor<?x?x?xf32, [@S0, @S1, @S2]>
    %4 = tensor.dim %arg0, %c2 : tensor<?x?x?xf32, [@S0, @S1, @S2]>
    %5 = arith.index_cast %4 : index to i32
    %6 = arith.index_cast %2 : index to i32
    %7 = arith.index_cast %3 : index to i32
    %8 = arith.muli %6, %7 : i32
    %9 = tensor.from_elements %8, %5 {disc.shape_op = true} : tensor<2xi32>
    %10 = mhlo.dynamic_reshape %arg0, %9 {disc.device = "gpu"} : (tensor<?x?x?xf32, [@S0, @S1, @S2]>, tensor<2xi32>) -> tensor<?x?xf32, [@S3, @S2]>
    %11 = mhlo.reduce(%10 init: %0) applies mhlo.maximum across dimensions = [1] : (tensor<?x?xf32, [@S3, @S2]>, tensor<f32>) -> tensor<?xf32, [@S3]>
    %12 = tensor.from_elements %6, %7 {disc.shape_op = true} : tensor<2xi32>
    %13 = mhlo.dynamic_reshape %11, %12 {disc.device = "gpu"} : (tensor<?xf32, [@S3]>, tensor<2xi32>) -> tensor<?x?xf32, [@S0, @S1]>
    %14 = tensor.from_elements %2, %3, %4 {disc.shape_op = true} : tensor<3xindex>
    %15 = "mhlo.dynamic_broadcast_in_dim"(%13, %14) {broadcast_dimensions = dense<[0, 1]> : tensor<2xi64>, disc.device = "gpu"} : (tensor<?x?xf32, [@S0, @S1]>, tensor<3xindex>) -> tensor<?x?x?xf32, [@S0, @S1, @S2]>
    %16 = mhlo.subtract %arg0, %15 {disc.device = "gpu"} : tensor<?x?x?xf32, [@S0, @S1, @S2]>
    %17 = mhlo.exponential %16 {disc.device = "gpu"} : tensor<?x?x?xf32, [@S0, @S1, @S2]>
    %18 = mhlo.dynamic_reshape %17, %9 {disc.device = "gpu"} : (tensor<?x?x?xf32, [@S0, @S1, @S2]>, tensor<2xi32>) -> tensor<?x?xf32, [@S3, @S2]>
    %19 = mhlo.reduce(%18 init: %1) applies mhlo.add across dimensions = [1] : (tensor<?x?xf32, [@S3, @S2]>, tensor<f32>) -> tensor<?xf32, [@S3]>
    %20 = mhlo.dynamic_reshape %19, %12 {disc.device = "gpu"} : (tensor<?xf32, [@S3]>, tensor<2xi32>) -> tensor<?x?xf32, [@S0, @S1]>
    %21 = "mhlo.dynamic_broadcast_in_dim"(%20, %14) {broadcast_dimensions = dense<[0, 1]> : tensor<2xi64>, disc.device = "gpu"} : (tensor<?x?xf32, [@S0, @S1]>, tensor<3xindex>) -> tensor<?x?x?xf32, [@S0, @S1, @S2]>
    %22 = mhlo.divide %17, %21 {disc.device = "gpu"} : tensor<?x?x?xf32, [@S0, @S1, @S2]>
    return %22 : tensor<?x?x?xf32, [@S0, @S1, @S2]>
  }
  "disc_shape.SymbolicDim"() {knownNegativeOne = false, knownNonNegative = true, knownNonSizeOne = false, knownNonSizeZero = false, sym_name = "S0", value = -1 : i64} : () -> ()
  "disc_shape.SymbolicDim"() {knownNegativeOne = false, knownNonNegative = true, knownNonSizeOne = false, knownNonSizeZero = false, sym_name = "S1", value = -1 : i64} : () -> ()
  "disc_shape.SymbolicDim"() {knownNegativeOne = false, knownNonNegative = true, knownNonSizeOne = false, knownNonSizeZero = false, sym_name = "S2", value = -1 : i64} : () -> ()
  "disc_shape.SymbolicDim"() {knownNegativeOne = false, knownNonNegative = true, knownNonSizeOne = false, knownNonSizeZero = false, sym_name = "S3", value = -1 : i64} : () -> ()
  func.func @shape_constraint_graph() {
    %0 = "disc_shape.dim"() {name = @S3} : () -> index
    %1 = "disc_shape.dim"() {name = @S0} : () -> index
    %2 = "disc_shape.dim"() {name = @S1} : () -> index
    "disc_shape.tie_product_equal"(%0, %1, %2) {operand_segment_sizes = dense<[1, 2]> : vector<2xi32>} : (index, index, index) -> ()
    return
  }
}


// -----// IR Dump After CSE (cse) //----- //
module {
  func.func @main(%arg0: tensor<?x?x?xf32, [@S0, @S1, @S2]>) -> tensor<?x?x?xf32, [@S0, @S1, @S2]> attributes {tf.entry_function = {input_placements = "gpu", inputs = "input0", output_placements = "gpu", outputs = "output0"}} {
    %c2 = arith.constant 2 : index
    %c0 = arith.constant 0 : index
    %c1 = arith.constant 1 : index
    %c3 = arith.constant 3 : index
    %0 = mhlo.constant {disc.device = "gpu"} dense<-0.000000e+00> : tensor<f32>
    %1 = mhlo.constant {disc.device = "gpu"} dense<0xFF800000> : tensor<f32>
    %2 = tensor.dim %arg0, %c0 : tensor<?x?x?xf32, [@S0, @S1, @S2]>
    %3 = tensor.dim %arg0, %c1 : tensor<?x?x?xf32, [@S0, @S1, @S2]>
    %4 = tensor.dim %arg0, %c2 : tensor<?x?x?xf32, [@S0, @S1, @S2]>
    %5 = "disc_shape.tie_shape"(%arg0, %2, %3, %4) : (tensor<?x?x?xf32, [@S0, @S1, @S2]>, index, index, index) -> tensor<?x?x?xf32, [@S0, @S1, @S2]>
    %6 = arith.index_cast %4 : index to i32
    %7 = arith.index_cast %2 : index to i32
    %8 = arith.index_cast %3 : index to i32
    %9 = arith.muli %7, %8 : i32
    %10 = tensor.from_elements %9, %6 {disc.shape_op = true} : tensor<2xi32>
    %11 = "disc_shape.tie_shape"(%10, %c2) : (tensor<2xi32>, index) -> tensor<2xi32>
    %12 = mhlo.dynamic_reshape %5, %11 {disc.device = "gpu"} : (tensor<?x?x?xf32, [@S0, @S1, @S2]>, tensor<2xi32>) -> tensor<?x?xf32, [@S3, @S2]>
    %13 = arith.index_cast %9 : i32 to index
    %14 = "disc_shape.tie_shape"(%12, %13, %4) : (tensor<?x?xf32, [@S3, @S2]>, index, index) -> tensor<?x?xf32, [@S3, @S2]>
    %15 = mhlo.reduce(%14 init: %1) applies mhlo.maximum across dimensions = [1] : (tensor<?x?xf32, [@S3, @S2]>, tensor<f32>) -> tensor<?xf32, [@S3]>
    %16 = "disc_shape.tie_shape"(%15, %13) : (tensor<?xf32, [@S3]>, index) -> tensor<?xf32, [@S3]>
    %17 = tensor.from_elements %7, %8 {disc.shape_op = true} : tensor<2xi32>
    %18 = "disc_shape.tie_shape"(%17, %c2) : (tensor<2xi32>, index) -> tensor<2xi32>
    %19 = mhlo.dynamic_reshape %16, %18 {disc.device = "gpu"} : (tensor<?xf32, [@S3]>, tensor<2xi32>) -> tensor<?x?xf32, [@S0, @S1]>
    %20 = "disc_shape.tie_shape"(%19, %2, %3) : (tensor<?x?xf32, [@S0, @S1]>, index, index) -> tensor<?x?xf32, [@S0, @S1]>
    %21 = tensor.from_elements %2, %3, %4 {disc.shape_op = true} : tensor<3xindex>
    %22 = "disc_shape.tie_shape"(%21, %c3) : (tensor<3xindex>, index) -> tensor<3xindex>
    %23 = "mhlo.dynamic_broadcast_in_dim"(%20, %22) {broadcast_dimensions = dense<[0, 1]> : tensor<2xi64>, disc.device = "gpu"} : (tensor<?x?xf32, [@S0, @S1]>, tensor<3xindex>) -> tensor<?x?x?xf32, [@S0, @S1, @S2]>
    %24 = "disc_shape.tie_shape"(%23, %2, %3, %4) : (tensor<?x?x?xf32, [@S0, @S1, @S2]>, index, index, index) -> tensor<?x?x?xf32, [@S0, @S1, @S2]>
    %25 = mhlo.subtract %5, %24 {disc.device = "gpu"} : tensor<?x?x?xf32, [@S0, @S1, @S2]>
    %26 = "disc_shape.tie_shape"(%25, %2, %3, %4) : (tensor<?x?x?xf32, [@S0, @S1, @S2]>, index, index, index) -> tensor<?x?x?xf32, [@S0, @S1, @S2]>
    %27 = mhlo.exponential %26 {disc.device = "gpu"} : tensor<?x?x?xf32, [@S0, @S1, @S2]>
    %28 = "disc_shape.tie_shape"(%27, %2, %3, %4) : (tensor<?x?x?xf32, [@S0, @S1, @S2]>, index, index, index) -> tensor<?x?x?xf32, [@S0, @S1, @S2]>
    %29 = mhlo.dynamic_reshape %28, %11 {disc.device = "gpu"} : (tensor<?x?x?xf32, [@S0, @S1, @S2]>, tensor<2xi32>) -> tensor<?x?xf32, [@S3, @S2]>
    %30 = "disc_shape.tie_shape"(%29, %13, %4) : (tensor<?x?xf32, [@S3, @S2]>, index, index) -> tensor<?x?xf32, [@S3, @S2]>
    %31 = mhlo.reduce(%30 init: %0) applies mhlo.add across dimensions = [1] : (tensor<?x?xf32, [@S3, @S2]>, tensor<f32>) -> tensor<?xf32, [@S3]>
    %32 = "disc_shape.tie_shape"(%31, %13) : (tensor<?xf32, [@S3]>, index) -> tensor<?xf32, [@S3]>
    %33 = mhlo.dynamic_reshape %32, %18 {disc.device = "gpu"} : (tensor<?xf32, [@S3]>, tensor<2xi32>) -> tensor<?x?xf32, [@S0, @S1]>
    %34 = "disc_shape.tie_shape"(%33, %2, %3) : (tensor<?x?xf32, [@S0, @S1]>, index, index) -> tensor<?x?xf32, [@S0, @S1]>
    %35 = "mhlo.dynamic_broadcast_in_dim"(%34, %22) {broadcast_dimensions = dense<[0, 1]> : tensor<2xi64>, disc.device = "gpu"} : (tensor<?x?xf32, [@S0, @S1]>, tensor<3xindex>) -> tensor<?x?x?xf32, [@S0, @S1, @S2]>
    %36 = "disc_shape.tie_shape"(%35, %2, %3, %4) : (tensor<?x?x?xf32, [@S0, @S1, @S2]>, index, index, index) -> tensor<?x?x?xf32, [@S0, @S1, @S2]>
    %37 = mhlo.divide %28, %36 {disc.device = "gpu"} : tensor<?x?x?xf32, [@S0, @S1, @S2]>
    %38 = "disc_shape.tie_shape"(%37, %2, %3, %4) : (tensor<?x?x?xf32, [@S0, @S1, @S2]>, index, index, index) -> tensor<?x?x?xf32, [@S0, @S1, @S2]>
    return %38 : tensor<?x?x?xf32, [@S0, @S1, @S2]>
  }
  "disc_shape.SymbolicDim"() {knownNegativeOne = false, knownNonNegative = true, knownNonSizeOne = false, knownNonSizeZero = false, sym_name = "S0", value = -1 : i64} : () -> ()
  "disc_shape.SymbolicDim"() {knownNegativeOne = false, knownNonNegative = true, knownNonSizeOne = false, knownNonSizeZero = false, sym_name = "S1", value = -1 : i64} : () -> ()
  "disc_shape.SymbolicDim"() {knownNegativeOne = false, knownNonNegative = true, knownNonSizeOne = false, knownNonSizeZero = false, sym_name = "S2", value = -1 : i64} : () -> ()
  "disc_shape.SymbolicDim"() {knownNegativeOne = false, knownNonNegative = true, knownNonSizeOne = false, knownNonSizeZero = false, sym_name = "S3", value = -1 : i64} : () -> ()
  func.func @shape_constraint_graph() {
    %0 = "disc_shape.dim"() {name = @S3} : () -> index
    %1 = "disc_shape.dim"() {name = @S0} : () -> index
    %2 = "disc_shape.dim"() {name = @S1} : () -> index
    "disc_shape.tie_product_equal"(%0, %1, %2) {operand_segment_sizes = dense<[1, 2]> : vector<2xi32>} : (index, index, index) -> ()
    return
  }
}


// -----// IR Dump After DiscShapeOptimizationPass (disc-shape-optimization) //----- //
module {
  func.func @main(%arg0: tensor<?x?x?xf32>) -> tensor<?x?x?xf32> attributes {tf.entry_function = {input_placements = "gpu", inputs = "input0", output_placements = "gpu", outputs = "output0"}} {
    %c2 = arith.constant 2 : index
    %c0 = arith.constant 0 : index
    %c1 = arith.constant 1 : index
    %c3 = arith.constant 3 : index
    %0 = mhlo.constant {disc.device = "gpu"} dense<-0.000000e+00> : tensor<f32>
    %1 = mhlo.constant {disc.device = "gpu"} dense<0xFF800000> : tensor<f32>
    %2 = tensor.dim %arg0, %c0 : tensor<?x?x?xf32>
    %3 = tensor.dim %arg0, %c1 : tensor<?x?x?xf32>
    %4 = tensor.dim %arg0, %c2 : tensor<?x?x?xf32>
    %5 = "disc_shape.tie_shape"(%arg0, %2, %3, %4) {kDiscSymbolicDimAttr = [@S0, @S1, @S2]} : (tensor<?x?x?xf32>, index, index, index) -> tensor<?x?x?xf32>
    %6 = arith.index_cast %4 : index to i32
    %7 = arith.index_cast %2 : index to i32
    %8 = arith.index_cast %3 : index to i32
    %9 = arith.muli %7, %8 : i32
    %10 = tensor.from_elements %9, %6 {disc.shape_op = true} : tensor<2xi32>
    %11 = "disc_shape.tie_shape"(%10, %c2) : (tensor<2xi32>, index) -> tensor<2xi32>
    %12 = arith.index_cast %9 : i32 to index
    %13 = mhlo.dynamic_reshape %5, %11 {disc.device = "gpu"} : (tensor<?x?x?xf32>, tensor<2xi32>) -> tensor<?x?xf32>
    %14 = "disc_shape.tie_shape"(%13, %12, %4) {kDiscSymbolicDimAttr = [@S3, @S2]} : (tensor<?x?xf32>, index, index) -> tensor<?x?xf32>
    %15 = mhlo.reduce(%14 init: %1) applies mhlo.maximum across dimensions = [1] : (tensor<?x?xf32>, tensor<f32>) -> tensor<?xf32>
    %16 = "disc_shape.tie_shape"(%15, %12) {kDiscSymbolicDimAttr = [@S3]} : (tensor<?xf32>, index) -> tensor<?xf32>
    %17 = tensor.from_elements %7, %8 {disc.shape_op = true} : tensor<2xi32>
    %18 = "disc_shape.tie_shape"(%17, %c2) : (tensor<2xi32>, index) -> tensor<2xi32>
    %19 = mhlo.dynamic_reshape %16, %18 {disc.device = "gpu"} : (tensor<?xf32>, tensor<2xi32>) -> tensor<?x?xf32>
    %20 = "disc_shape.tie_shape"(%19, %2, %3) {kDiscSymbolicDimAttr = [@S0, @S1]} : (tensor<?x?xf32>, index, index) -> tensor<?x?xf32>
    %21 = tensor.from_elements %2, %3, %4 {disc.shape_op = true} : tensor<3xindex>
    %22 = "disc_shape.tie_shape"(%21, %c3) : (tensor<3xindex>, index) -> tensor<3xindex>
    %23 = "mhlo.dynamic_broadcast_in_dim"(%20, %22) {broadcast_dimensions = dense<[0, 1]> : tensor<2xi64>, disc.device = "gpu"} : (tensor<?x?xf32>, tensor<3xindex>) -> tensor<?x?x?xf32>
    %24 = "disc_shape.tie_shape"(%23, %2, %3, %4) {kDiscSymbolicDimAttr = [@S0, @S1, @S2]} : (tensor<?x?x?xf32>, index, index, index) -> tensor<?x?x?xf32>
    %25 = mhlo.subtract %5, %24 {disc.device = "gpu"} : tensor<?x?x?xf32>
    %26 = "disc_shape.tie_shape"(%25, %2, %3, %4) {kDiscSymbolicDimAttr = [@S0, @S1, @S2]} : (tensor<?x?x?xf32>, index, index, index) -> tensor<?x?x?xf32>
    %27 = mhlo.exponential %26 {disc.device = "gpu"} : tensor<?x?x?xf32>
    %28 = "disc_shape.tie_shape"(%27, %2, %3, %4) {kDiscSymbolicDimAttr = [@S0, @S1, @S2]} : (tensor<?x?x?xf32>, index, index, index) -> tensor<?x?x?xf32>
    %29 = mhlo.dynamic_reshape %28, %11 {disc.device = "gpu"} : (tensor<?x?x?xf32>, tensor<2xi32>) -> tensor<?x?xf32>
    %30 = "disc_shape.tie_shape"(%29, %12, %4) {kDiscSymbolicDimAttr = [@S3, @S2]} : (tensor<?x?xf32>, index, index) -> tensor<?x?xf32>
    %31 = mhlo.reduce(%30 init: %0) applies mhlo.add across dimensions = [1] : (tensor<?x?xf32>, tensor<f32>) -> tensor<?xf32>
    %32 = "disc_shape.tie_shape"(%31, %12) {kDiscSymbolicDimAttr = [@S3]} : (tensor<?xf32>, index) -> tensor<?xf32>
    %33 = mhlo.dynamic_reshape %32, %18 {disc.device = "gpu"} : (tensor<?xf32>, tensor<2xi32>) -> tensor<?x?xf32>
    %34 = "disc_shape.tie_shape"(%33, %2, %3) {kDiscSymbolicDimAttr = [@S0, @S1]} : (tensor<?x?xf32>, index, index) -> tensor<?x?xf32>
    %35 = "mhlo.dynamic_broadcast_in_dim"(%34, %22) {broadcast_dimensions = dense<[0, 1]> : tensor<2xi64>, disc.device = "gpu"} : (tensor<?x?xf32>, tensor<3xindex>) -> tensor<?x?x?xf32>
    %36 = "disc_shape.tie_shape"(%35, %2, %3, %4) {kDiscSymbolicDimAttr = [@S0, @S1, @S2]} : (tensor<?x?x?xf32>, index, index, index) -> tensor<?x?x?xf32>
    %37 = mhlo.divide %28, %36 {disc.device = "gpu"} : tensor<?x?x?xf32>
    %38 = "disc_shape.tie_shape"(%37, %2, %3, %4) {kDiscSymbolicDimAttr = [@S0, @S1, @S2]} : (tensor<?x?x?xf32>, index, index, index) -> tensor<?x?x?xf32>
    return %38 : tensor<?x?x?xf32>
  }
  "disc_shape.SymbolicDim"() {knownNegativeOne = false, knownNonNegative = true, knownNonSizeOne = false, knownNonSizeZero = false, sym_name = "S0", value = -1 : i64} : () -> ()
  "disc_shape.SymbolicDim"() {knownNegativeOne = false, knownNonNegative = true, knownNonSizeOne = false, knownNonSizeZero = false, sym_name = "S1", value = -1 : i64} : () -> ()
  "disc_shape.SymbolicDim"() {knownNegativeOne = false, knownNonNegative = true, knownNonSizeOne = false, knownNonSizeZero = false, sym_name = "S2", value = -1 : i64} : () -> ()
  "disc_shape.SymbolicDim"() {knownNegativeOne = false, knownNonNegative = true, knownNonSizeOne = false, knownNonSizeZero = false, sym_name = "S3", value = -1 : i64} : () -> ()
  func.func @shape_constraint_graph() {
    %0 = "disc_shape.dim"() {name = @S3} : () -> index
    %1 = "disc_shape.dim"() {name = @S0} : () -> index
    %2 = "disc_shape.dim"() {name = @S1} : () -> index
    "disc_shape.tie_product_equal"(%0, %1, %2) {operand_segment_sizes = dense<[1, 2]> : vector<2xi32>} : (index, index, index) -> ()
    return
  }
}


// -----// IR Dump After Canonicalizer (canonicalize) //----- //
func.func @main(%arg0: tensor<?x?x?xf32>) -> tensor<?x?x?xf32> attributes {tf.entry_function = {input_placements = "gpu", inputs = "input0", output_placements = "gpu", outputs = "output0"}} {
  %c2 = arith.constant 2 : index
  %c0 = arith.constant 0 : index
  %c1 = arith.constant 1 : index
  %0 = mhlo.constant {disc.device = "gpu"} dense<-0.000000e+00> : tensor<f32>
  %1 = mhlo.constant {disc.device = "gpu"} dense<0xFF800000> : tensor<f32>
  %2 = tensor.dim %arg0, %c0 : tensor<?x?x?xf32>
  %3 = tensor.dim %arg0, %c1 : tensor<?x?x?xf32>
  %4 = tensor.dim %arg0, %c2 : tensor<?x?x?xf32>
  %5 = "disc_shape.tie_shape"(%arg0, %2, %3, %4) {kDiscSymbolicDimAttr = [@S0, @S1, @S2]} : (tensor<?x?x?xf32>, index, index, index) -> tensor<?x?x?xf32>
  %6 = arith.index_cast %4 : index to i32
  %7 = arith.index_cast %2 : index to i32
  %8 = arith.index_cast %3 : index to i32
  %9 = arith.muli %7, %8 : i32
  %10 = tensor.from_elements %9, %6 {disc.shape_op = true} : tensor<2xi32>
  %11 = arith.index_cast %9 : i32 to index
  %12 = mhlo.dynamic_reshape %5, %10 {disc.device = "gpu"} : (tensor<?x?x?xf32>, tensor<2xi32>) -> tensor<?x?xf32>
  %13 = "disc_shape.tie_shape"(%12, %11, %4) {kDiscSymbolicDimAttr = [@S3, @S2]} : (tensor<?x?xf32>, index, index) -> tensor<?x?xf32>
  %14 = mhlo.reduce(%13 init: %1) applies mhlo.maximum across dimensions = [1] : (tensor<?x?xf32>, tensor<f32>) -> tensor<?xf32>
  %15 = "disc_shape.tie_shape"(%14, %11) {kDiscSymbolicDimAttr = [@S3]} : (tensor<?xf32>, index) -> tensor<?xf32>
  %16 = tensor.from_elements %7, %8 {disc.shape_op = true} : tensor<2xi32>
  %17 = mhlo.dynamic_reshape %15, %16 {disc.device = "gpu"} : (tensor<?xf32>, tensor<2xi32>) -> tensor<?x?xf32>
  %18 = "disc_shape.tie_shape"(%17, %2, %3) {kDiscSymbolicDimAttr = [@S0, @S1]} : (tensor<?x?xf32>, index, index) -> tensor<?x?xf32>
  %19 = tensor.from_elements %2, %3, %4 {disc.shape_op = true} : tensor<3xindex>
  %20 = "mhlo.dynamic_broadcast_in_dim"(%18, %19) {broadcast_dimensions = dense<[0, 1]> : tensor<2xi64>, disc.device = "gpu"} : (tensor<?x?xf32>, tensor<3xindex>) -> tensor<?x?x?xf32>
  %21 = "disc_shape.tie_shape"(%20, %2, %3, %4) {kDiscSymbolicDimAttr = [@S0, @S1, @S2]} : (tensor<?x?x?xf32>, index, index, index) -> tensor<?x?x?xf32>
  %22 = mhlo.subtract %5, %21 {disc.device = "gpu"} : tensor<?x?x?xf32>
  %23 = "disc_shape.tie_shape"(%22, %2, %3, %4) {kDiscSymbolicDimAttr = [@S0, @S1, @S2]} : (tensor<?x?x?xf32>, index, index, index) -> tensor<?x?x?xf32>
  %24 = mhlo.exponential %23 {disc.device = "gpu"} : tensor<?x?x?xf32>
  %25 = "disc_shape.tie_shape"(%24, %2, %3, %4) {kDiscSymbolicDimAttr = [@S0, @S1, @S2]} : (tensor<?x?x?xf32>, index, index, index) -> tensor<?x?x?xf32>
  %26 = mhlo.dynamic_reshape %25, %10 {disc.device = "gpu"} : (tensor<?x?x?xf32>, tensor<2xi32>) -> tensor<?x?xf32>
  %27 = "disc_shape.tie_shape"(%26, %11, %4) {kDiscSymbolicDimAttr = [@S3, @S2]} : (tensor<?x?xf32>, index, index) -> tensor<?x?xf32>
  %28 = mhlo.reduce(%27 init: %0) applies mhlo.add across dimensions = [1] : (tensor<?x?xf32>, tensor<f32>) -> tensor<?xf32>
  %29 = "disc_shape.tie_shape"(%28, %11) {kDiscSymbolicDimAttr = [@S3]} : (tensor<?xf32>, index) -> tensor<?xf32>
  %30 = mhlo.dynamic_reshape %29, %16 {disc.device = "gpu"} : (tensor<?xf32>, tensor<2xi32>) -> tensor<?x?xf32>
  %31 = "disc_shape.tie_shape"(%30, %2, %3) {kDiscSymbolicDimAttr = [@S0, @S1]} : (tensor<?x?xf32>, index, index) -> tensor<?x?xf32>
  %32 = "mhlo.dynamic_broadcast_in_dim"(%31, %19) {broadcast_dimensions = dense<[0, 1]> : tensor<2xi64>, disc.device = "gpu"} : (tensor<?x?xf32>, tensor<3xindex>) -> tensor<?x?x?xf32>
  %33 = "disc_shape.tie_shape"(%32, %2, %3, %4) {kDiscSymbolicDimAttr = [@S0, @S1, @S2]} : (tensor<?x?x?xf32>, index, index, index) -> tensor<?x?x?xf32>
  %34 = mhlo.divide %25, %33 {disc.device = "gpu"} : tensor<?x?x?xf32>
  %35 = "disc_shape.tie_shape"(%34, %2, %3, %4) {kDiscSymbolicDimAttr = [@S0, @S1, @S2]} : (tensor<?x?x?xf32>, index, index, index) -> tensor<?x?x?xf32>
  return %35 : tensor<?x?x?xf32>
}

// -----// IR Dump After FuncBufferize (func-bufferize) //----- //
module {
  func.func @main(%arg0: memref<?x?x?xf32>) -> memref<?x?x?xf32> attributes {tf.entry_function = {input_placements = "gpu", inputs = "input0", output_placements = "gpu", outputs = "output0"}} {
    %0 = bufferization.to_tensor %arg0 : memref<?x?x?xf32>
    %c2 = arith.constant 2 : index
    %c0 = arith.constant 0 : index
    %c1 = arith.constant 1 : index
    %1 = mhlo.constant {disc.device = "gpu"} dense<-0.000000e+00> : tensor<f32>
    %2 = mhlo.constant {disc.device = "gpu"} dense<0xFF800000> : tensor<f32>
    %3 = tensor.dim %0, %c0 : tensor<?x?x?xf32>
    %4 = tensor.dim %0, %c1 : tensor<?x?x?xf32>
    %5 = tensor.dim %0, %c2 : tensor<?x?x?xf32>
    %6 = "disc_shape.tie_shape"(%0, %3, %4, %5) {kDiscSymbolicDimAttr = [@S0, @S1, @S2]} : (tensor<?x?x?xf32>, index, index, index) -> tensor<?x?x?xf32>
    %7 = arith.index_cast %5 : index to i32
    %8 = arith.index_cast %3 : index to i32
    %9 = arith.index_cast %4 : index to i32
    %10 = arith.muli %8, %9 : i32
    %11 = tensor.from_elements %10, %7 {disc.shape_op = true} : tensor<2xi32>
    %12 = arith.index_cast %10 : i32 to index
    %13 = mhlo.dynamic_reshape %6, %11 {disc.device = "gpu"} : (tensor<?x?x?xf32>, tensor<2xi32>) -> tensor<?x?xf32>
    %14 = "disc_shape.tie_shape"(%13, %12, %5) {kDiscSymbolicDimAttr = [@S3, @S2]} : (tensor<?x?xf32>, index, index) -> tensor<?x?xf32>
    %15 = mhlo.reduce(%14 init: %2) applies mhlo.maximum across dimensions = [1] : (tensor<?x?xf32>, tensor<f32>) -> tensor<?xf32>
    %16 = "disc_shape.tie_shape"(%15, %12) {kDiscSymbolicDimAttr = [@S3]} : (tensor<?xf32>, index) -> tensor<?xf32>
    %17 = tensor.from_elements %8, %9 {disc.shape_op = true} : tensor<2xi32>
    %18 = mhlo.dynamic_reshape %16, %17 {disc.device = "gpu"} : (tensor<?xf32>, tensor<2xi32>) -> tensor<?x?xf32>
    %19 = "disc_shape.tie_shape"(%18, %3, %4) {kDiscSymbolicDimAttr = [@S0, @S1]} : (tensor<?x?xf32>, index, index) -> tensor<?x?xf32>
    %20 = tensor.from_elements %3, %4, %5 {disc.shape_op = true} : tensor<3xindex>
    %21 = "mhlo.dynamic_broadcast_in_dim"(%19, %20) {broadcast_dimensions = dense<[0, 1]> : tensor<2xi64>, disc.device = "gpu"} : (tensor<?x?xf32>, tensor<3xindex>) -> tensor<?x?x?xf32>
    %22 = "disc_shape.tie_shape"(%21, %3, %4, %5) {kDiscSymbolicDimAttr = [@S0, @S1, @S2]} : (tensor<?x?x?xf32>, index, index, index) -> tensor<?x?x?xf32>
    %23 = mhlo.subtract %6, %22 {disc.device = "gpu"} : tensor<?x?x?xf32>
    %24 = "disc_shape.tie_shape"(%23, %3, %4, %5) {kDiscSymbolicDimAttr = [@S0, @S1, @S2]} : (tensor<?x?x?xf32>, index, index, index) -> tensor<?x?x?xf32>
    %25 = mhlo.exponential %24 {disc.device = "gpu"} : tensor<?x?x?xf32>
    %26 = "disc_shape.tie_shape"(%25, %3, %4, %5) {kDiscSymbolicDimAttr = [@S0, @S1, @S2]} : (tensor<?x?x?xf32>, index, index, index) -> tensor<?x?x?xf32>
    %27 = mhlo.dynamic_reshape %26, %11 {disc.device = "gpu"} : (tensor<?x?x?xf32>, tensor<2xi32>) -> tensor<?x?xf32>
    %28 = "disc_shape.tie_shape"(%27, %12, %5) {kDiscSymbolicDimAttr = [@S3, @S2]} : (tensor<?x?xf32>, index, index) -> tensor<?x?xf32>
    %29 = mhlo.reduce(%28 init: %1) applies mhlo.add across dimensions = [1] : (tensor<?x?xf32>, tensor<f32>) -> tensor<?xf32>
    %30 = "disc_shape.tie_shape"(%29, %12) {kDiscSymbolicDimAttr = [@S3]} : (tensor<?xf32>, index) -> tensor<?xf32>
    %31 = mhlo.dynamic_reshape %30, %17 {disc.device = "gpu"} : (tensor<?xf32>, tensor<2xi32>) -> tensor<?x?xf32>
    %32 = "disc_shape.tie_shape"(%31, %3, %4) {kDiscSymbolicDimAttr = [@S0, @S1]} : (tensor<?x?xf32>, index, index) -> tensor<?x?xf32>
    %33 = "mhlo.dynamic_broadcast_in_dim"(%32, %20) {broadcast_dimensions = dense<[0, 1]> : tensor<2xi64>, disc.device = "gpu"} : (tensor<?x?xf32>, tensor<3xindex>) -> tensor<?x?x?xf32>
    %34 = "disc_shape.tie_shape"(%33, %3, %4, %5) {kDiscSymbolicDimAttr = [@S0, @S1, @S2]} : (tensor<?x?x?xf32>, index, index, index) -> tensor<?x?x?xf32>
    %35 = mhlo.divide %26, %34 {disc.device = "gpu"} : tensor<?x?x?xf32>
    %36 = "disc_shape.tie_shape"(%35, %3, %4, %5) {kDiscSymbolicDimAttr = [@S0, @S1, @S2]} : (tensor<?x?x?xf32>, index, index, index) -> tensor<?x?x?xf32>
    %37 = bufferization.to_memref %36 : memref<?x?x?xf32>
    return %37 : memref<?x?x?xf32>
  }
  "disc_shape.SymbolicDim"() {knownNegativeOne = false, knownNonNegative = true, knownNonSizeOne = false, knownNonSizeZero = false, sym_name = "S0", value = -1 : i64} : () -> ()
  "disc_shape.SymbolicDim"() {knownNegativeOne = false, knownNonNegative = true, knownNonSizeOne = false, knownNonSizeZero = false, sym_name = "S1", value = -1 : i64} : () -> ()
  "disc_shape.SymbolicDim"() {knownNegativeOne = false, knownNonNegative = true, knownNonSizeOne = false, knownNonSizeZero = false, sym_name = "S2", value = -1 : i64} : () -> ()
  "disc_shape.SymbolicDim"() {knownNegativeOne = false, knownNonNegative = true, knownNonSizeOne = false, knownNonSizeZero = false, sym_name = "S3", value = -1 : i64} : () -> ()
  func.func @shape_constraint_graph() {
    %0 = "disc_shape.dim"() {name = @S3} : () -> index
    %1 = "disc_shape.dim"() {name = @S0} : () -> index
    %2 = "disc_shape.dim"() {name = @S1} : () -> index
    "disc_shape.tie_product_equal"(%0, %1, %2) {operand_segment_sizes = dense<[1, 2]> : vector<2xi32>} : (index, index, index) -> ()
    return
  }
}


// -----// IR Dump After DiscHloLegalizeToLhloPass (disc-hlo-legalize-to-lhlo) //----- //
module {
  func.func @main(%arg0: memref<?x?x?xf32>) -> memref<?x?x?xf32> attributes {tf.entry_function = {input_placements = "gpu", inputs = "input0", output_placements = "gpu", outputs = "output0"}} {
    %0 = bufferization.to_tensor %arg0 : memref<?x?x?xf32>
    %1 = bufferization.to_memref %0 : memref<?x?x?xf32>
    %c2 = arith.constant 2 : index
    %c0 = arith.constant 0 : index
    %c1 = arith.constant 1 : index
    %2 = mhlo.constant {disc.device = "gpu"} dense<-0.000000e+00> : tensor<f32>
    %3 = mhlo.constant {disc.device = "gpu"} dense<0xFF800000> : tensor<f32>
    %4 = tensor.dim %0, %c0 : tensor<?x?x?xf32>
    %5 = tensor.dim %0, %c1 : tensor<?x?x?xf32>
    %6 = tensor.dim %0, %c2 : tensor<?x?x?xf32>
    %c1_0 = arith.constant 1 : index
    %7 = arith.muli %c1_0, %6 : index
    %8 = arith.muli %7, %5 : index
    %9 = arith.muli %8, %4 : index
    %10 = memref.reinterpret_cast %1 to offset: [0], sizes: [%4, %5, %6], strides: [%8, %7, 1] {kDiscSymbolicDimAttr = [@S0, @S1, @S2]} : memref<?x?x?xf32> to memref<?x?x?xf32>
    %11 = bufferization.to_tensor %10 : memref<?x?x?xf32>
    %12 = arith.index_cast %6 : index to i32
    %13 = arith.index_cast %4 : index to i32
    %14 = arith.index_cast %5 : index to i32
    %15 = arith.muli %13, %14 : i32
    %16 = tensor.from_elements %15, %12 {disc.shape_op = true} : tensor<2xi32>
    %17 = arith.index_cast %15 : i32 to index
    %18 = mhlo.dynamic_reshape %11, %16 {disc.device = "gpu"} : (tensor<?x?x?xf32>, tensor<2xi32>) -> tensor<?x?xf32>
    %19 = bufferization.to_memref %18 : memref<?x?xf32>
    %c1_1 = arith.constant 1 : index
    %20 = arith.muli %c1_1, %6 : index
    %21 = arith.muli %20, %17 : index
    %22 = memref.reinterpret_cast %19 to offset: [0], sizes: [%17, %6], strides: [%20, 1] {kDiscSymbolicDimAttr = [@S3, @S2]} : memref<?x?xf32> to memref<?x?xf32>
    %23 = bufferization.to_tensor %22 : memref<?x?xf32>
    %24 = mhlo.reduce(%23 init: %3) applies mhlo.maximum across dimensions = [1] : (tensor<?x?xf32>, tensor<f32>) -> tensor<?xf32>
    %25 = bufferization.to_memref %24 : memref<?xf32>
    %c1_2 = arith.constant 1 : index
    %26 = arith.muli %c1_2, %17 : index
    %27 = memref.reinterpret_cast %25 to offset: [0], sizes: [%17], strides: [1] {kDiscSymbolicDimAttr = [@S3]} : memref<?xf32> to memref<?xf32>
    %28 = bufferization.to_tensor %27 : memref<?xf32>
    %29 = tensor.from_elements %13, %14 {disc.shape_op = true} : tensor<2xi32>
    %30 = mhlo.dynamic_reshape %28, %29 {disc.device = "gpu"} : (tensor<?xf32>, tensor<2xi32>) -> tensor<?x?xf32>
    %31 = bufferization.to_memref %30 : memref<?x?xf32>
    %c1_3 = arith.constant 1 : index
    %32 = arith.muli %c1_3, %5 : index
    %33 = arith.muli %32, %4 : index
    %34 = memref.reinterpret_cast %31 to offset: [0], sizes: [%4, %5], strides: [%32, 1] {kDiscSymbolicDimAttr = [@S0, @S1]} : memref<?x?xf32> to memref<?x?xf32>
    %35 = bufferization.to_tensor %34 : memref<?x?xf32>
    %36 = tensor.from_elements %4, %5, %6 {disc.shape_op = true} : tensor<3xindex>
    %37 = "mhlo.dynamic_broadcast_in_dim"(%35, %36) {broadcast_dimensions = dense<[0, 1]> : tensor<2xi64>, disc.device = "gpu"} : (tensor<?x?xf32>, tensor<3xindex>) -> tensor<?x?x?xf32>
    %38 = bufferization.to_memref %37 : memref<?x?x?xf32>
    %c1_4 = arith.constant 1 : index
    %39 = arith.muli %c1_4, %6 : index
    %40 = arith.muli %39, %5 : index
    %41 = arith.muli %40, %4 : index
    %42 = memref.reinterpret_cast %38 to offset: [0], sizes: [%4, %5, %6], strides: [%40, %39, 1] {kDiscSymbolicDimAttr = [@S0, @S1, @S2]} : memref<?x?x?xf32> to memref<?x?x?xf32>
    %43 = bufferization.to_tensor %42 : memref<?x?x?xf32>
    %44 = mhlo.subtract %11, %43 {disc.device = "gpu"} : tensor<?x?x?xf32>
    %45 = bufferization.to_memref %44 : memref<?x?x?xf32>
    %c1_5 = arith.constant 1 : index
    %46 = arith.muli %c1_5, %6 : index
    %47 = arith.muli %46, %5 : index
    %48 = arith.muli %47, %4 : index
    %49 = memref.reinterpret_cast %45 to offset: [0], sizes: [%4, %5, %6], strides: [%47, %46, 1] {kDiscSymbolicDimAttr = [@S0, @S1, @S2]} : memref<?x?x?xf32> to memref<?x?x?xf32>
    %50 = bufferization.to_tensor %49 : memref<?x?x?xf32>
    %51 = mhlo.exponential %50 {disc.device = "gpu"} : tensor<?x?x?xf32>
    %52 = bufferization.to_memref %51 : memref<?x?x?xf32>
    %c1_6 = arith.constant 1 : index
    %53 = arith.muli %c1_6, %6 : index
    %54 = arith.muli %53, %5 : index
    %55 = arith.muli %54, %4 : index
    %56 = memref.reinterpret_cast %52 to offset: [0], sizes: [%4, %5, %6], strides: [%54, %53, 1] {kDiscSymbolicDimAttr = [@S0, @S1, @S2]} : memref<?x?x?xf32> to memref<?x?x?xf32>
    %57 = bufferization.to_tensor %56 : memref<?x?x?xf32>
    %58 = mhlo.dynamic_reshape %57, %16 {disc.device = "gpu"} : (tensor<?x?x?xf32>, tensor<2xi32>) -> tensor<?x?xf32>
    %59 = bufferization.to_memref %58 : memref<?x?xf32>
    %c1_7 = arith.constant 1 : index
    %60 = arith.muli %c1_7, %6 : index
    %61 = arith.muli %60, %17 : index
    %62 = memref.reinterpret_cast %59 to offset: [0], sizes: [%17, %6], strides: [%60, 1] {kDiscSymbolicDimAttr = [@S3, @S2]} : memref<?x?xf32> to memref<?x?xf32>
    %63 = bufferization.to_tensor %62 : memref<?x?xf32>
    %64 = mhlo.reduce(%63 init: %2) applies mhlo.add across dimensions = [1] : (tensor<?x?xf32>, tensor<f32>) -> tensor<?xf32>
    %65 = bufferization.to_memref %64 : memref<?xf32>
    %c1_8 = arith.constant 1 : index
    %66 = arith.muli %c1_8, %17 : index
    %67 = memref.reinterpret_cast %65 to offset: [0], sizes: [%17], strides: [1] {kDiscSymbolicDimAttr = [@S3]} : memref<?xf32> to memref<?xf32>
    %68 = bufferization.to_tensor %67 : memref<?xf32>
    %69 = mhlo.dynamic_reshape %68, %29 {disc.device = "gpu"} : (tensor<?xf32>, tensor<2xi32>) -> tensor<?x?xf32>
    %70 = bufferization.to_memref %69 : memref<?x?xf32>
    %c1_9 = arith.constant 1 : index
    %71 = arith.muli %c1_9, %5 : index
    %72 = arith.muli %71, %4 : index
    %73 = memref.reinterpret_cast %70 to offset: [0], sizes: [%4, %5], strides: [%71, 1] {kDiscSymbolicDimAttr = [@S0, @S1]} : memref<?x?xf32> to memref<?x?xf32>
    %74 = bufferization.to_tensor %73 : memref<?x?xf32>
    %75 = "mhlo.dynamic_broadcast_in_dim"(%74, %36) {broadcast_dimensions = dense<[0, 1]> : tensor<2xi64>, disc.device = "gpu"} : (tensor<?x?xf32>, tensor<3xindex>) -> tensor<?x?x?xf32>
    %76 = bufferization.to_memref %75 : memref<?x?x?xf32>
    %c1_10 = arith.constant 1 : index
    %77 = arith.muli %c1_10, %6 : index
    %78 = arith.muli %77, %5 : index
    %79 = arith.muli %78, %4 : index
    %80 = memref.reinterpret_cast %76 to offset: [0], sizes: [%4, %5, %6], strides: [%78, %77, 1] {kDiscSymbolicDimAttr = [@S0, @S1, @S2]} : memref<?x?x?xf32> to memref<?x?x?xf32>
    %81 = bufferization.to_tensor %80 : memref<?x?x?xf32>
    %82 = mhlo.divide %57, %81 {disc.device = "gpu"} : tensor<?x?x?xf32>
    %83 = bufferization.to_memref %82 : memref<?x?x?xf32>
    %c1_11 = arith.constant 1 : index
    %84 = arith.muli %c1_11, %6 : index
    %85 = arith.muli %84, %5 : index
    %86 = arith.muli %85, %4 : index
    %87 = memref.reinterpret_cast %83 to offset: [0], sizes: [%4, %5, %6], strides: [%85, %84, 1] {kDiscSymbolicDimAttr = [@S0, @S1, @S2]} : memref<?x?x?xf32> to memref<?x?x?xf32>
    %88 = bufferization.to_tensor %87 : memref<?x?x?xf32>
    %89 = bufferization.to_memref %88 : memref<?x?x?xf32>
    return %89 : memref<?x?x?xf32>
  }
  "disc_shape.SymbolicDim"() {knownNegativeOne = false, knownNonNegative = true, knownNonSizeOne = false, knownNonSizeZero = false, sym_name = "S0", value = -1 : i64} : () -> ()
  "disc_shape.SymbolicDim"() {knownNegativeOne = false, knownNonNegative = true, knownNonSizeOne = false, knownNonSizeZero = false, sym_name = "S1", value = -1 : i64} : () -> ()
  "disc_shape.SymbolicDim"() {knownNegativeOne = false, knownNonNegative = true, knownNonSizeOne = false, knownNonSizeZero = false, sym_name = "S2", value = -1 : i64} : () -> ()
  "disc_shape.SymbolicDim"() {knownNegativeOne = false, knownNonNegative = true, knownNonSizeOne = false, knownNonSizeZero = false, sym_name = "S3", value = -1 : i64} : () -> ()
  func.func @shape_constraint_graph() {
    %0 = "disc_shape.dim"() {name = @S3} : () -> index
    %1 = "disc_shape.dim"() {name = @S0} : () -> index
    %2 = "disc_shape.dim"() {name = @S1} : () -> index
    "disc_shape.tie_product_equal"(%0, %1, %2) {operand_segment_sizes = dense<[1, 2]> : vector<2xi32>} : (index, index, index) -> ()
    return
  }
}


// -----// IR Dump After HloLegalizeToLhloPass (hlo-legalize-to-lhlo) //----- //
module {
  func.func @main(%arg0: memref<?x?x?xf32>) -> memref<?x?x?xf32> attributes {tf.entry_function = {input_placements = "gpu", inputs = "input0", output_placements = "gpu", outputs = "output0"}} {
    %0 = bufferization.to_tensor %arg0 : memref<?x?x?xf32>
    %c2 = arith.constant 2 : index
    %c0 = arith.constant 0 : index
    %c1 = arith.constant 1 : index
    %1 = memref.alloc() : memref<f32>
    "lmhlo.constant"(%1) {disc.device = "gpu", value = dense<-0.000000e+00> : tensor<f32>} : (memref<f32>) -> ()
    %2 = memref.alloc() : memref<f32>
    "lmhlo.constant"(%2) {disc.device = "gpu", value = dense<0xFF800000> : tensor<f32>} : (memref<f32>) -> ()
    %3 = tensor.dim %0, %c0 : tensor<?x?x?xf32>
    %4 = tensor.dim %0, %c1 : tensor<?x?x?xf32>
    %5 = tensor.dim %0, %c2 : tensor<?x?x?xf32>
    %c1_0 = arith.constant 1 : index
    %6 = arith.muli %c1_0, %5 : index
    %7 = arith.muli %6, %4 : index
    %8 = arith.muli %7, %3 : index
    %9 = memref.reinterpret_cast %arg0 to offset: [0], sizes: [%3, %4, %5], strides: [%7, %6, 1] {kDiscSymbolicDimAttr = [@S0, @S1, @S2]} : memref<?x?x?xf32> to memref<?x?x?xf32>
    %10 = bufferization.to_tensor %9 : memref<?x?x?xf32>
    %11 = bufferization.to_memref %10 : memref<?x?x?xf32>
    %12 = arith.index_cast %5 : index to i32
    %13 = arith.index_cast %3 : index to i32
    %14 = arith.index_cast %4 : index to i32
    %15 = arith.muli %13, %14 : i32
    %16 = tensor.from_elements %15, %12 {disc.shape_op = true} : tensor<2xi32>
    %17 = bufferization.to_memref %16 : memref<2xi32>
    %18 = arith.index_cast %15 : i32 to index
    %19 = bufferization.to_tensor %11 : memref<?x?x?xf32>
    %20 = bufferization.to_tensor %17 : memref<2xi32>
    %21 = arith.index_cast %20 : tensor<2xi32> to tensor<2xindex>
    %c0_1 = arith.constant 0 : index
    %22 = tensor.extract %21[%c0_1] : tensor<2xindex>
    %c1_2 = arith.constant 1 : index
    %23 = tensor.extract %21[%c1_2] : tensor<2xindex>
    %24 = memref.alloc(%22, %23) : memref<?x?xf32>
    "lmhlo.dynamic_reshape"(%11, %17, %24) {disc.device = "gpu"} : (memref<?x?x?xf32>, memref<2xi32>, memref<?x?xf32>) -> ()
    %25 = bufferization.to_tensor %24 : memref<?x?xf32>
    %26 = bufferization.to_memref %25 : memref<?x?xf32>
    %c1_3 = arith.constant 1 : index
    %27 = arith.muli %c1_3, %5 : index
    %28 = arith.muli %27, %18 : index
    %29 = memref.reinterpret_cast %26 to offset: [0], sizes: [%18, %5], strides: [%27, 1] {kDiscSymbolicDimAttr = [@S3, @S2]} : memref<?x?xf32> to memref<?x?xf32>
    %30 = bufferization.to_tensor %29 : memref<?x?xf32>
    %31 = bufferization.to_memref %30 : memref<?x?xf32>
    %32 = bufferization.to_tensor %31 : memref<?x?xf32>
    %33 = bufferization.to_tensor %2 : memref<f32>
    %c0_4 = arith.constant 0 : index
    %34 = tensor.dim %32, %c0_4 : tensor<?x?xf32>
    %35 = tensor.from_elements %34 : tensor<1xindex>
    %c0_5 = arith.constant 0 : index
    %36 = tensor.extract %35[%c0_5] : tensor<1xindex>
    %37 = memref.alloc(%36) : memref<?xf32>
    "lmhlo.reduce"(%31, %2, %37) ({
    ^bb0(%arg1: memref<f32>, %arg2: memref<f32>, %arg3: memref<f32>):
      %170 = memref.alloc() : memref<f32>
      "lmhlo.maximum"(%arg1, %arg2, %170) {disc.device = "gpu"} : (memref<f32>, memref<f32>, memref<f32>) -> ()
      "lmhlo.copy"(%170, %arg3) : (memref<f32>, memref<f32>) -> ()
      "lmhlo.terminator"() : () -> ()
    }) {dimensions = dense<1> : tensor<1xi64>, disc.device = "gpu"} : (memref<?x?xf32>, memref<f32>, memref<?xf32>) -> ()
    %38 = bufferization.to_tensor %37 : memref<?xf32>
    %39 = bufferization.to_memref %38 : memref<?xf32>
    %c1_6 = arith.constant 1 : index
    %40 = arith.muli %c1_6, %18 : index
    %41 = memref.reinterpret_cast %39 to offset: [0], sizes: [%18], strides: [1] {kDiscSymbolicDimAttr = [@S3]} : memref<?xf32> to memref<?xf32>
    %42 = bufferization.to_tensor %41 : memref<?xf32>
    %43 = bufferization.to_memref %42 : memref<?xf32>
    %44 = tensor.from_elements %13, %14 {disc.shape_op = true} : tensor<2xi32>
    %45 = bufferization.to_memref %44 : memref<2xi32>
    %46 = bufferization.to_tensor %43 : memref<?xf32>
    %47 = bufferization.to_tensor %45 : memref<2xi32>
    %48 = arith.index_cast %47 : tensor<2xi32> to tensor<2xindex>
    %c0_7 = arith.constant 0 : index
    %49 = tensor.extract %48[%c0_7] : tensor<2xindex>
    %c1_8 = arith.constant 1 : index
    %50 = tensor.extract %48[%c1_8] : tensor<2xindex>
    %51 = memref.alloc(%49, %50) : memref<?x?xf32>
    "lmhlo.dynamic_reshape"(%43, %45, %51) {disc.device = "gpu"} : (memref<?xf32>, memref<2xi32>, memref<?x?xf32>) -> ()
    %52 = bufferization.to_tensor %51 : memref<?x?xf32>
    %53 = bufferization.to_memref %52 : memref<?x?xf32>
    %c1_9 = arith.constant 1 : index
    %54 = arith.muli %c1_9, %4 : index
    %55 = arith.muli %54, %3 : index
    %56 = memref.reinterpret_cast %53 to offset: [0], sizes: [%3, %4], strides: [%54, 1] {kDiscSymbolicDimAttr = [@S0, @S1]} : memref<?x?xf32> to memref<?x?xf32>
    %57 = bufferization.to_tensor %56 : memref<?x?xf32>
    %58 = bufferization.to_memref %57 : memref<?x?xf32>
    %59 = tensor.from_elements %3, %4, %5 {disc.shape_op = true} : tensor<3xindex>
    %60 = bufferization.to_memref %59 : memref<3xindex>
    %61 = bufferization.to_tensor %58 : memref<?x?xf32>
    %62 = bufferization.to_tensor %60 : memref<3xindex>
    %c0_10 = arith.constant 0 : index
    %63 = tensor.extract %62[%c0_10] : tensor<3xindex>
    %c1_11 = arith.constant 1 : index
    %64 = tensor.extract %62[%c1_11] : tensor<3xindex>
    %c2_12 = arith.constant 2 : index
    %65 = tensor.extract %62[%c2_12] : tensor<3xindex>
    %66 = memref.alloc(%63, %64, %65) : memref<?x?x?xf32>
    "lmhlo.dynamic_broadcast_in_dim"(%58, %60, %66) {broadcast_dimensions = dense<[0, 1]> : tensor<2xi64>, disc.device = "gpu"} : (memref<?x?xf32>, memref<3xindex>, memref<?x?x?xf32>) -> ()
    %67 = bufferization.to_tensor %66 : memref<?x?x?xf32>
    %68 = bufferization.to_memref %67 : memref<?x?x?xf32>
    %c1_13 = arith.constant 1 : index
    %69 = arith.muli %c1_13, %5 : index
    %70 = arith.muli %69, %4 : index
    %71 = arith.muli %70, %3 : index
    %72 = memref.reinterpret_cast %68 to offset: [0], sizes: [%3, %4, %5], strides: [%70, %69, 1] {kDiscSymbolicDimAttr = [@S0, @S1, @S2]} : memref<?x?x?xf32> to memref<?x?x?xf32>
    %73 = bufferization.to_tensor %72 : memref<?x?x?xf32>
    %74 = bufferization.to_memref %73 : memref<?x?x?xf32>
    %75 = bufferization.to_tensor %11 : memref<?x?x?xf32>
    %76 = bufferization.to_tensor %74 : memref<?x?x?xf32>
    %77 = shape.shape_of %75 : tensor<?x?x?xf32> -> tensor<3xindex>
    %c0_14 = arith.constant 0 : index
    %78 = tensor.extract %77[%c0_14] : tensor<3xindex>
    %c1_15 = arith.constant 1 : index
    %79 = tensor.extract %77[%c1_15] : tensor<3xindex>
    %c2_16 = arith.constant 2 : index
    %80 = tensor.extract %77[%c2_16] : tensor<3xindex>
    %81 = memref.alloc(%78, %79, %80) : memref<?x?x?xf32>
    "lmhlo.subtract"(%11, %74, %81) {disc.device = "gpu"} : (memref<?x?x?xf32>, memref<?x?x?xf32>, memref<?x?x?xf32>) -> ()
    %82 = bufferization.to_tensor %81 : memref<?x?x?xf32>
    %83 = bufferization.to_memref %82 : memref<?x?x?xf32>
    %c1_17 = arith.constant 1 : index
    %84 = arith.muli %c1_17, %5 : index
    %85 = arith.muli %84, %4 : index
    %86 = arith.muli %85, %3 : index
    %87 = memref.reinterpret_cast %83 to offset: [0], sizes: [%3, %4, %5], strides: [%85, %84, 1] {kDiscSymbolicDimAttr = [@S0, @S1, @S2]} : memref<?x?x?xf32> to memref<?x?x?xf32>
    %88 = bufferization.to_tensor %87 : memref<?x?x?xf32>
    %89 = bufferization.to_memref %88 : memref<?x?x?xf32>
    %90 = bufferization.to_tensor %89 : memref<?x?x?xf32>
    %91 = shape.shape_of %90 : tensor<?x?x?xf32> -> tensor<3xindex>
    %c0_18 = arith.constant 0 : index
    %92 = tensor.extract %91[%c0_18] : tensor<3xindex>
    %c1_19 = arith.constant 1 : index
    %93 = tensor.extract %91[%c1_19] : tensor<3xindex>
    %c2_20 = arith.constant 2 : index
    %94 = tensor.extract %91[%c2_20] : tensor<3xindex>
    %95 = memref.alloc(%92, %93, %94) : memref<?x?x?xf32>
    "lmhlo.exponential"(%89, %95) {disc.device = "gpu"} : (memref<?x?x?xf32>, memref<?x?x?xf32>) -> ()
    %96 = bufferization.to_tensor %95 : memref<?x?x?xf32>
    %97 = bufferization.to_memref %96 : memref<?x?x?xf32>
    %c1_21 = arith.constant 1 : index
    %98 = arith.muli %c1_21, %5 : index
    %99 = arith.muli %98, %4 : index
    %100 = arith.muli %99, %3 : index
    %101 = memref.reinterpret_cast %97 to offset: [0], sizes: [%3, %4, %5], strides: [%99, %98, 1] {kDiscSymbolicDimAttr = [@S0, @S1, @S2]} : memref<?x?x?xf32> to memref<?x?x?xf32>
    %102 = bufferization.to_tensor %101 : memref<?x?x?xf32>
    %103 = bufferization.to_memref %102 : memref<?x?x?xf32>
    %104 = bufferization.to_tensor %103 : memref<?x?x?xf32>
    %105 = bufferization.to_tensor %17 : memref<2xi32>
    %106 = arith.index_cast %105 : tensor<2xi32> to tensor<2xindex>
    %c0_22 = arith.constant 0 : index
    %107 = tensor.extract %106[%c0_22] : tensor<2xindex>
    %c1_23 = arith.constant 1 : index
    %108 = tensor.extract %106[%c1_23] : tensor<2xindex>
    %109 = memref.alloc(%107, %108) : memref<?x?xf32>
    "lmhlo.dynamic_reshape"(%103, %17, %109) {disc.device = "gpu"} : (memref<?x?x?xf32>, memref<2xi32>, memref<?x?xf32>) -> ()
    %110 = bufferization.to_tensor %109 : memref<?x?xf32>
    %111 = bufferization.to_memref %110 : memref<?x?xf32>
    %c1_24 = arith.constant 1 : index
    %112 = arith.muli %c1_24, %5 : index
    %113 = arith.muli %112, %18 : index
    %114 = memref.reinterpret_cast %111 to offset: [0], sizes: [%18, %5], strides: [%112, 1] {kDiscSymbolicDimAttr = [@S3, @S2]} : memref<?x?xf32> to memref<?x?xf32>
    %115 = bufferization.to_tensor %114 : memref<?x?xf32>
    %116 = bufferization.to_memref %115 : memref<?x?xf32>
    %117 = bufferization.to_tensor %116 : memref<?x?xf32>
    %118 = bufferization.to_tensor %1 : memref<f32>
    %c0_25 = arith.constant 0 : index
    %119 = tensor.dim %117, %c0_25 : tensor<?x?xf32>
    %120 = tensor.from_elements %119 : tensor<1xindex>
    %c0_26 = arith.constant 0 : index
    %121 = tensor.extract %120[%c0_26] : tensor<1xindex>
    %122 = memref.alloc(%121) : memref<?xf32>
    "lmhlo.reduce"(%116, %1, %122) ({
    ^bb0(%arg1: memref<f32>, %arg2: memref<f32>, %arg3: memref<f32>):
      %170 = memref.alloc() : memref<f32>
      "lmhlo.add"(%arg1, %arg2, %170) {disc.device = "gpu"} : (memref<f32>, memref<f32>, memref<f32>) -> ()
      "lmhlo.copy"(%170, %arg3) : (memref<f32>, memref<f32>) -> ()
      "lmhlo.terminator"() : () -> ()
    }) {dimensions = dense<1> : tensor<1xi64>, disc.device = "gpu"} : (memref<?x?xf32>, memref<f32>, memref<?xf32>) -> ()
    %123 = bufferization.to_tensor %122 : memref<?xf32>
    %124 = bufferization.to_memref %123 : memref<?xf32>
    %c1_27 = arith.constant 1 : index
    %125 = arith.muli %c1_27, %18 : index
    %126 = memref.reinterpret_cast %124 to offset: [0], sizes: [%18], strides: [1] {kDiscSymbolicDimAttr = [@S3]} : memref<?xf32> to memref<?xf32>
    %127 = bufferization.to_tensor %126 : memref<?xf32>
    %128 = bufferization.to_memref %127 : memref<?xf32>
    %129 = bufferization.to_tensor %128 : memref<?xf32>
    %130 = bufferization.to_tensor %45 : memref<2xi32>
    %131 = arith.index_cast %130 : tensor<2xi32> to tensor<2xindex>
    %c0_28 = arith.constant 0 : index
    %132 = tensor.extract %131[%c0_28] : tensor<2xindex>
    %c1_29 = arith.constant 1 : index
    %133 = tensor.extract %131[%c1_29] : tensor<2xindex>
    %134 = memref.alloc(%132, %133) : memref<?x?xf32>
    "lmhlo.dynamic_reshape"(%128, %45, %134) {disc.device = "gpu"} : (memref<?xf32>, memref<2xi32>, memref<?x?xf32>) -> ()
    %135 = bufferization.to_tensor %134 : memref<?x?xf32>
    %136 = bufferization.to_memref %135 : memref<?x?xf32>
    %c1_30 = arith.constant 1 : index
    %137 = arith.muli %c1_30, %4 : index
    %138 = arith.muli %137, %3 : index
    %139 = memref.reinterpret_cast %136 to offset: [0], sizes: [%3, %4], strides: [%137, 1] {kDiscSymbolicDimAttr = [@S0, @S1]} : memref<?x?xf32> to memref<?x?xf32>
    %140 = bufferization.to_tensor %139 : memref<?x?xf32>
    %141 = bufferization.to_memref %140 : memref<?x?xf32>
    %142 = bufferization.to_tensor %141 : memref<?x?xf32>
    %143 = bufferization.to_tensor %60 : memref<3xindex>
    %c0_31 = arith.constant 0 : index
    %144 = tensor.extract %143[%c0_31] : tensor<3xindex>
    %c1_32 = arith.constant 1 : index
    %145 = tensor.extract %143[%c1_32] : tensor<3xindex>
    %c2_33 = arith.constant 2 : index
    %146 = tensor.extract %143[%c2_33] : tensor<3xindex>
    %147 = memref.alloc(%144, %145, %146) : memref<?x?x?xf32>
    "lmhlo.dynamic_broadcast_in_dim"(%141, %60, %147) {broadcast_dimensions = dense<[0, 1]> : tensor<2xi64>, disc.device = "gpu"} : (memref<?x?xf32>, memref<3xindex>, memref<?x?x?xf32>) -> ()
    %148 = bufferization.to_tensor %147 : memref<?x?x?xf32>
    %149 = bufferization.to_memref %148 : memref<?x?x?xf32>
    %c1_34 = arith.constant 1 : index
    %150 = arith.muli %c1_34, %5 : index
    %151 = arith.muli %150, %4 : index
    %152 = arith.muli %151, %3 : index
    %153 = memref.reinterpret_cast %149 to offset: [0], sizes: [%3, %4, %5], strides: [%151, %150, 1] {kDiscSymbolicDimAttr = [@S0, @S1, @S2]} : memref<?x?x?xf32> to memref<?x?x?xf32>
    %154 = bufferization.to_tensor %153 : memref<?x?x?xf32>
    %155 = bufferization.to_memref %154 : memref<?x?x?xf32>
    %156 = bufferization.to_tensor %103 : memref<?x?x?xf32>
    %157 = bufferization.to_tensor %155 : memref<?x?x?xf32>
    %158 = shape.shape_of %156 : tensor<?x?x?xf32> -> tensor<3xindex>
    %c0_35 = arith.constant 0 : index
    %159 = tensor.extract %158[%c0_35] : tensor<3xindex>
    %c1_36 = arith.constant 1 : index
    %160 = tensor.extract %158[%c1_36] : tensor<3xindex>
    %c2_37 = arith.constant 2 : index
    %161 = tensor.extract %158[%c2_37] : tensor<3xindex>
    %162 = memref.alloc(%159, %160, %161) : memref<?x?x?xf32>
    "lmhlo.divide"(%103, %155, %162) {disc.device = "gpu"} : (memref<?x?x?xf32>, memref<?x?x?xf32>, memref<?x?x?xf32>) -> ()
    %163 = bufferization.to_tensor %162 : memref<?x?x?xf32>
    %164 = bufferization.to_memref %163 : memref<?x?x?xf32>
    %c1_38 = arith.constant 1 : index
    %165 = arith.muli %c1_38, %5 : index
    %166 = arith.muli %165, %4 : index
    %167 = arith.muli %166, %3 : index
    %168 = memref.reinterpret_cast %164 to offset: [0], sizes: [%3, %4, %5], strides: [%166, %165, 1] {kDiscSymbolicDimAttr = [@S0, @S1, @S2]} : memref<?x?x?xf32> to memref<?x?x?xf32>
    %169 = bufferization.to_tensor %168 : memref<?x?x?xf32>
    return %168 : memref<?x?x?xf32>
  }
  "disc_shape.SymbolicDim"() {knownNegativeOne = false, knownNonNegative = true, knownNonSizeOne = false, knownNonSizeZero = false, sym_name = "S0", value = -1 : i64} : () -> ()
  "disc_shape.SymbolicDim"() {knownNegativeOne = false, knownNonNegative = true, knownNonSizeOne = false, knownNonSizeZero = false, sym_name = "S1", value = -1 : i64} : () -> ()
  "disc_shape.SymbolicDim"() {knownNegativeOne = false, knownNonNegative = true, knownNonSizeOne = false, knownNonSizeZero = false, sym_name = "S2", value = -1 : i64} : () -> ()
  "disc_shape.SymbolicDim"() {knownNegativeOne = false, knownNonNegative = true, knownNonSizeOne = false, knownNonSizeZero = false, sym_name = "S3", value = -1 : i64} : () -> ()
  func.func @shape_constraint_graph() {
    %0 = "disc_shape.dim"() {name = @S3} : () -> index
    %1 = "disc_shape.dim"() {name = @S0} : () -> index
    %2 = "disc_shape.dim"() {name = @S1} : () -> index
    "disc_shape.tie_product_equal"(%0, %1, %2) {operand_segment_sizes = dense<[1, 2]> : vector<2xi32>} : (index, index, index) -> ()
    return
  }
}


// -----// IR Dump After Canonicalizer (canonicalize) //----- //
func.func @main(%arg0: memref<?x?x?xf32>) -> memref<?x?x?xf32> attributes {tf.entry_function = {input_placements = "gpu", inputs = "input0", output_placements = "gpu", outputs = "output0"}} {
  %c1 = arith.constant 1 : index
  %c0 = arith.constant 0 : index
  %c2 = arith.constant 2 : index
  %0 = memref.alloc() : memref<f32>
  "lmhlo.constant"(%0) {disc.device = "gpu", value = dense<-0.000000e+00> : tensor<f32>} : (memref<f32>) -> ()
  %1 = memref.alloc() : memref<f32>
  "lmhlo.constant"(%1) {disc.device = "gpu", value = dense<0xFF800000> : tensor<f32>} : (memref<f32>) -> ()
  %2 = memref.dim %arg0, %c0 : memref<?x?x?xf32>
  %3 = memref.dim %arg0, %c1 : memref<?x?x?xf32>
  %4 = memref.dim %arg0, %c2 : memref<?x?x?xf32>
  %5 = arith.muli %4, %3 : index
  %6 = memref.reinterpret_cast %arg0 to offset: [0], sizes: [%2, %3, %4], strides: [%5, %4, 1] {kDiscSymbolicDimAttr = [@S0, @S1, @S2]} : memref<?x?x?xf32> to memref<?x?x?xf32>
  %7 = arith.index_cast %4 : index to i32
  %8 = arith.index_cast %2 : index to i32
  %9 = arith.index_cast %3 : index to i32
  %10 = arith.muli %8, %9 : i32
  %11 = tensor.from_elements %10, %7 {disc.shape_op = true} : tensor<2xi32>
  %12 = bufferization.to_memref %11 : memref<2xi32>
  %13 = arith.index_cast %10 : i32 to index
  %14 = bufferization.to_tensor %12 : memref<2xi32>
  %15 = tensor.extract %14[%c0] : tensor<2xi32>
  %16 = arith.index_cast %15 : i32 to index
  %17 = tensor.extract %14[%c1] : tensor<2xi32>
  %18 = arith.index_cast %17 : i32 to index
  %19 = memref.alloc(%16, %18) : memref<?x?xf32>
  "lmhlo.dynamic_reshape"(%6, %12, %19) {disc.device = "gpu"} : (memref<?x?x?xf32>, memref<2xi32>, memref<?x?xf32>) -> ()
  %20 = memref.reinterpret_cast %19 to offset: [0], sizes: [%13, %4], strides: [%4, 1] {kDiscSymbolicDimAttr = [@S3, @S2]} : memref<?x?xf32> to memref<?x?xf32>
  %21 = memref.alloc(%13) : memref<?xf32>
  "lmhlo.reduce"(%20, %1, %21) ({
  ^bb0(%arg1: memref<f32>, %arg2: memref<f32>, %arg3: memref<f32>):
    "lmhlo.maximum"(%arg1, %arg2, %arg3) {disc.device = "gpu"} : (memref<f32>, memref<f32>, memref<f32>) -> ()
    "lmhlo.terminator"() : () -> ()
  }) {dimensions = dense<1> : tensor<1xi64>, disc.device = "gpu"} : (memref<?x?xf32>, memref<f32>, memref<?xf32>) -> ()
  %22 = memref.reinterpret_cast %21 to offset: [0], sizes: [%13], strides: [1] {kDiscSymbolicDimAttr = [@S3]} : memref<?xf32> to memref<?xf32>
  %23 = tensor.from_elements %8, %9 {disc.shape_op = true} : tensor<2xi32>
  %24 = bufferization.to_memref %23 : memref<2xi32>
  %25 = memref.alloc(%2, %3) : memref<?x?xf32>
  "lmhlo.dynamic_reshape"(%22, %24, %25) {disc.device = "gpu"} : (memref<?xf32>, memref<2xi32>, memref<?x?xf32>) -> ()
  %26 = memref.reinterpret_cast %25 to offset: [0], sizes: [%2, %3], strides: [%3, 1] {kDiscSymbolicDimAttr = [@S0, @S1]} : memref<?x?xf32> to memref<?x?xf32>
  %27 = tensor.from_elements %2, %3, %4 {disc.shape_op = true} : tensor<3xindex>
  %28 = bufferization.to_memref %27 : memref<3xindex>
  %29 = memref.alloc(%2, %3, %4) : memref<?x?x?xf32>
  "lmhlo.dynamic_broadcast_in_dim"(%26, %28, %29) {broadcast_dimensions = dense<[0, 1]> : tensor<2xi64>, disc.device = "gpu"} : (memref<?x?xf32>, memref<3xindex>, memref<?x?x?xf32>) -> ()
  %30 = arith.muli %4, %3 : index
  %31 = memref.reinterpret_cast %29 to offset: [0], sizes: [%2, %3, %4], strides: [%30, %4, 1] {kDiscSymbolicDimAttr = [@S0, @S1, @S2]} : memref<?x?x?xf32> to memref<?x?x?xf32>
  %32 = memref.alloc(%2, %3, %4) : memref<?x?x?xf32>
  "lmhlo.subtract"(%6, %31, %32) {disc.device = "gpu"} : (memref<?x?x?xf32>, memref<?x?x?xf32>, memref<?x?x?xf32>) -> ()
  %33 = arith.muli %4, %3 : index
  %34 = memref.reinterpret_cast %32 to offset: [0], sizes: [%2, %3, %4], strides: [%33, %4, 1] {kDiscSymbolicDimAttr = [@S0, @S1, @S2]} : memref<?x?x?xf32> to memref<?x?x?xf32>
  %35 = memref.alloc(%2, %3, %4) : memref<?x?x?xf32>
  "lmhlo.exponential"(%34, %35) {disc.device = "gpu"} : (memref<?x?x?xf32>, memref<?x?x?xf32>) -> ()
  %36 = arith.muli %4, %3 : index
  %37 = memref.reinterpret_cast %35 to offset: [0], sizes: [%2, %3, %4], strides: [%36, %4, 1] {kDiscSymbolicDimAttr = [@S0, @S1, @S2]} : memref<?x?x?xf32> to memref<?x?x?xf32>
  %38 = bufferization.to_tensor %12 : memref<2xi32>
  %39 = tensor.extract %38[%c0] : tensor<2xi32>
  %40 = arith.index_cast %39 : i32 to index
  %41 = tensor.extract %38[%c1] : tensor<2xi32>
  %42 = arith.index_cast %41 : i32 to index
  %43 = memref.alloc(%40, %42) : memref<?x?xf32>
  "lmhlo.dynamic_reshape"(%37, %12, %43) {disc.device = "gpu"} : (memref<?x?x?xf32>, memref<2xi32>, memref<?x?xf32>) -> ()
  %44 = memref.reinterpret_cast %43 to offset: [0], sizes: [%13, %4], strides: [%4, 1] {kDiscSymbolicDimAttr = [@S3, @S2]} : memref<?x?xf32> to memref<?x?xf32>
  %45 = memref.alloc(%13) : memref<?xf32>
  "lmhlo.reduce"(%44, %0, %45) ({
  ^bb0(%arg1: memref<f32>, %arg2: memref<f32>, %arg3: memref<f32>):
    "lmhlo.add"(%arg1, %arg2, %arg3) {disc.device = "gpu"} : (memref<f32>, memref<f32>, memref<f32>) -> ()
    "lmhlo.terminator"() : () -> ()
  }) {dimensions = dense<1> : tensor<1xi64>, disc.device = "gpu"} : (memref<?x?xf32>, memref<f32>, memref<?xf32>) -> ()
  %46 = memref.reinterpret_cast %45 to offset: [0], sizes: [%13], strides: [1] {kDiscSymbolicDimAttr = [@S3]} : memref<?xf32> to memref<?xf32>
  %47 = bufferization.to_tensor %24 : memref<2xi32>
  %48 = tensor.extract %47[%c0] : tensor<2xi32>
  %49 = arith.index_cast %48 : i32 to index
  %50 = tensor.extract %47[%c1] : tensor<2xi32>
  %51 = arith.index_cast %50 : i32 to index
  %52 = memref.alloc(%49, %51) : memref<?x?xf32>
  "lmhlo.dynamic_reshape"(%46, %24, %52) {disc.device = "gpu"} : (memref<?xf32>, memref<2xi32>, memref<?x?xf32>) -> ()
  %53 = memref.reinterpret_cast %52 to offset: [0], sizes: [%2, %3], strides: [%3, 1] {kDiscSymbolicDimAttr = [@S0, @S1]} : memref<?x?xf32> to memref<?x?xf32>
  %54 = bufferization.to_tensor %28 : memref<3xindex>
  %55 = tensor.extract %54[%c0] : tensor<3xindex>
  %56 = tensor.extract %54[%c1] : tensor<3xindex>
  %57 = tensor.extract %54[%c2] : tensor<3xindex>
  %58 = memref.alloc(%55, %56, %57) : memref<?x?x?xf32>
  "lmhlo.dynamic_broadcast_in_dim"(%53, %28, %58) {broadcast_dimensions = dense<[0, 1]> : tensor<2xi64>, disc.device = "gpu"} : (memref<?x?xf32>, memref<3xindex>, memref<?x?x?xf32>) -> ()
  %59 = arith.muli %4, %3 : index
  %60 = memref.reinterpret_cast %58 to offset: [0], sizes: [%2, %3, %4], strides: [%59, %4, 1] {kDiscSymbolicDimAttr = [@S0, @S1, @S2]} : memref<?x?x?xf32> to memref<?x?x?xf32>
  %61 = memref.alloc(%2, %3, %4) : memref<?x?x?xf32>
  "lmhlo.divide"(%37, %60, %61) {disc.device = "gpu"} : (memref<?x?x?xf32>, memref<?x?x?xf32>, memref<?x?x?xf32>) -> ()
  %62 = arith.muli %4, %3 : index
  %63 = memref.reinterpret_cast %61 to offset: [0], sizes: [%2, %3, %4], strides: [%62, %4, 1] {kDiscSymbolicDimAttr = [@S0, @S1, @S2]} : memref<?x?x?xf32> to memref<?x?x?xf32>
  return %63 : memref<?x?x?xf32>
}

// -----// IR Dump After CSE (cse) //----- //
func.func @main(%arg0: memref<?x?x?xf32>) -> memref<?x?x?xf32> attributes {tf.entry_function = {input_placements = "gpu", inputs = "input0", output_placements = "gpu", outputs = "output0"}} {
  %c1 = arith.constant 1 : index
  %c0 = arith.constant 0 : index
  %c2 = arith.constant 2 : index
  %0 = memref.alloc() : memref<f32>
  "lmhlo.constant"(%0) {disc.device = "gpu", value = dense<-0.000000e+00> : tensor<f32>} : (memref<f32>) -> ()
  %1 = memref.alloc() : memref<f32>
  "lmhlo.constant"(%1) {disc.device = "gpu", value = dense<0xFF800000> : tensor<f32>} : (memref<f32>) -> ()
  %2 = memref.dim %arg0, %c0 : memref<?x?x?xf32>
  %3 = memref.dim %arg0, %c1 : memref<?x?x?xf32>
  %4 = memref.dim %arg0, %c2 : memref<?x?x?xf32>
  %5 = arith.muli %4, %3 : index
  %6 = memref.reinterpret_cast %arg0 to offset: [0], sizes: [%2, %3, %4], strides: [%5, %4, 1] {kDiscSymbolicDimAttr = [@S0, @S1, @S2]} : memref<?x?x?xf32> to memref<?x?x?xf32>
  %7 = arith.index_cast %4 : index to i32
  %8 = arith.index_cast %2 : index to i32
  %9 = arith.index_cast %3 : index to i32
  %10 = arith.muli %8, %9 : i32
  %11 = tensor.from_elements %10, %7 {disc.shape_op = true} : tensor<2xi32>
  %12 = bufferization.to_memref %11 : memref<2xi32>
  %13 = arith.index_cast %10 : i32 to index
  %14 = bufferization.to_tensor %12 : memref<2xi32>
  %15 = tensor.extract %14[%c0] : tensor<2xi32>
  %16 = arith.index_cast %15 : i32 to index
  %17 = tensor.extract %14[%c1] : tensor<2xi32>
  %18 = arith.index_cast %17 : i32 to index
  %19 = memref.alloc(%16, %18) : memref<?x?xf32>
  "lmhlo.dynamic_reshape"(%6, %12, %19) {disc.device = "gpu"} : (memref<?x?x?xf32>, memref<2xi32>, memref<?x?xf32>) -> ()
  %20 = memref.reinterpret_cast %19 to offset: [0], sizes: [%13, %4], strides: [%4, 1] {kDiscSymbolicDimAttr = [@S3, @S2]} : memref<?x?xf32> to memref<?x?xf32>
  %21 = memref.alloc(%13) : memref<?xf32>
  "lmhlo.reduce"(%20, %1, %21) ({
  ^bb0(%arg1: memref<f32>, %arg2: memref<f32>, %arg3: memref<f32>):
    "lmhlo.maximum"(%arg1, %arg2, %arg3) {disc.device = "gpu"} : (memref<f32>, memref<f32>, memref<f32>) -> ()
    "lmhlo.terminator"() : () -> ()
  }) {dimensions = dense<1> : tensor<1xi64>, disc.device = "gpu"} : (memref<?x?xf32>, memref<f32>, memref<?xf32>) -> ()
  %22 = memref.reinterpret_cast %21 to offset: [0], sizes: [%13], strides: [1] {kDiscSymbolicDimAttr = [@S3]} : memref<?xf32> to memref<?xf32>
  %23 = tensor.from_elements %8, %9 {disc.shape_op = true} : tensor<2xi32>
  %24 = bufferization.to_memref %23 : memref<2xi32>
  %25 = memref.alloc(%2, %3) : memref<?x?xf32>
  "lmhlo.dynamic_reshape"(%22, %24, %25) {disc.device = "gpu"} : (memref<?xf32>, memref<2xi32>, memref<?x?xf32>) -> ()
  %26 = memref.reinterpret_cast %25 to offset: [0], sizes: [%2, %3], strides: [%3, 1] {kDiscSymbolicDimAttr = [@S0, @S1]} : memref<?x?xf32> to memref<?x?xf32>
  %27 = tensor.from_elements %2, %3, %4 {disc.shape_op = true} : tensor<3xindex>
  %28 = bufferization.to_memref %27 : memref<3xindex>
  %29 = memref.alloc(%2, %3, %4) : memref<?x?x?xf32>
  "lmhlo.dynamic_broadcast_in_dim"(%26, %28, %29) {broadcast_dimensions = dense<[0, 1]> : tensor<2xi64>, disc.device = "gpu"} : (memref<?x?xf32>, memref<3xindex>, memref<?x?x?xf32>) -> ()
  %30 = memref.reinterpret_cast %29 to offset: [0], sizes: [%2, %3, %4], strides: [%5, %4, 1] {kDiscSymbolicDimAttr = [@S0, @S1, @S2]} : memref<?x?x?xf32> to memref<?x?x?xf32>
  %31 = memref.alloc(%2, %3, %4) : memref<?x?x?xf32>
  "lmhlo.subtract"(%6, %30, %31) {disc.device = "gpu"} : (memref<?x?x?xf32>, memref<?x?x?xf32>, memref<?x?x?xf32>) -> ()
  %32 = memref.reinterpret_cast %31 to offset: [0], sizes: [%2, %3, %4], strides: [%5, %4, 1] {kDiscSymbolicDimAttr = [@S0, @S1, @S2]} : memref<?x?x?xf32> to memref<?x?x?xf32>
  %33 = memref.alloc(%2, %3, %4) : memref<?x?x?xf32>
  "lmhlo.exponential"(%32, %33) {disc.device = "gpu"} : (memref<?x?x?xf32>, memref<?x?x?xf32>) -> ()
  %34 = memref.reinterpret_cast %33 to offset: [0], sizes: [%2, %3, %4], strides: [%5, %4, 1] {kDiscSymbolicDimAttr = [@S0, @S1, @S2]} : memref<?x?x?xf32> to memref<?x?x?xf32>
  %35 = bufferization.to_tensor %12 : memref<2xi32>
  %36 = tensor.extract %35[%c0] : tensor<2xi32>
  %37 = arith.index_cast %36 : i32 to index
  %38 = tensor.extract %35[%c1] : tensor<2xi32>
  %39 = arith.index_cast %38 : i32 to index
  %40 = memref.alloc(%37, %39) : memref<?x?xf32>
  "lmhlo.dynamic_reshape"(%34, %12, %40) {disc.device = "gpu"} : (memref<?x?x?xf32>, memref<2xi32>, memref<?x?xf32>) -> ()
  %41 = memref.reinterpret_cast %40 to offset: [0], sizes: [%13, %4], strides: [%4, 1] {kDiscSymbolicDimAttr = [@S3, @S2]} : memref<?x?xf32> to memref<?x?xf32>
  %42 = memref.alloc(%13) : memref<?xf32>
  "lmhlo.reduce"(%41, %0, %42) ({
  ^bb0(%arg1: memref<f32>, %arg2: memref<f32>, %arg3: memref<f32>):
    "lmhlo.add"(%arg1, %arg2, %arg3) {disc.device = "gpu"} : (memref<f32>, memref<f32>, memref<f32>) -> ()
    "lmhlo.terminator"() : () -> ()
  }) {dimensions = dense<1> : tensor<1xi64>, disc.device = "gpu"} : (memref<?x?xf32>, memref<f32>, memref<?xf32>) -> ()
  %43 = memref.reinterpret_cast %42 to offset: [0], sizes: [%13], strides: [1] {kDiscSymbolicDimAttr = [@S3]} : memref<?xf32> to memref<?xf32>
  %44 = bufferization.to_tensor %24 : memref<2xi32>
  %45 = tensor.extract %44[%c0] : tensor<2xi32>
  %46 = arith.index_cast %45 : i32 to index
  %47 = tensor.extract %44[%c1] : tensor<2xi32>
  %48 = arith.index_cast %47 : i32 to index
  %49 = memref.alloc(%46, %48) : memref<?x?xf32>
  "lmhlo.dynamic_reshape"(%43, %24, %49) {disc.device = "gpu"} : (memref<?xf32>, memref<2xi32>, memref<?x?xf32>) -> ()
  %50 = memref.reinterpret_cast %49 to offset: [0], sizes: [%2, %3], strides: [%3, 1] {kDiscSymbolicDimAttr = [@S0, @S1]} : memref<?x?xf32> to memref<?x?xf32>
  %51 = bufferization.to_tensor %28 : memref<3xindex>
  %52 = tensor.extract %51[%c0] : tensor<3xindex>
  %53 = tensor.extract %51[%c1] : tensor<3xindex>
  %54 = tensor.extract %51[%c2] : tensor<3xindex>
  %55 = memref.alloc(%52, %53, %54) : memref<?x?x?xf32>
  "lmhlo.dynamic_broadcast_in_dim"(%50, %28, %55) {broadcast_dimensions = dense<[0, 1]> : tensor<2xi64>, disc.device = "gpu"} : (memref<?x?xf32>, memref<3xindex>, memref<?x?x?xf32>) -> ()
  %56 = memref.reinterpret_cast %55 to offset: [0], sizes: [%2, %3, %4], strides: [%5, %4, 1] {kDiscSymbolicDimAttr = [@S0, @S1, @S2]} : memref<?x?x?xf32> to memref<?x?x?xf32>
  %57 = memref.alloc(%2, %3, %4) : memref<?x?x?xf32>
  "lmhlo.divide"(%34, %56, %57) {disc.device = "gpu"} : (memref<?x?x?xf32>, memref<?x?x?xf32>, memref<?x?x?xf32>) -> ()
  %58 = memref.reinterpret_cast %57 to offset: [0], sizes: [%2, %3, %4], strides: [%5, %4, 1] {kDiscSymbolicDimAttr = [@S0, @S1, @S2]} : memref<?x?x?xf32> to memref<?x?x?xf32>
  return %58 : memref<?x?x?xf32>
}

// -----// IR Dump After LegalizeToTensorOpPass (lhlo-legalize-to-tensor-op) //----- //
func.func @main(%arg0: memref<?x?x?xf32>) -> memref<?x?x?xf32> attributes {tf.entry_function = {input_placements = "gpu", inputs = "input0", output_placements = "gpu", outputs = "output0"}} {
  %c1 = arith.constant 1 : index
  %c0 = arith.constant 0 : index
  %c2 = arith.constant 2 : index
  %0 = memref.alloc() : memref<f32>
  "lmhlo.constant"(%0) {disc.device = "gpu", value = dense<-0.000000e+00> : tensor<f32>} : (memref<f32>) -> ()
  %1 = memref.alloc() : memref<f32>
…
P\00!\09\090\00\00\AB\0C\1F\E4\D0\09\01\18\0EP\08\00@\00%\0C\0C\10\04\01\80\01(\09\0C\80\011\B2\0C\0C`\00\00\80\01\1E\C4\90\03\00\F0\03\00_\03Ap\16p\00p\03V\89\00\00\A0\01 \000\02x\0B\CF\02\070\0A\0Fp\03\03\15\0B\C0\07\07`\03\0C\A0\02%\A2\0E`\03\030\00\19\00\80\03\0C\A0\02%\E2\0Ep\03\060\00\07p\03\0F\A0\02\03\06\90\00\10\CC \00(\0A\0A\F0\02\06\00\02\06\B0\02\05\D0\01\09\F0\01\BF\F4\03\00\D2\8F\00\08\82\05\05\0C\E0\01\02\1F\F0\E0\01\03\17\A2\E0\01\020\00*\0A\0A\D0\02(\06\090\00\14\82\F0\01\05\10\02)\09\0A\10\02!\0A\0A0\00\00\10\02\10\CA\00\0C\11\0C\00\0C\13\0A0\0D\14A\B0\0C\04\D0\010z\00\03\A0\01Dpb\F4\030\0D#\B0\04 \00\10\E2\F0\0C0\05\02\1F@\05\00\F0\0C\96\D6\0F\00G)\00\00\80\04@\001$r\07`\00'\03\00\A0\05\16\02@\00\09\B0\0C\10\C6p\0D%\04\07p\0D\13\C8\C0\05\10\03\C0\05\12\F6\C0\05V\B9\00\00 \02`\00\10\02\D0\0D\13ZP\02\0F\E0\02\02F\04\04\00\FD\B0\0C;$t\06\F0\05\16\08P\0A%\C8\1F \023\06\02\8E\10\02*\0D\08\F0\05%\0B\07\90\02\01\F0\05(\0F\07\F0\05\04\00\0D\010\02a\E4\0F\04$z\0F\10\00\12\0F\10\00\05\10\0B\13\06\B0\05E%v\0E\0F\10\00\1B\E4`\02 \E2\0E\00\066\07\00\03`\00E\81y\0F\0E \00\16$\C0\00\1F\11\C0\00\01\09P\05\05\D0\03$\0C\0D\B0\07\01\D0\03\05P\05\12\06\80\00+\0C\08P\05\03p\02\14\F8P\05\12\0DP\02\11\FA`\01\06`\05\01\F0\02U\01\10x\07\07\B0\06q\CE\0F\00\08\C2\0A\0Ap\00Q\00\80\06\00\C80\00$\0A\0F@\00\00\90\02D\B2\0F\0F\0A \00\020\08!\07\040\08*\FA\03\90\04\14\F8\C0\00$\0F\0C\F0\02\00\C0\00\22\C2\0C@\0B\040\08_\D9\00\00\10\FE0\08\07\09`\02\03\90\02\140\A0\04\13\E6p\02\1A\01p\02(\00\010\08\1F\0A@\02\12\1F\0A@\02\02\1A\0E@\02\1B\CA0\02\16\C8 \02\1D\0A\C0\01\1B\F0\C0\01\1B\F6\10\07/\80\05\10\07\01\0E\10\03\16\07\B0\02\09`\01\05 \02)\0D\0C \02\12\0Cp\00\00 \02\0F\F0\05\01!z\00P\01\08\F0\05(\80\00\F0\05\1B\09\F0\05\1B\060\01\11\06\C0\05\15\090\01\16\09\B0\05+\A4\0E \05\02\00\01\19\09\00\014\09\09\0C\00\01\07\D0\04\1F\09\D0\04\04\F1\00\89\7F\07\0C\00\1F \0C\00\00\0E\00\00b\0E\D0\04&`\03\90\04\06p\0B\00p\00\11/p\00\19\07p\00(\07\07p\00r\89\7F\04\07\00\1F@P\00\11d\B0\00*\04\04@\00)\07\04@\009\04\04\07@\00X\09\04\00\1F\80@\00*\09\09@\00\1C\04\F0\00\17\04\F0\01@\19x\04\FF \06@\02\16\01\00 \04\87\89\7F\06\09\00\1F\00\0DP\00*\06\06P\00)\09\06P\007\06\06\09P\00@\0Cr\00\05@\01!pR\D0\03\0DP\12\81\89\7F\0B\06\00\1F\00\0E`\00ft\0E\00$\B4\07\10\03\00\80\0A\10\B6\EF\02\12\80\E0\01\00 \03\12t\00\06#\FF\00\D0\02\14\B2p\0C\12\F8\90\00G\B2\00\06\0BP\043\1C\B8\00p\00Ap\02\00\E4\90\03\10\050\01 p@0\00`\0F\04\19x\05\05\FF\05\10\FF\C5\00\01\C0\094\0B\0B\06@\04\12\E2\E0\05\17\07p\001\0Cx\00\A0\061p@\FA`\06#\88\B3\B0\0C\00\A5\0Cf\E8\0F\00\1D{\00\01\00\89\EC\0F\00GY\00\00@\B0\08\00\9E\04$\80\FF\C0\021\82x\06\F0\13\01\01\00\93\CA\0F\00\84\C9\0A\05\00\04P\00\81\A2\02\00Gy\00\06\C2Q\0E\22\80\0Bp\02C\09\0A\00\07p\02/\A4N\D0\02\01\02\90\07%\C0\FC\E0\01\02\10\05\11\00\10\03c\89\7F\08\09\00\07`\02'\A4\0E\E0\0D\05@\00)\09\08@\00!\08\08P\00\05@\00C\0C\08\00\07`\02a\E2\04\00$r\0B\90\011\08\00\8EP\06$\0B\B2\00\04\11\FC\E0\05\09\F0\01\0A\90\01\01\10\00\00\C0\01\14\0Cp\00\10\DAp\00\04\B0\0D\02p\00c\88\B3\00\FF\0C\00\10\01-\E4\07\80\03\22Hyh\19\01\10\00\1E\E4\80\01T\84y\08\FF\00@\00\22\A2Np\08\07\A0\03!\02x\DE\00\14\80\90\01\00 \15&\80\03`\00B$t\09\FF\B1\01\03\80\02&r\0A\E0\14\10\C6@\00\1B\13\90\04\02\80\05\15\0A\90\04\11\0C\80\05\02\00\14[\8F\04\10x\0E\A0\14\19\10\A0\14J\81y\0D\0C`\0A&\0E\0E@\00\00p\05\16\12\90\14\01\10\0E%\10\10 \00<\E4\0F\08\D0\07G%v\12\12 \00\00\B0\14\15\10 \00\10h\10\00%\13\12\10\00\B4\A2N\00$t\16\FF\9D\98\BB;\F0\02\01\D0\0A\04\80\07\01\10\03a\15\FF\00\00|C \00\11\C6\E0\03!\0A\03`\07\02\D0\03c!r\14\08\0D\00\E4\06`\C8\8F\00#t\0B\9F\112?\16  \01T!r\0D\08\0F \00\D2\C6\0F\01#t\0B\0B\01\00@K\15@ \00E#t\0C\0D0\00\D4\C6\0F\00!t\0F\0B\7F\00@\CB\00\00@\004\11\08\11@\00u\E2\0F\02#t\0C\0C@\00\D4\E4\0F\08#x\0F\14;\AA\B8?\0F\08P\00'\10\11\80\00e\08!r\13\08\13@\00hO\00!t\0E\0C`\00\00@\00e`p\A52\0F\00@\00\17\10\A0\00W\08#t\14\13P\00P\00#x\0E\0Dp\00\12\0Ep\000\04$x\FF\02\15\800\04I!t\12\10`\007t\14\14P\00P\00#x\0D\0Dp\00\13\0E \00T\08s\0F\00\0F\B0\02p\22\0E\00#x\12\11`\00#\12\08\00\018t\0E\14P\00E$x\10\10p\00!\C4\0F0\00\00P\00$\12\00`\00%\0E\13\A0\00`\E4\0F\04\08s\0D\CD\05\02`\00\10\A4`\00(\13\13\80\00T\19x\0E\0B\17\10\05\10\CA\90\004\11\00\120\00\81\E2\0E\00#r\0F\0E\0F\10\07\00\10\00e\1F\00\19x\09\140\00\10\CC0\008\16\00\13\C0\00Cr\0D\0C\0D\1F\03q\00\C8O\00#r\10\91\01#\0D\00 \020r\09\09`\13\13\10P\00\01\E0\0D\18\FCp\09\0Ap\07\00\C0\03&\90\07\C0\03\00 \0C&p\07 \00\04\90\04\08 \0C&\10\040\00\0E \0C+\0A\0B \0C\12\0A \0C\02\90\04XG\E9\00\00\C0\10\041v\0A\FF0\00\03\E0\01\09\10\09\13\C80\03\07 \0C;\02x\12 \04\16\0C\A0\09k\E2\9F\00\10x\0F\10\04\16\11\10\04p\E2\0F\04%v\0C\0C\C0\03$\12\02\90\03\19\13\00\04\0B\10\0C\1C\04@\04\09\C0\11\16\E4 \0C\22\12\02`\07E%v\10\11\10\00\0F@\04\001$z\13@\00\0F@\04\02\10d@\00%\12\13@\00\1F\CCP\04\11\11\0B\B1\0F\03\E0\00L\00$t\17P\04!\0B\0AP\04/\FC\03P\04\03\16\0CP\044\C8\0F\00\00\04$\17@ \04\19\15`\04:!t\0F\E0\03:t\0D\15\10\04\0AP\04E\19x\0C\0C\D0\02\01@\03\09P\04W\04#t\0D\0Dp\00U\08#t\0E\11P\00\03\80\04\08@\04\0Ep\04'\10\0D\90\00X\04#t\0E\0EP\00H$x\0D\0D@\04\0Ep\04 \10\15\90\00\01~\1Ex\E2\0F\04!t\12\0E\E0\00\0D@\04\03p\04&\17@@\00\00\A0\00\02p\03\1A\0F`\04\10\C4`\04\18\16`\04F\04\19x\14\E0\03\1E\E2`\04T\08s\10\00\10p\00\10\A2P\04\11\16p\04#\16\08\A0\01!x\16`\04\22\16\00\D0\05;\08s\12P\04(\0C\0CP\04\10$\90\1A\04\00\01\03P\04\19\16P\04\11\0Cp\13\15\0CP\045\09\09\12\10\00\01P\04'\14\16P\00\00\C0\03/p\FC\C0\0D\09\07\00\04\040\04\19\02\C0\0D\010\12\08\10\04'\E0\01@\00\08\C0\03\01\D0\02\1B\0E\D0\0D\07\F0\03/\E4\9F\C0\0F\00\02\E0\03\1B\0E\C0\0F\15\0Ep\03\07\10\08*\E8\0E\B0\0F\10\22p\00\19\13`\03 \02x\1F\03!|C\05\02\1B\E4\A0\04\13\C4\80\03\06`\04G\00!r\0A`\03\10\CF\F0\06\00\7F\034?\13 \C0\02\1B\12\B0\07\02\10\07\14\14P\025t\13\120\00\01\B0\07*\11\10\E0\02(\13\130\00\09\B0\06\10\E4 \02 \11\0A0\02\22\11\08 \00E!t\0D\13@\00\12\C6 \00\00@\02\22\11\00 \00@#x\0D\120\00$\0D\08P\00%\0A\13P\00\12\C6 \00\000\00\13\0D0\00\00\C0\06\14\11@\0290\0E\00\00\07\00\B0\02Dr\09\10\110\02 \C8\1F\10\00$\0A\0D\10\00/\C6O\A0\0E\01\1C\0B\A0\0E\17\F0 \00?\02x\0D\90\14\02\15\0B\10\0A\02\00\14\15\0D0\05\0A\E0\1B6$t\0D\D0\01\00@\02&t\0F \05\01\90\015\08\08\0B\B0\01PO\01#t\0C\CA\005?\0D  \05\01\10\05\22\0F@\80\03J!t\0D\0C\D0\03\07\E0\04\020\01\15\08P\01\12\C8\10\00\05@\01*\CC\0F0\01\11$0\01\15\0C \01-\CC\1F\A0\07\01`\0C\04\10\0F\03p\0B&\80\01\80\07%!rP\0C@\00\00\CAO\00\0E6\08\00\1F\90\0C2!r\0B\E0\00\05 \00%\0A\0B\D0\0E\01 \00\11\0A \06\06 \00%\0D\0A\A0\0E\01 \00\13\0C \12\00 \00\10\CF \00\15\0C`\0E\00 \00\12\B2\90\08\04@\00c\88\B3\00\04\0D(\89#\0F\C0\0D\04\17\B0\E0\006$t\04\10\0C\0F\C0\0D\02C\04\05\00(0\01!\E2\04\C0\0D(2\09\C0\0D%\05\04\C0\0D\93d\EE\00!r\05\05\04\00\01\00 \CA/p\0F\15\05\A0\0D\11d\F0\008\05\06\00 \00%\07\0A\80\0D\8A\A4\02\00!\B2\07\07\0A\D0\003\FF\07$\80\00/\E4\050\0D 4\05\FF\00@\00!b.\C0\01&0\05\10\05!\84y\00\01\05\C0\05\000\0D(\00\05 \01\08\10\15Q\1F\00$z\0D\00\03\15\02\00\03 \0E\0D\00\03\15\06\90\17%\07\0D@\05 \E4O0 \15\0D\A0\04\0C\A0\14\01\A0\17'\10\07@\00\00\D0\04\18\0D\10\09E%v\12\09 \00\01\D0\08*\11\10\10\0D'\14\0B \00\0A\B0\08\01\10\0D%\15\14\10\00p\E2\8E\00\02x\16\00\90\03\05\D0\03\08\B0\08\00\80\10\10x\FE\00\D0\80\00\00\E2\F2\03\00\E2/\04 x\18\10\00A>\00\00@p\03\03 \004~\00B\80\05C\02\02\00\04\B0\00`\E4\0F\00\08r\181\00\02\01\00P\CE\0F\00 \98\8F\1E#\80K@\00\00\D0\02&\04\0F\F0\03X\00#t\08\0C\10\08T!r\0F\04\11 \00\01\A0\05(\08\08\F0\07V!r\13\04\13 \00W\02!t\11\08\10\04W\00#t\0A\0FP\00Z\08#t\12\13\D0\08)\11\0C\A0\05Dr\15\04\15P\00\10\E2p\04%\0A\0Ap\00\010\00)\0E\0C\B0\05:t\0C\120\09\18\11\80\09\00\10\09\18\0A\A0\04\10$@\0B\04\D0\05\01 \00\1B\12\C0\09'\14\11P\00\00\D0\08\17\0F\10\09@\00\08s\0E\1A\03\060\08:x\12\13@\0D\09\E0\08\01@\00\08\10\09\0E\00\0A*\12\13P\0D%\16\15\E0\08\01P\05(\0F\080\00\00p\06\14\10\80\00xb\0E\00$x\14\14\D0\00\00@\00\00P\00\22\16\000\00\01\00#\13\\\90\02\01p\0D7\13\00\12\A0\06R r\0E\0F\0E\EA/\01\A0\06E \08\0E\0E`\02\10\C60\00\19\15 \09T r\0A\0A\110\00u\E2/\00 \98\0E\0EP\02z\C6\0F\00 \08\0A\0A@\00C\17\00\18\00\81\0D\10b@\005\0C\0C\13@\00jO\00 \98\0A\0A@\00%\0C\0C@\00\84\E2\0F\00 r\14\14\150\00u\C6\1F\00 \98\0C\0C0\00\00 \008\08\14\140\00\06\90&\02\80\0DI \98\14\140\00#r\15\82*!@\00P\035r\11\17\00\01\010\01%\0C\0D0\01\010\006\13\17\0A \00d\04 r\17\17\14\10\00\02\F0\0C\17\070\00P\08\86y\00\0C \01a\04\19\10\0C\00\E6P%\18\0BP\00T\86y\00\0E\13 \00 \E8\01\10\00*\08\15\10\00$\06\17\10\00!\E2\01\00\08(\00\FB`\0A\0Ap\059M)\00\10\00\0E0\04/\02\050\04\03\22\F4\03\90\0AF\00\00\B0\01\80\050\08r\021\00\02\82\03\010\04%\02\02@\01\00\00\19 s\0C?\05\02\D0\01/f\100\17\00\11\02\90\05\15\03\90\05%\06\020\17*\CCO\D0$k\A2\0E\00$t\08`\0A\00\9E\07\06`\0Ac\10x\03\03\00\01\D0\04\18\C8\E0\1B\13\F0\F0\075\05\04\070\04\12\CFp\00\13\\p\00\00\80\08 t\08\CF\003?\08 \80\08\03\C0\04\22\0B@\10\00J!t\0A\08 \04%\08\08P\03\01\C0\08 \0A\05\90\03#\0A\08@\000x\0A\05`\03\01\14\02\01\10\017\05\00\0A\C0\081 r\05q\00\05P\03&(\05\80\01\10\C8P\01(\05\05P\01E r\05\0C0\00!\CA/\00\02\1B\05\00\02/\90\FE\00\02\08\0B\10\00\00\E0\09\00\0B\01\06P\01C\08\00\80*\A0\01T\C4\0F\00Dy`\0CP\C0\03\00\EA\7F\A0\15\15\0A \15\00 \0EGt\0D\FF\02@\00\06p\19\01`\15Q\04\08r\0A\0C\F0\00\00@\150\E4\0F\04`\00\14\F0`\00\01p\06\05 \00\05p\00\15pp\00\17\0Fp\00\01P\00\00\10\16\06\D0\15\10\C4@\006\0B\0C\0A\00 \19\04\F0\0A\12\E4 \00\03\C0\09\00@\00\01\E0\00#p+ \00\16\C6@\15\13\0B\B0\12\00\80\00&\F0\00\80\00\10G\F0\02\16\E9P\01\040\00\11\04\F0\00\11\8F`\0B\17\01p\00\00`\00*\C0+@\01&\A0\00@\01c!r\0A\04\0C\00\01\00\01\C0\07\0A@\01\00\80\01*\00,@\00\17`\90\002!r\0A\10\01\07@\00\1B\04@\00\1B@@\00\17 @\002\02r\07\9C\0E\12\0F@\00\00\E0\00&@\F6\E0\00\03\80\16\05 \00AHs\00\000\03\000\02Q\E8\0F\00\89s\D0\0AA\0C\06\00\0E\C0\02`Py\00\08`\D3@\00Q\C3\03\00\EA\1FP\00#\F0\FFP\00f\C0\0F\00\18y\00\01\00\0F\10\00\B0\0F\01\00-\11\01\89\02\0E\01\00\22@\00\01\00=V\01\000\00\08\01\00\1F\0B@\00\04\13\96)\00?\98\02\00@\00\0A\00L\06.\02\00\01\00\1105\03\02h3\13\00$\00\13\07\A7\04\00\01\00\03\14(>\00\17\01T\00\00\01\00*\08\05@\00\0F\80\00\05\1A)\7F2\05\01\00\13\E0@\00\11T\06\00\06\E4\00*\04\00\01\00\1F[@\00\0414\06\00\01\00&\C0\00@\00\1F\0B@\00\00!G\01\18\00\0D@\00/\F8\06\C0\00\03\1B\08\08\00#$\01l\0E\0B\01\00\12\D0%\03\03l\03\02\80\00\17\048\00\22\10\00\01\00\13\B5\14\01\0C\84\01*\F0\07h\00\1F\00\C0\00\04\1F\E6@\00\04\13\F8@\00?x\01\00@\00\0A\132@\00\15\06\92\00\02\01\00*\80\09\E04\12\03\8C\00:$\80\00\01\00\13\87\A4\00+\03\00\01\00\03\F09/H\00\80\00\0B\13\06\9F\0D\05(:\0B\01\00*\A8\00\08\00\04\10\01\13\018\00\04(\01\0C\01\00*\10/\08\00\088\00\17\06\A0\00\0F\01\00\05\04\B8\00\80\08\00\00\00\00\00\00\00\00\00\00\00\00\00"
@ral_send_output___cpu___pvoid_i64_m3df32___void = internal constant [48 x i8] c"ral_send_output___cpu___pvoid_i64_m3df32___void\00"
@ral_kernel_launch___gpu___pvoid_ppvoid_i64_pvoid_i64_i64_i64_i64_i64_i64_i32_pvoid_i32_ppvoid___void = internal constant [101 x i8] c"ral_kernel_launch___gpu___pvoid_ppvoid_i64_pvoid_i64_i64_i64_i64_i64_i64_i32_pvoid_i32_ppvoid___void\00"
@main_kernel_0_main_kStitch_divide__13_1_0___1w1r_kernel_name = internal constant [35 x i8] c"main_kStitch_divide__13_1_0___1w1r\00"
@main_kernel_0_blob_gpu.binary = internal constant [8368 x i8] c"P\EDU\BA\01\00\10\00\A0 \00\00\00\00\00\00\02\00\01\01@\00\00\00` \00\00\00\00\00\00^ \00\00\00\00\00\00\07\00\01\00V\00\00\00\00\00\00\00\00\00\00\00\11 \00\00\00\00\00\00\00\00\00\00\00\00\00\00(K\00\00\00\00\00\00\A2\7FELF\02\01\013\07\00\01\00f\02\00\BE\00q\00\01\00#\80J\08\00\11G\07\00\F5\0E\00V\05V\00@\008\00\03\00@\00\0C\00\01\00\00.shstrtab\00.\08\00'ym\08\00\F5)_shndx\00.nv.info\00.text.main_kStitch_divide__13_1_0___1w1r2\00\0F,\00\15oshared.\00\15\9Fconstant01\00\12\FD\01debug_frame\00.rel\11\00\1Aa\12\00!nv&\00oaction%\01 \0F\94\00\0F\0FH\01q\1F$$\00\0F\FF\16$__cuda_sm70_shflsync_bfly_p\00$____wg_G\00\0F\00\09\00/261\00\19_1__28\EA\01\1Fo_param\F1\01.\0F\01\00\06\8CU\00\00\00\03\00\0A\00\01\00\11\AA\18\00,\0B\00\01\00\A1\D8\00\00\00\22\00\0A\00@=\0F\001\00@\01\07\000\00z\010\00,\09\00\01\00\11\B2\18\00,\04\00\01\00\11\E2\18\00,\07\00\01\00f2\00\00\00\12\10\90\00!\80>\07\00v\00\FF\FF\FF\FF(\00\0C\00\00\01\00@\03\00\04|\08\00\D1\0F\0C\81\80\80(\00\08\FF\81\80(\08\0B\00\06(\00/0\00\01\00\03\130\C0\00\10\04\9B\00R\04<\00\00\00E\005\04\08\0F<\00&8\00H\00\04p\00L\84\80\80(o\00\10\08\15\00\81\16\85\80\80(\09\05\0C2\00\068\00\22\18\00\01\00\22p\00\01\00\048\01\1308\011\04/\08\06\01\10&\0C\00R#\08\00\03\00\01\00'\04\12\0C\00\17\11\0C\00\12#0\00\04$\00\17\07$\00\05\0C\00!7\044\05q\015\00\00\04\0A\08~\01\A2`\01 \00\03\19 \00\04\17\A2\00u\04\00\18\00\00\F0!\10\00u\03\00\10\00\00\F0\11\10\009\02\00\0C\10\009\01\00\08\10\00\01\01\00\F1_\F0!\00\03\1B\FF\00\04(P\00\C0\12\00\00\00\13\00\00@\13\00\00\80\13\00\00\C0\13\00\00\10+\00\000+\00\00P+\00\00p+\00\00\90+\00\00\00:\00\00p:\00\00\E0:\00\00P;\00\00\C0;\00\00\10<\00\00P<\00\00\90<\00\00\D0<\00\00 =\00\00\04\1C\0C\00\F0+\00\00`6\00\00\C09\00\00\04\1E\04s\00#K\00\01\00\B1\02\02\08\10\0A/\22\00\00\00\08\10\00#\00\08\08\00\13\10\08\00\13\18\08\00\13 \08\00\13(\08\00\130\08\00\228\08\D8\00\13\00\08\00\13\08\08\00\13\10\08\00\13\18\08\00\13 \08\00\13(\08\00\130\08\00\02@\00\13\02@\00\13\02@\00\13\02@\00\13\02@\00\13\02@\00\13\02@\00\13\02@\00\13\02@\00\A2\00\00\00\14,\00\00\00\C8\00\01\001\02\00\00\C8\01*H\00\10\00\0F\01\00\FF\D6@$v\01\FF\8F\05\B1\FF\00\8E\07\00\C4\0F\00\19y\0D\18\00 \00!y\05\A1\0E\00\B9z\04\00\00F\00\00\B3\05\90\E2\0F\00Ey\00\00\10\14!\00 \80\03\10\00c$t\0B\FF\1F\00@\00\10\E2@\00\03:\04\B1%\00\00\00b\0E\00$t\1A\FF\01\00\04 \00\F1\04x\0A\FF\05\00\00\00\0D\16\01\00\00\E4\1F\00\12x\0D\0D@\00\B0\C0\8E\07\00\C6\0F\00$x\0C\03\A9\02 \0A\020\00\D0/\00\0Cz\00\0D\00[\00\00pR\F2p\00g\04$x\0A\0A\04p\00P\0Cr\00\0D\FF\F0\04`R\F4\03\00\E4\0F0\00\81\0C\00\\\00\00pb\F6\10\00@\12r\00\FF\D2\00\A2\FF3\8E\07\00\D6\0F\00G94\04\01\C0\00p\EA\0F\00\10z\02\00`\00B\FF\E0\FF\07\E0\00H\01\00\E0\0C\E0\00R\13\FF\00\00\80\C0\00\93\E4\0F\00\10x\02\02 \000\00\80\C8\0F\00\12x\02\02\80\E0\00!\C0\8E\10\00a\07r\02\02\FF\00@\00\11\00 \001r\0F\02\80\00\12\FC \00\00\B0\00\00\F2\05\E6pb\F0\03\00\DA\0F\00G\09\00\00`\0C\90\00@$x\02\0F\AB\05!\0D\0A\E0\00v\10Ey\02\00\F0\06\90\001\1Cx\00\01\00?p\F0\F0\A0\00\02\B2\0Cx\00\02\80\01\00\00pB\F8 \000r\11\FF\90\00\10\0D \00\96\D8\0F\00G\C9\00\00\90\06p\00\05P\002\E1\F0\03\E0\00a\10\0F\80\FE\FF\FF\E0\00\10\C4`\00%\16\FFp\01p\E4\0F\00$z\09\0C0\01\22\11\02\D0\00\90%v\02\09\00X\00\00\16\10\00p\CA\0F\00\81y\0E\020\00\C5\00\19\1E\0C\00\A2\00\00\10x\05\090\01\84\E4\0F\04\10x\07\09@\10\00\10\C6@\00*\04\05@\00%\15\04@\00u\E2\02\00%v\06\07 \00\86\E2\0F\08\10x\09\09`P\00g\00\10x\17\11\80\10\00E\81y\12\06@\00fb\09\00%v\08\A0\00\10\C8\C0\00\11\1B\C0\003\17\02\8E0\00%\17\080\00\10d0\00&\02\1Bp\00h\1F\04\10x\19\1B\F0\016\81y\14\E0\00 b\01\C0\00\16\190\00y/\00\10x\1D\1B@0\00\16\19\D0\00 b\03\D0\00\16\1D0\00j\0F\09\10x\1B\1B\D0\00F\1D\11\00\01\10\00<\81y\18\D0\00\06\A0\00\01\D0\00\11\1F\D0\00\12\1DP\00F\00\81y\1B\D0\00\11f\D0\00\1A\1F\D0\00*\1D\1F\D0\00\1C\1C\D0\00\1A\1D\D0\00*!\1F\D0\00\1C\1D\D0\00\1A!\D0\00*\1F\1F\D0\00F!\11\80\01\10\00<\81y\1E\D0\00\06\A0\00\01\D0\00\11!\D0\00\15!\D0\00\17\1F\D0\00\00p\00*\02!\D0\00%#!\D0\00\01@\02\17\02\D0\00\01`\02\1A#\D0\009#!@0\00*\05\040\00\17\060\00y\0F\01\10x!!`0\00\16\06\C0\00\10\220\00\18\08\00\01`\00\0Br\00\0E\0E \00\B1\80\F8\03\00\E4O\08\0Br\00\13\10\000\C0\FA\03\80\04A\08\C2\0E\0E\7F\042\00\80\06\10\01\16\13\E0\00 \A2\0E@\00!\15\15\1F\00P\FA\03\00\E4\8F@\00%\12\12P\00 \0F\02`\00\01 \00\B1\C0\FC\03\00\D2\0F\00\08\D2\15\15`\00!\00\00`\01U\0Br\00\17\17@\00\01\10\00$\15\120\00\10\C8\80\00!\12\12@\00\060\00&\14\14`\00\00\10\00(\12\170\001\D2\17\17@\00\060\00*\19\19`\00)\17\14`\00!\14\14@\00\060\00*\18\18`\00)\14\19`\00!\19\19@\00\060\00*\1B\1B`\00)\19\18`\00!\18\18@\00\060\00*\1C\1C`\00)\18\1B`\00!\1B\1B@\00\060\00*\1D\1D`\00)\1B\1C`\00!\1C\1C@\00\060\00*\1E\1E`\00)\1C\1D`\00!\1D\1D@\00\060\00*\1F\1F`\00)\1D\1E`\00!\1E\1E@\00\060\00*\02\02`\00)\1E\1F`\00!\1F\1F@\00\060\00*\05\05`\00)\1F\02`\00!\02\02@\00\060\00&\06\06`\00\10\01p\00\19\05`\00!\05\05@\00\030\00c\10x\11\11\00\02\F0\02\03p\00\19\06`\00!\06\06@\00\030\00P\0Cr\00\11\10@\06$b\FC\90\00%\13\13\A0\00\01\00\03\11\06\10\00\22\C0\F8\00\031\D2\13\13P\000\00\00\060\03`G\E9\00\00\90\F9A\07\11\83\90\06#Ay\8E\00\0B\10\073\11\0A\8E\A0\07C\02\00p\03 \00\13\E8\F0\06\13\00\F0\06\12\DA\E0\06'@\03@\00+t\03\C0\06\1B\0E\C0\06 \04\0E\C0\033\03\02\8E\E0\03*\02\04\C0\06%\06\0E`\04\01\C0\06*\08\0E\C0\06*\06\06@\00*\19\06\C0\06%\08\08 \00\01\C0\06/\14\0E\C0\06\0B*\0E\08 \05%\14\14@\00\01 \05\1B\10\C0\06%\15\140\00\10d\90\00'\16\10p\00V\04\10x\04\10 \05k\1F\00\81y\16\16\F0\04\16\040\00\00 \05*\04\10 \05*\07\060\00\17\040\00\00\C0\00'\08\10 \05[\01\81y\04\04 \05\08\00\01\07\F0\02\15\F0 \05\18\02 \021\82\02\020\02/\00\00 \05\05%\19\19\D0\02&\8F\08p\05\14\F0 \05$\02\19p\05\00 \051\C2\19\19`\00\03p\05\06`\05\14\F8\B0\02\15\19\A0\05\00\E0\02J\82\0E\0E\190\00&\16\16`\00\16\00\80\05\030\00\14\C2\80\05\050\00*\07\07`\00)\15\16`\00:\16\16\150\00&\04\04`\00\00\A0\03)\16\07`\004\07\07\160\00\11\C80\00)\07\04P\007\04\04\07P\00\0E\D0\09\19\11P\08\06\A0\03\14\F8\80\01$\04\13P\00\00\80\01D\C2\13\13\04P\00\1E\C4\90\03\00\F0\03\01\C0\0A1\16p\00p\03X\89\00\00\A0\01p\03\1B\09p\03\1B\08p\03\11\02\10\02\16\09\A0\02/\08 \C0\07\05%\A2\0Ep\02\15\09p\02/\06\08\C0\07\06%\E2\0E\90\03\060\00?\08\08`\C0\07\0B\06\90\00\10\CC \00(\09\08\F0\02\06\B0\02\1B\F8\B0\02*\FA\03\90\05Q\F0\03\00\D2\8F\80\05\02\C0\02/\80\06\80\05\0B\04\C0\01\04\80\05\050\00*\09\09\D0\02\03\80\05\1B\FA\80\05\05\10\02$\06\09@\03\01P\00!\09\090\00\00@\03\10\CA\00\0C\11\13\00\0C\13\09\E0\0DIAy\01\00\D0\01Sz\00\0F\00[\90\0C\03\00\0D#\90\04 \00\12\D8\A0\0C)p\040\0D\010\005\FF\E1\FF\90\05#`\02 \00\0C\A0\0C\03\90\0C\1B`\A0\05& \02P\00c$v\0E\FF\00[0\02\1B\E2\C0\02\10\C8\C0\01H\0E\0E\A0\FF\90\0C\1B\10`\02\11\02`\02\16\0F`\02\10\02\D0\013\10\02\8E\F0\01\1C\08\90\0C\15\0Fp\02\02\90\0C\18\0F\D0\051$z\05P\001\05\02\8E \001$z\07\10\00\12\07\10\00\05\B0\0C\15\10p\00%\06\07\10\00\1E\E4\90\02W\10x\09\0F``\00\09\80\02\16$\C0\00\01\80\02*\C8\1F\C0\00\020\05+\08\08\80\02\19\08\B0\03(\08\08p\02K\81y\13\020\05*\05\05P\0A$\08\05\D0\07\0F\A0\02\00E\10x\0F\0F\90\06\12\CE \08\01p\00!\00\00\F0\00\0F\10\08\10/\0F\0E\10\08,.\10\FE\10\08\0F\80\02\09#0\01 \00\12\E6p\02\1B p\02(\00\01\A0\04\1F\04@\02\12\15\04@\02\19\06P\01\09@\02\1B\CA0\02\16\C8 \02\16\04\C0\01%\06\06\D0\03\02\C0\01\18\06\00\01\22\82\06\10\01$\00\00\C0\01\18\04p\00\09\10\03\01\D0\05\16\0F\B0\02\09`\01\1B\F8`\01\06\D0\05\01p\00\0F\D0\05\05\04\00\04\07\D0\05.\80\00@\09\0F0\01\0D\15\030\01\16\040\01+\A4\0E\E0\06\02\00\01\19\04\00\01\12\04\80\06\0B\B0\04\1F\04\B0\04\04aGy\00\7F\12'\10\00\10\0B\10\00\FB\00\89\7F\02\13\00\1F \0C\00\00\0E\00\00$\0E`\08\1F\1F`\08\0B\10\CA@\00X\03\02\00\1F@@\00*\03\03@\00)\02\03@\00!\03\03P\00\05@\00X\04\03\00\1F\80@\00*\04\04@\00\1C\03\F0\00\01P\00\05@\00g\05\04\00\1F\00\0D@\00*\05\05@\00)\04\05@\00!\05\05P\00\05@\00a\06\05\00\1F\00\0E@\00ab\00\00$r\02@\011\05\00\8Ep\04(\0B\A2\E0\03,/\08\A0\05T\0B\A2\00\02\060\02\00@\08#\A8\00 \00 p\02\10\02\00\A0\02\14\02@\02q\CA\0F\00\88\A3\00\0A0\00\00\86\16i\E4\03\00Ay\00\A0\01\22Hy\88\18\04\10\066\1D{\00\01\00\12\EC@\14\11P!\0E\02 \00\00\90\13/0\17\90\13\0B&\B0\07\E0\03\0F\80\13\1F\16\03\80\13\010\13\01\1F\00#\80\FF \01\00\90\13\11\03\B0\04\11\F8\00\01@\0Cz\00\03\80\00\01\10\07\000\14VI\00\00 \07\A0\00\09@\00\00\10\03&r\04`\13\01\A0\0B\11\18 \03\01\00\04\1B\E4@\13\10\C6\C0\00%\11\18\C0\00w\E2\0F\04%v\12\18@\10X\04\10x\10\18\90\06G%v\0E\11 \00V\08\81y\06\12 \04\10\22`\06\15\18`\06\01\A0\06*\14\100\00%\05\0E0\00 \E6\10 \0C\17\09 \00\00\E0\0B\06@\0C h\090\07\18\16\10\121\06{\19\90\01\C1\00\90 \00\000\0E\00\08s\19\00 \0B\00\F5\0D $\1E\A0\07Q\19\FE\FF\FF\0F\80\00`\CC\1F\00\05s\0F\8A\02\01\AC\19 \00d\90\025\0E\FF\FF@\04\15\1F\E0\03\10\0F\D0\0Dp\C8/\00$z\13\13`\00\22\FF\02@\01@'r\0F\0F\A0\03\22\0E\00\90\09T'r\12\0F\18@\00\16\C8 \04%\12\0Ap\01\01@\00\13\18p\01V'r\14\0F\11p\01P\01\0Cz\00\18 \00$p`\10\15\02\90\00\15\14@\00%\11\0E\A0\0A\01@\006\0E\0F\10@\00\00\10\02\12\11@\00 \FC\03\10\000\10J\18P\00\11\80\F0\00\16\E2\90\00%\0E\0A0\00\03p\00\12\FAp\00!z\10\A0\00\04\D0\07T\10H\12\12\01\B0\01\10\E2p\007\16\0F\09p\00E\10j\11\11`\00\02\90\02\1A\10\C0\00\11\18p\00\13\16\C0\00'\10XP\00\18\E4\B0\00\04\80\00%\0F\18`\08\00\80\005h\14\140\00\00@\00;J\10\10p\00\15\0F\F0\00\10\CA`\00\070\00\09\90\00\020\04I\10H\0E\0EP\00;j\0F\0FP\00\01\E0\09\22pP`\032\12z\09\F0\09\133\F0\00\17X@\00\09\80\00\02`\00V\07r\12\09\12 \07g\04\07r\14\09\14\10\00H\10h\16\16P\01T$x\0F\12\04P\01\10\E2@\00!\0E\09\90\02\03`\08W$x\10\14\04p\01@\12x\0F\0F\C0\11\22\FF\E2\00\02,\10XP\00(\0E\0EP\00H\12x\10\100\00W\07r\09\09\16`\00T\84y\0F\0F\00 \05u\A2\0E\00\12x\0E\0E0\00\01\E0\18(\09\09P\00E\84y\10\100\00\10\E80\00%\09\090\00\01 \00%\0E\0E \00\10j\10\00%\09\09\10\00!\22\0E\00\18S\9D\98\BB;\FF0\07\84$t\15\FF\00\00|C`\00W\10x\04\04\80\A0\01E\0Cr\00\04\F0\04\84\E2\0F\00!r\0F\06\0F\F3\07P\C8O\00#t\0F\00B\00?\13 \F0\19T!r\10\05\10 \00 \C6\8F \00t\06\01\00@K\15@ \004\07\07\0E \00u\E2\0F\02#t\05\10@\00\B3\E4\0F\08!t\0E\06\7F\00@\CB \00X\00#t\12\07`\00G#t\05\05P\00e\08!r\08\08\09P\00\C4\1F\00#x\0E\0F;\AA\B8?\0E\080\00)\12\12\80\00:t\11\05`\00)\09\08`\00\94x\0E\0F`p\A52\0E\000\00)\14\120\000x\11\10`\00\15\11`\00%\0F\09`\00\10\C4 \00 \14\07 \00&\14\080\00\00P\00\22\11\00\10\00W\08s\0E\00\0E\90\01J!t\09\0F`\00 \14\070\00\01\B4\02\10\C6\10\00 \07\08P\00\22\09\08\10\00T\08s\10\00\11@\00@b\0E\00#\B0\0ECp\A52\07@\00@$x\07\06\0F\01\13\FF\10\05W\08s\09\00\14`\02E$x\05\05 \00\00p\00Cr\02\07\0E\C8\1D\00\90\05X\08s\11\00\080\02:x\12\120\004\05\05\100\00!\E2/p\13\05 \00\11\C6 \00!\12\09P\08\03 \02Dr\02\02\11\10\00\22\E2\1F`\0B\09\C0\13\0A\B0\09\01P\0E\13\0E\10\00\13\E2P\0E\18\0E\F0\07,\04\03\D0\0B/\A0\07P\0E\0A\1C\04P\0E(`\07P\0E\12\04`\04\0FP\0E\06(\04\04P\0EV\10x\09\03 \F0\03F\04$t\18\B0\07\01@\035\05\03@ \00Q\1F\04$z\12\E0\07\01\F0\0A\01 \0E\16\09\C0\0D\01\80\07C\0E\12\00X\90\06\01@\00%\11\03\A0\07\01\D0\07'\14\09 \00F\08\81y\07\A0\07%\A6\00\E0\13\12\05 \00F\04\81y\08\A0\07 \22\07\B0\06\18\0C\B0\06\04\F0\13\22\18\02\10\06G%v\18\11`\00\00\C0\0C\06\D0\07 h#\A0\0E\18\18\E0\106\06{\13\E0\07*b\0E\B0\07\84\E2\1F\00\10x\03\03\80\C0\00\01\80\02\10\13w!\03\00\08l.\00\10x\1B\13\00\08\14\1B\00\08\10\E4P\00\17\15\F0\07j\8F\00$z\15\15\F0\079\16\0F\15\F0\074\0E\16\12\80\00\00\A0\07&r\0F`\07\01\A0\078\13\16\10 \00!z\120\06$\12\02 \00 \0F\16\B0\02\07\C0\07\1A\12@\07\16\14\90\00%\E4\0F\A0\00%\13\0A\E0\1C\18\14\D0\01E$z\10\15\C0\07\02P\00\1A\09\10\08(\12\12\F0\06-\10H\D0\06\15\12\D0\06\01\F0\074\12\16\11\A0\00\1B\E2\E0\07\16\C6\A0\00\22\12\0A \00I\10j\09\09`\005h\0F\0F`\00\11\E2\C0\08\18\14\10\026$t\14\00\06\1F\E4`\07\02\15\09\90\00\1F\C4\00\08\02\15\11\E0\00\00@\00;H\13\13@\00\06\D0\07\01 \08/\0F\0F \08\0A\0B\D0\086\12z\10\00\08\00 \00\1Ah\C0\08A\07r\0E\10\1F\04!\00\00\B0\0ET\07r\0F\10\0F\10\00\010\08)\13\13\00\01)x\09\A0\07\0D\00\098x\0F\0F \00A\07r\13\10\C0\02\02@\08\0Ap\07\1B\E4\10\08\01@\00%\13\13@\00\11\E4\90\07$\09\00P\05*\A8\0E\80\09\0C\00\08\10&p\007\12\10\12\D0\00I\12x\10\13`\00\08\C0\07\00\C0\00\030\0E\04\A0\07\00\B0\05\0A\80\00\01o\19\02`\00\10fP\00%\12\12P\00\10\CC \00\02/\1C\05\90\06Ir\0E\07\0E\E0\07*\07\0E\E0\074\08\08\0F \00p\C6\0F\01#t\07\07\00\07!\14@ \00H\08#t\0FP\07d\08!r\11\06\110\00y\E4\0F\02!t\09\07\F0\068t\06\0F@\00 $x\0F\17\07p\06:t\10\11P\009\05\05\12\F0\07%\09\0E \07\01\B0\07\1B\0F@\08*\10\10\A0\00'\12\05P\00\01@\00\00@\07$\09\00\10\00\11\0Fp\07$\0F\08P\00*\0E\10P\00'\12\12P\00Y\00$x\06\06\B0\00!x\0F\90\07%\0F\00P\08\17\11\90\08I\04!t\08P\08\00\A0\07\14\09\80\01!$\0E0\00\08\80\08@#x\08\05@\00\01\D5\13\12\C8\10\00\00 \00\15\08@\007\0F\00\0F\10\08E$x\05\10\90\00\1B\CEp\08\85\A2\0E\00#r\07\07\09\C0\07\10\1F\C0\07\06\E0\07\01\B0\057\08\00\08\10\021#r\06\E1\09\013\07!\C8/\00\08\11\0E\9D\02\06\E0\07\1B\08\E0\07.\D0\F8\90\13\0F\C0\07\09)0\04\90\13\1D\04\90\13\17\04@\00'x\05\80\07h\1F\00$t\08\FF\F0\02\04\10\07\06p\07\16\11 \07\01\00\07\11\06\00\07\22\08\02P\0EE%v\08\11\10\00\01\00\07\16\05p\15 \A8\00\A0\12\18\08\A0\1B6\06{\12\00\07!\22\0F\F0\06\18@\00\15Es\12\00\12\F0\06\00 \15&\0E\12\F0\06*\0F\01\F0\0E\1A\09@\074\E4\0F\01 \0E\02\00\07.\0F\02\F0\0E\16\13\F0\0E\00\D0\06&t\0E\10\04\01\D0\064\06\13\10P\00\10\C8@\0F\11\09P\00\10\06P\00u\E4/\00'r\07\13P\06\01\10\07%\10\09\B0\06\00@\01!r\080\00#\07\0A\10\00)t\0F \0C\06\B0\05#\FC\03P\06\15\08P\06\00\F0\0C&z\08\B0\05\1B\C8`\05\10\CE\E0\05\0A@\06E\10h\06\06\10\05\1B\E4\E0\06\00 \00?Z\11\11 \0E\03\02p\06\06`\00\12\F0\A0\06\10X\90\04\06p\15'\10H`\00\01\F0\11!\06\08\BC\02\03\80\16'\10\080\00\1B\E4\00\0A\03\E0\03\14\040\01\01\10\06!\07\08\0C\03!\00\00P\00I\12x\06\06\A0\055x\07\070\00\10\CA \00(\08\07 \00\22\84y_\13\04\10\06E\84y\09\08\10\00\10\E2\80\05\10\050\17\08\80\05\01\B0\04$\0E \80\059\09\04\09`\0D\00\C0\00D@K\0F@\A0\04%\0E\090\00\10\C6\C0\04\18\04p\05X\04#t\0E\0E0\00\09p\05\10\E4`\04\11\04p\04$\04\08\00\05%\06\0E@\00\12\C6 \00\00\80\04\22\04\00 \00@#x\06\090\00$\06\08P\00%\05\0EP\00\12\C6 \00\000\00\13\060\00T\08s\04\00\04\F0\00\01 \127\06\00\06\C0\04\00\90\0C\14\04\A0\04 \C8\1F\10\00$\05\06\10\00/\C6/\90\16\01\1C\03\90\16&@\02 \00\0E\C0\17\16\03 \04\01\00\0B%\04\03\80\179\CC\1F\00\90\1Ef\A2\00\00\06{\09\F0\03\10\E2\A0\0A4\06\FF\FFP\00'\E2/\90\02\03@\08&t\050\03&\CA\1F\E0\05\01\10\04 \8E\00\D0&\0A\00\0B4\07\00\07\10\04%$\0E\C0\0A\01\80\03\00\C0\03:z\0F\0F\00\041\06\07\0F\80\05\02\B0\05T'r\06\06\03\90\00\16\C8\C0\03#\06\0A\10\007z\03\08\10\05\010\05\050\04\17\C6@\01!`\F0p\05I\10\0A\03\03\A0\03\1D\08\A0\03\15\03\A0\03\1B\DA`\03\00\10\09)\DA\06\00\04\00 \03\14\07\B0)\1B\CAP\03\10\CA\10\034\03\06\00\00\02\10\A4\00\03\10\03p\10\07\00\03\01\7F\103?\08 \00\070t\04\04\C0\02\22\05@\10\00E!t\08\04\A0\02\02 \07\1B\030\07\18\030\07E$x\03\04\A0\02\1B\CA\F0\06\11$\80\02'\03\08\10\0F\0FP\18\01(\E2\10P\18%\03\02P\18\02\C0\00\04\F0\17C\00\00\CAO\F0\17\17@ \00\11\04\B0\09\06 \00&\05\04\10\18\10\1E\00\04\02\C0\17\01 \00\14\1F\B0\17\03\F0\17Q.\00!r\06\10\03\06 \00%\07\06\D0\17`d\00\00!\A2\07\01\10\03 \00\11/\80\17/\07\80\80\17';M9\00\C0\07\11\00\10\03$\FF\E0\C0\07H\00\00@\0Ap\174\00\00 \10\02\01\00\02\00\FD\16\08p\17\00\FC\01\010\00\03p\17%\00\00p\17\02p\12\11\0D\80\05$b\F2\E0\05\01p\00\05`\17V\19\00\00\C0\09\90\00\04p\1D\11\0D\E0\02\11op\17\05`\02\11\C6\A0\07\15\07\90\00\01@\17\11\0E\80\1D$\02\02\00\04%\10\03\10\00\01\00\08\16\04`\0F \A8\02\E0\16\18\10P\0FY\10x\09\07@\10\1E&\05\07\B0\0F\00\90\1D*\12\09`\00*\0A\05`\00\07\90\17zj\01\00\81y\0A\0A@\17\17\14`\08\0C`\0F\00p#4\0D\0D\80p\00\01\B0\099\14\00\14`\17,\15\14`\0F\19\15`\0F\02\E0+\06`\0F\01`\07\07`\04\11\12\10\17\07`\0F$\12\07\80\00\01`\04\1B\10`\0F)\0F\12\80\048z\0B\10\00\1F\040\00\15\0F0\004\11\12\090\00\02P\08\12\0BP\04\12\F6\D0\0E8z\10\10\B0\04W'r\12\12\05\D0\01\06 \08\19\F2\A0\0F$\11\0Ap\00\16\16\10\0F\00\C0\049:\0B\0B\D0\04\1D8\E0\0E\15\0B\D0\04\11\E2\C0\00\06\D0\0F\18\E2p\08\12\F6`\08\1A\1A\C0\08\06@\00*\FA\03\C0\08\13\F4P\00'\10\16\A0\11:\00\10\18\00\0F6\12z\140\05\00\A0\00\08\10\10\18\C4P\00\02\10\09R\07r\0E\14\0E@\03\11\050\00\1BZ\E0\00\17(`\00\0F\90\16\00\06\B0\00\13\F2P\004\0F\14\0FP\00\01p\0E\16\13\80\16\1B\E2`\0A\1B\E2\00\10\0F0\0F\00H\10X\11\11\80\00T\84y\15\13\00`\05\1B\E2 \01\0F@\0F\00f\84y\0B\13\00\80\80\0C\09\00\19\00\80\01\1C\18`\00%\17\0F`\00\10\E6\D0\004\11\14\11\D0\00\04`\0F\04P\00Wd\0E\00\10(P\00\000\025x\11\11\C0\00\01\10\014\12\14\12@\00\01\B0\06\16\10P\0F\11\E2@\0F\15\11\B0\00\1B\C8\E0\17\01p\00%\19\12\90\00\1Bh\80\0F\22\E8\0E\C0\17\16\80\10\01 \0Bx\C56\94\80~\00B\FC\03\00\C4\1F\10\002\00\00\E2\A0\01B\0Bx\00\0F \00\000\01#/\04\10\00A\00\00\E2\F6P\0BB h\0B\0B\866\11@P\05! \98\10\00\11K\10\00u\E2\0F\00 (\0F\0F \00\01\F0\06\10\0Ba\00\020\04\00 \008\B8\0F\0F0\00Q!r\15\04\15a\00\00 \00\11O@\09\08\00\0CV!r\17\08\17\D0\0FW\01#t\13\15\A0\0AX\08\84y\08\12\C0\01E#t\1B\17 \00\00`\0A\10t\90\114@K\040\175t\1B\1B\10\00\10\E4\D0\07%\14\13\D0\07\01p\007\19\06\190\18E!t\16\1B \00\01\B0\0A(\14\15p\17 $x\CF $\80\00\B0\00@#x\16\17 \00&\16\080\00\05`\17\01`\00%\11\0A\A0\10|\E2\8F\00$x\1B\1B@\00\000\00\13\160\00X\08s\15\00\14\B0\0A8t\17\19\00\01H#t\13\11\80\0BE#t\17\17\E0\00\02 \00\06\00\01\10\E4P\007\16\00\16\A0\0FI!t\0A\17\00\01)t\04\10\01E$x\17\17\A0\00\01\D0\00 \0A\19\E0\00\22\0A\08 \00H#x\04\11\C0\0B\00\90\12\08\D0\00R r\06\06\15\EA7\01\C0\17\00@\00\00\E0\00&\0A\00@\00\08\E0\0B\00\F0\00\15\0F0\02e\02\00 h\06\06P\02\02\C0\02\12\08\A0\02\14\F8\C0\02\15\10\D0\02\01p\005\16\1B\16p\00\14O0\002\00\00\E20\0BH \98\06\06\80\021\08s\0A;4\04@\02K (\16\16p\00\12\10@\00\13\F4`\007\0F\0B\06\D0\00\01`%\16^p\07H \B8\16\16`\00\09`\08\00 \008H\08\08`\00\09\A0\0Cxb\0E\00 h\10\10 \00F r\15\15\D0\00h\8F\00 \D8\08\08`\001\86y\000\11\CA\04\19\10\0C\00\E6\05\00 \A8\10\10\E0\00\03`\19\00P\01\84\22\07\00 r\0A\17\0AP\00u\C8\1F\00 H\0A\0Ap\00\12\C6\F0\19\15\100\00D\0E\00 rp)\02\F0\00H \D8\0A\0A`\00\01\C02\04\00\01z\E4\8F\00 h\13\13\C0\00%\11\11p\00z\C6\0F\01 \A8\13\13@\00%\0A\03@\00\01\C0\08(\02\05P\01T\86y\00\0A\15\E0\00E\E2\05\00  \15\00P\00\10\1F \00$\08\11 \00 \E8\05\10\00'\02\130\00hG\99\00\00@\F6 \12\01=\00\05\D0\099M\09\00\10\009\06{\04\80\0D\00p\0A#0\03 \00\09\A0\07\03P\06\09\80\10\16O\D0\01\00@\01\10\A4\80\0D&\02\04 \09uO\00\05s\03\00\02 \09\15\04\10#\02`\03QO\00$r\05\10\00\10\03P\08 \C8\9F\C0%\1A\050\091\09\03\050\0C\02\10\00\00\E06\15\04@\00\00\00\08\11\04\A0\0A\16\00P\01\01\A0*3\0B\02\8Ep\0E\19\02p(9'r\05\F0\1D\09P\0B\01\F0\17\11\07\90\00\13\05\D0\116$t\0A\A0\05\01p\00*\06\07P\22\1C\07\F0\0D\1A\06\F0\0D)\06\06@\088\08\05\05 \07\060\00\12\F20\00\17\18 \00\01\D0\0B\12\05 (#\00\000\07(\05\05\E0\0DE\12x\03\05 \07\84\CA\1F\00\84y\05\03\00`\03\10\E8 \07F\06\03\00\80\80\0DB\0Bx\00\06@\04\00\C0\1B#\1F\04\10\00\02\10\07W\D6\0F\00 \08\80\04\1B\C8@\04&\CC\0FP\10#\10\00\E0\051\02\02\05A\00\04P\0E\01?+\11?\15\0C\00 \0E\03P\1E\22\0A@\10\008!t\07 \1E\19\040\1D\01\D0\10 \07\02`\05#\07\08@\005x\07\02\80\1D\00\E0(\22s\02\D0\0F\03\D0\00$ r\B0+\11@ \15\01\00\02\13^\00\02\10\C6\D0\00(\05\05\A0\03\09\F0\0C\00 \005\98\05\05\E0\00\00\F0\00#r\05@)\02\D0\07\00`\03\15\05`\03\11\01\00\11/p\FD`\03\08\0B\10\00\04\F0\02\13\13p\02\81\02x\04\00\10:\00\00\F5\05\12\E2\D0'\14\01\D0\01E\C4\0F\00D\80\03\11\C0@\00\00P(\14\07p&\00\C0\17Gt\03\FF\02\C0\02\06\E0.\01\90\1DR\04\08r\13\070\04\02\90!\00p\00\14\80p\00\00\10\07$r\02 \00\14\00p\00)\C0\02p\00\12\02p\00\15\F0p\00\1F\04p\00\02\00\90\06\02P\00\01?\00\00F\16\03p\00\1B\F0p\00\03 \00\14\02p\00\1FPp\00\0C\1F\08p\00\05\01\E0\00\09p\00\01P\01#`;p\00\1F\C4p\00\03/\E0\01p\00\0B\1F\10p\00\17\01\E0\00/\D0;\E0\00\0B\17pp\00\04\D0\12\13\07`\00fGy\00\00\F0\D7@\02\09\00\02\03 \02& <\D0\00\00P\00\15 P\00\11?p\03\01\A0\00\16\00@\02\1B\02@\00\1B`@\00&\E0\00\90\00\0F@\00\01\1B\04@\00\1B\A0@\00\1F\A0@\00\0C\1B\08@\00\1B\E0@\00\19`@\00\1D\06@\00\1B\10@\00&0=@\00\04@\03\17\06 \03\17\10P\00\00P\01(`\EEP\01\00 \14\06P\00fHs\00\00\1A\00\A040\89s\07@*A\0C\0B\00\0E@\04`Py\00\04\80\C2@\00R\C3\03\00\EA\1F\A0\01\13\FFP\00f\C0\0F\00\18y\00\01\00\0F\10\00\D0\0F\01\00-\00\AB\02.\03\00\01\00\22@\00\01\00=%\01\000\00\08\01\00\1F\0B@\00\04\13e)\00\1F\F1@\00\0C\00\DC\04.\02\00\01\00\13XU\00$\C0\00\AD\03\00T\02\02G\06\00\01\00\03\948/\00\E6T\00\00\00\01\00\02\A5!\02\00E\0F\80\00\09\11)\06\00\05\EFC\05\01\00\13\F0@\00\11T\06\00\06\E4\00*\04\00\01\00/[\00@\00\03\12D\95\066\00\DC\00@\00\1F\0A@\00\00\00-'\1F\0B@\00\00\11 \B5\07\0E\C0\00\1B\08\08\00\11\F3\9C2\0E\01\00\13\F8@\00& \00\80\00\17\048\00\02\94\033\00\00\B5\14\01\0C\84\01\13\18\F5\03\00|<\04\01\00\0F\C0\00\01\132@\00\15\06R\00\03\01\00\03\95\00&\80>\80\00j\07\00\00&\80\00\01\00\13\87\94\00*\03\00\01\00\040J\01]\00\0F\80\00\08\13\06l\1D\04hJ\0C\01\00\1B\A8\08\00\17\08W\00\17\05\E8\00\0C\01\00*h@\08\00\088\00\18\06\A0\00\0F\01\00\05\00)\00\B0\00\00\00\08\00\00\00\00\00\00\00\00\00"
@alloc___gpu___pvoid_i64___pvoid = internal constant [32 x i8] c"alloc___gpu___pvoid_i64___pvoid\00"
@ral_recv_input___cpu___pvoid_i64___m3df32 = internal constant [42 x i8] c"ral_recv_input___cpu___pvoid_i64___m3df32\00"

define void @disc_ral_call(ptr nocapture readonly %0, ptr %1, ptr %2) local_unnamed_addr {
entry:
  %3 = load ptr, ptr %0, align 8
  %4 = getelementptr ptr, ptr %0, i64 1
  %5 = load ptr, ptr %4, align 8
  %6 = load ptr, ptr %2, align 8
  store ptr %3, ptr %6, align 8
  tail call void %5(ptr %3, ptr %1, ptr nonnull %2)
  ret void
}

define void @main(ptr %0) local_unnamed_addr {
  %2 = alloca %0, align 8
  %3 = alloca [3 x ptr], align 8
  store ptr %2, ptr %3, align 8
  %4 = getelementptr inbounds %0, ptr %2, i64 0, i32 1
  store i64 0, ptr %4, align 8
  %5 = getelementptr inbounds ptr, ptr %3, i64 1
  store ptr %4, ptr %5, align 8
  %6 = getelementptr inbounds %0, ptr %2, i64 0, i32 2
  %7 = getelementptr inbounds ptr, ptr %3, i64 2
  store ptr %6, ptr %7, align 8
  %8 = load ptr, ptr %0, align 8
  %9 = getelementptr ptr, ptr %0, i64 1
  %10 = load ptr, ptr %9, align 8
  store ptr %8, ptr %2, align 8
  call void %10(ptr %8, ptr nonnull @ral_recv_input___cpu___pvoid_i64___m3df32, ptr nonnull %3)
  %.fca.1.gep = getelementptr inbounds %0, ptr %2, i64 0, i32 2, i32 1
  %.fca.1.load = load ptr, ptr %.fca.1.gep, align 8
  %.fca.3.0.gep = getelementptr inbounds %0, ptr %2, i64 0, i32 2, i32 3
  %.fca.3.0.load = load i64, ptr %.fca.3.0.gep, align 8
  %.fca.3.1.gep = getelementptr inbounds %0, ptr %2, i64 0, i32 2, i32 3, i64 1
  %.fca.3.1.load = load i64, ptr %.fca.3.1.gep, align 8
  %.fca.3.2.gep = getelementptr inbounds %0, ptr %2, i64 0, i32 2, i32 3, i64 2
  %.fca.3.2.load = load i64, ptr %.fca.3.2.gep, align 8
  %11 = shl i64 %.fca.3.0.load, 32
  %sext = mul i64 %11, %.fca.3.1.load
  %12 = ashr exact i64 %sext, 32
  %13 = mul i64 %.fca.3.2.load, %.fca.3.1.load
  %14 = shl i64 %.fca.3.0.load, 2
  %.idx = mul i64 %14, %13
  %15 = alloca %.1, align 8
  %16 = alloca [3 x ptr], align 8
  store ptr %15, ptr %16, align 8
  %17 = getelementptr inbounds %.1, ptr %15, i64 0, i32 1
  store i64 %.idx, ptr %17, align 8
  %18 = getelementptr inbounds ptr, ptr %16, i64 1
  store ptr %17, ptr %18, align 8
  %19 = getelementptr inbounds %.1, ptr %15, i64 0, i32 2
  %20 = getelementptr inbounds ptr, ptr %16, i64 2
  store ptr %19, ptr %20, align 8
  %21 = load ptr, ptr %0, align 8
  %22 = load ptr, ptr %9, align 8
  store ptr %21, ptr %15, align 8
  call void %22(ptr %21, ptr nonnull @alloc___gpu___pvoid_i64___pvoid, ptr nonnull %16)
  %23 = load ptr, ptr %19, align 8
  %24 = icmp slt i64 %sext, 12884901888
  %25 = icmp sgt i64 %.fca.3.2.load, 1023
  %26 = icmp slt i64 %sext, 25769803776
  %27 = and i1 %26, %25
  %28 = icmp sgt i64 %.fca.3.2.load, 511
  %29 = icmp sgt i64 %sext, 21474836480
  %30 = and i1 %29, %28
  %31 = or i1 %24, %27
  %32 = or i1 %30, %31
  br i1 %32, label %33, label %71

33:                                               ; preds = %1
  %34 = alloca ptr, align 8
  store ptr @main_kernel_blob_gpu.binary, ptr %34, align 8
  %35 = alloca %.5, align 8
  %36 = alloca [3 x ptr], align 8
  store ptr %.fca.1.load, ptr %35, align 8
  store ptr %35, ptr %36, align 8
  %37 = getelementptr inbounds %.5, ptr %35, i64 0, i32 1
  store i64 %.fca.3.2.load, ptr %37, align 8
  %38 = getelementptr inbounds ptr, ptr %36, i64 1
  store ptr %37, ptr %38, align 8
  %39 = getelementptr inbounds %.5, ptr %35, i64 0, i32 2
  store ptr %23, ptr %39, align 8
  %40 = getelementptr inbounds ptr, ptr %36, i64 2
  store ptr %39, ptr %40, align 8
  %41 = alloca %.6, align 8
  %42 = alloca [14 x ptr], align 8
  store ptr %41, ptr %42, align 8
  %43 = getelementptr inbounds %.6, ptr %41, i64 0, i32 1
  store ptr %34, ptr %43, align 8
  %44 = getelementptr inbounds ptr, ptr %42, i64 1
  store ptr %43, ptr %44, align 8
  %45 = getelementptr inbounds %.6, ptr %41, i64 0, i32 2
  store i64 1, ptr %45, align 8
  %46 = getelementptr inbounds ptr, ptr %42, i64 2
  store ptr %45, ptr %46, align 8
  %47 = getelementptr inbounds %.6, ptr %41, i64 0, i32 3
  store ptr @main_kernel_main_kStitch_divide__13_1_0___1b1r_kernel_name, ptr %47, align 8
  %48 = getelementptr inbounds ptr, ptr %42, i64 3
  store ptr %47, ptr %48, align 8
  %49 = getelementptr inbounds %.6, ptr %41, i64 0, i32 4
  store i64 %12, ptr %49, align 8
  %50 = getelementptr inbounds ptr, ptr %42, i64 4
  store ptr %49, ptr %50, align 8
  %51 = getelementptr inbounds %.6, ptr %41, i64 0, i32 5
  store i64 1, ptr %51, align 8
  %52 = getelementptr inbounds ptr, ptr %42, i64 5
  store ptr %51, ptr %52, align 8
  %53 = getelementptr inbounds %.6, ptr %41, i64 0, i32 6
  store i64 1, ptr %53, align 8
  %54 = getelementptr inbounds ptr, ptr %42, i64 6
  store ptr %53, ptr %54, align 8
  %55 = getelementptr inbounds %.6, ptr %41, i64 0, i32 7
  store i64 256, ptr %55, align 8
  %56 = getelementptr inbounds ptr, ptr %42, i64 7
  store ptr %55, ptr %56, align 8
  %57 = getelementptr inbounds %.6, ptr %41, i64 0, i32 8
  store i64 1, ptr %57, align 8
  %58 = getelementptr inbounds ptr, ptr %42, i64 8
  store ptr %57, ptr %58, align 8
  %59 = getelementptr inbounds %.6, ptr %41, i64 0, i32 9
  store i64 1, ptr %59, align 8
  %60 = getelementptr inbounds ptr, ptr %42, i64 9
  store ptr %59, ptr %60, align 8
  %61 = getelementptr inbounds %.6, ptr %41, i64 0, i32 10
  store i32 0, ptr %61, align 8
  %62 = getelementptr inbounds ptr, ptr %42, i64 10
  store ptr %61, ptr %62, align 8
  %63 = getelementptr inbounds %.6, ptr %41, i64 0, i32 11
  store ptr null, ptr %63, align 8
  %64 = getelementptr inbounds ptr, ptr %42, i64 11
  store ptr %63, ptr %64, align 8
  %65 = getelementptr inbounds %.6, ptr %41, i64 0, i32 12
  store i32 3, ptr %65, align 8
  %66 = getelementptr inbounds ptr, ptr %42, i64 12
  store ptr %65, ptr %66, align 8
  %67 = getelementptr inbounds %.6, ptr %41, i64 0, i32 13
  store ptr %36, ptr %67, align 8
  %68 = getelementptr inbounds ptr, ptr %42, i64 13
  store ptr %67, ptr %68, align 8
  %69 = load ptr, ptr %0, align 8
  %70 = load ptr, ptr %9, align 8
  store ptr %69, ptr %41, align 8
  call void %70(ptr %69, ptr nonnull @ral_kernel_launch___gpu___pvoid_ppvoid_i64_pvoid_i64_i64_i64_i64_i64_i64_i32_pvoid_i32_ppvoid___void, ptr nonnull %42)
  br label %116

71:                                               ; preds = %1
  %72 = add nsw i64 %12, -1
  %73 = lshr i64 %72, 3
  %74 = add nuw nsw i64 %73, 1
  %75 = alloca ptr, align 8
  store ptr @main_kernel_0_blob_gpu.binary, ptr %75, align 8
  %76 = alloca %.2, align 8
  %77 = alloca [5 x ptr], align 8
  store ptr %.fca.1.load, ptr %76, align 8
  store ptr %76, ptr %77, align 8
  %78 = getelementptr inbounds %.2, ptr %76, i64 0, i32 1
  store i64 %.fca.3.1.load, ptr %78, align 8
  %79 = getelementptr inbounds ptr, ptr %77, i64 1
  store ptr %78, ptr %79, align 8
  %80 = getelementptr inbounds %.2, ptr %76, i64 0, i32 2
  store i64 %.fca.3.2.load, ptr %80, align 8
  %81 = getelementptr inbounds ptr, ptr %77, i64 2
  store ptr %80, ptr %81, align 8
  %82 = getelementptr inbounds %.2, ptr %76, i64 0, i32 3
  store i64 %12, ptr %82, align 8
  %83 = getelementptr inbounds ptr, ptr %77, i64 3
  store ptr %82, ptr %83, align 8
  %84 = getelementptr inbounds %.2, ptr %76, i64 0, i32 4
  store ptr %23, ptr %84, align 8
  %85 = getelementptr inbounds ptr, ptr %77, i64 4
  store ptr %84, ptr %85, align 8
  %86 = alloca %.3, align 8
  %87 = alloca [14 x ptr], align 8
  store ptr %86, ptr %87, align 8
  %88 = getelementptr inbounds %.3, ptr %86, i64 0, i32 1
  store ptr %75, ptr %88, align 8
  %89 = getelementptr inbounds ptr, ptr %87, i64 1
  store ptr %88, ptr %89, align 8
  %90 = getelementptr inbounds %.3, ptr %86, i64 0, i32 2
  store i64 1, ptr %90, align 8
  %91 = getelementptr inbounds ptr, ptr %87, i64 2
  store ptr %90, ptr %91, align 8
  %92 = getelementptr inbounds %.3, ptr %86, i64 0, i32 3
  store ptr @main_kernel_0_main_kStitch_divide__13_1_0___1w1r_kernel_name, ptr %92, align 8
  %93 = getelementptr inbounds ptr, ptr %87, i64 3
  store ptr %92, ptr %93, align 8
  %94 = getelementptr inbounds %.3, ptr %86, i64 0, i32 4
  store i64 %74, ptr %94, align 8
  %95 = getelementptr inbounds ptr, ptr %87, i64 4
  store ptr %94, ptr %95, align 8
  %96 = getelementptr inbounds %.3, ptr %86, i64 0, i32 5
  store i64 1, ptr %96, align 8
  %97 = getelementptr inbounds ptr, ptr %87, i64 5
  store ptr %96, ptr %97, align 8
  %98 = getelementptr inbounds %.3, ptr %86, i64 0, i32 6
  store i64 1, ptr %98, align 8
  %99 = getelementptr inbounds ptr, ptr %87, i64 6
  store ptr %98, ptr %99, align 8
  %100 = getelementptr inbounds %.3, ptr %86, i64 0, i32 7
  store i64 256, ptr %100, align 8
  %101 = getelementptr inbounds ptr, ptr %87, i64 7
  store ptr %100, ptr %101, align 8
  %102 = getelementptr inbounds %.3, ptr %86, i64 0, i32 8
  store i64 1, ptr %102, align 8
  %103 = getelementptr inbounds ptr, ptr %87, i64 8
  store ptr %102, ptr %103, align 8
  %104 = getelementptr inbounds %.3, ptr %86, i64 0, i32 9
  store i64 1, ptr %104, align 8
  %105 = getelementptr inbounds ptr, ptr %87, i64 9
  store ptr %104, ptr %105, align 8
  %106 = getelementptr inbounds %.3, ptr %86, i64 0, i32 10
  store i32 0, ptr %106, align 8
  %107 = getelementptr inbounds ptr, ptr %87, i64 10
  store ptr %106, ptr %107, align 8
  %108 = getelementptr inbounds %.3, ptr %86, i64 0, i32 11
  store ptr null, ptr %108, align 8
  %109 = getelementptr inbounds ptr, ptr %87, i64 11
  store ptr %108, ptr %109, align 8
  %110 = getelementptr inbounds %.3, ptr %86, i64 0, i32 12
  store i32 5, ptr %110, align 8
  %111 = getelementptr inbounds ptr, ptr %87, i64 12
  store ptr %110, ptr %111, align 8
  %112 = getelementptr inbounds %.3, ptr %86, i64 0, i32 13
  store ptr %77, ptr %112, align 8
  %113 = getelementptr inbounds ptr, ptr %87, i64 13
  store ptr %112, ptr %113, align 8
  %114 = load ptr, ptr %0, align 8
  %115 = load ptr, ptr %9, align 8
  store ptr %114, ptr %86, align 8
  call void %115(ptr %114, ptr nonnull @ral_kernel_launch___gpu___pvoid_ppvoid_i64_pvoid_i64_i64_i64_i64_i64_i64_i32_pvoid_i32_ppvoid___void, ptr nonnull %87)
  br label %116

116:                                              ; preds = %33, %71
  %117 = alloca %.4, align 8
  %118 = alloca [11 x ptr], align 8
  store ptr %117, ptr %118, align 8
  %119 = getelementptr inbounds %.4, ptr %117, i64 0, i32 1
  store i64 0, ptr %119, align 8
  %120 = getelementptr inbounds ptr, ptr %118, i64 1
  store ptr %119, ptr %120, align 8
  %121 = getelementptr inbounds %.4, ptr %117, i64 0, i32 2
  store ptr %23, ptr %121, align 8
  %122 = getelementptr inbounds ptr, ptr %118, i64 2
  store ptr %121, ptr %122, align 8
  %123 = getelementptr inbounds %.4, ptr %117, i64 0, i32 3
  store ptr %23, ptr %123, align 8
  %124 = getelementptr inbounds ptr, ptr %118, i64 3
  store ptr %123, ptr %124, align 8
  %125 = getelementptr inbounds %.4, ptr %117, i64 0, i32 4
  store i64 0, ptr %125, align 8
  %126 = getelementptr inbounds ptr, ptr %118, i64 4
  store ptr %125, ptr %126, align 8
  %127 = getelementptr inbounds %.4, ptr %117, i64 0, i32 5
  store i64 %.fca.3.0.load, ptr %127, align 8
  %128 = getelementptr inbounds ptr, ptr %118, i64 5
  store ptr %127, ptr %128, align 8
  %129 = getelementptr inbounds %.4, ptr %117, i64 0, i32 6
  store i64 %.fca.3.1.load, ptr %129, align 8
  %130 = getelementptr inbounds ptr, ptr %118, i64 6
  store ptr %129, ptr %130, align 8
  %131 = getelementptr inbounds %.4, ptr %117, i64 0, i32 7
  store i64 %.fca.3.2.load, ptr %131, align 8
  %132 = getelementptr inbounds ptr, ptr %118, i64 7
  store ptr %131, ptr %132, align 8
  %133 = getelementptr inbounds %.4, ptr %117, i64 0, i32 8
  store i64 %13, ptr %133, align 8
  %134 = getelementptr inbounds ptr, ptr %118, i64 8
  store ptr %133, ptr %134, align 8
  %135 = getelementptr inbounds %.4, ptr %117, i64 0, i32 9
  store i64 %.fca.3.2.load, ptr %135, align 8
  %136 = getelementptr inbounds ptr, ptr %118, i64 9
  store ptr %135, ptr %136, align 8
  %137 = getelementptr inbounds %.4, ptr %117, i64 0, i32 10
  store i64 1, ptr %137, align 8
  %138 = getelementptr inbounds ptr, ptr %118, i64 10
  store ptr %137, ptr %138, align 8
  %139 = load ptr, ptr %0, align 8
  %140 = load ptr, ptr %9, align 8
  store ptr %139, ptr %117, align 8
  call void %140(ptr %139, ptr nonnull @ral_send_output___cpu___pvoid_i64_m3df32___void, ptr nonnull %118)
  ret void
}

object file to shared library command: gcc --shared -o /root/.cache/bazel/_bazel_root/4cf787dd368afbf575ff6140b2d24691/execroot/org_tensorflow/_tmp/e877672218cbaf0733fb74fb1644a598FullyDynamicShape3DF32_0.so /root/.cache/bazel/_bazel_root/4cf787dd368afbf575ff6140b2d24691/execroot/org_tensorflow/_tmp/e877672218cbaf0733fb74fb1644a598FullyDynamicShape3DF32_0.so.o
save shared lib file to : /root/.cache/bazel/_bazel_root/4cf787dd368afbf575ff6140b2d24691/execroot/org_tensorflow/_tmp/e877672218cbaf0733fb74fb1644a598FullyDynamicShape3DF32_0.so

============ END ============

2022-08-24 06:21:51.037946: I tensorflow/compiler/xla/stream_executor/cuda/cuda_gpu_executor.cc:980] successful NUMA node read from SysFS had negative value (-1), but there must be at least one NUMA node, so returning NUMA node zero
2022-08-24 06:21:51.038944: I tensorflow/compiler/mlir/disc/tests/mlir_test.cc:925] --- MLIR Execution uses: 0.966 ms
2022-08-24 06:21:51.039024: I tensorflow/compiler/mlir/disc/tests/mlir_test.cc:183] out buffer = 0x7f6ef2a1ac00
2022-08-24 06:21:51.039029: I tensorflow/compiler/mlir/disc/tests/mlir_test.cc:184] out shape:
2022-08-24 06:21:51.039032: I tensorflow/compiler/mlir/disc/tests/mlir_test.cc:186]   dim #0: 13
2022-08-24 06:21:51.039034: I tensorflow/compiler/mlir/disc/tests/mlir_test.cc:186]   dim #1: 21
2022-08-24 06:21:51.039036: I tensorflow/compiler/mlir/disc/tests/mlir_test.cc:186]   dim #2: 100
2022-08-24 06:21:51.093711: I tensorflow/compiler/mlir/disc/tests/mlir_test.cc:264] Executed: tensorflow/compiler/mlir/tf-mlir-translate -mlir-to-graphdef /root/.cache/bazel/_bazel_root/4cf787dd368afbf575ff6140b2d24691/execroot/org_tensorflow/_tmp/e877672218cbaf0733fb74fb1644a598/tempfile-330bb2f99ddd-844a7b9d-16839-5e6f6b239176e -o /root/.cache/bazel/_bazel_root/4cf787dd368afbf575ff6140b2d24691/execroot/org_tensorflow/_tmp/e877672218cbaf0733fb74fb1644a598FullyDynamicShape3DF32_0.pbtxt 
2022-08-24 06:21:51.093721: I tensorflow/compiler/mlir/disc/tests/mlir_test.cc:265] tensorflow/compiler/mlir/tf-mlir-translate: 0
2022-08-24 06:21:51.093723: I tensorflow/compiler/mlir/disc/tests/mlir_test.cc:266] -- stdout:

============ END ============

2022-08-24 06:21:51.093725: I tensorflow/compiler/mlir/disc/tests/mlir_test.cc:268] -- stderr:

============ END ============

2022-08-24 06:21:51.093733: I tensorflow/compiler/mlir/disc/tests/mlir_test.cc:384] graphdef_path: /root/.cache/bazel/_bazel_root/4cf787dd368afbf575ff6140b2d24691/execroot/org_tensorflow/_tmp/e877672218cbaf0733fb74fb1644a598FullyDynamicShape3DF32_0.pbtxt
2022-08-24 06:21:51.094896: I tensorflow/core/platform/cpu_feature_guard.cc:193] This TensorFlow binary is optimized with oneAPI Deep Neural Network Library (oneDNN) to use the following CPU instructions in performance-critical operations:  SSE3 SSE4.1 SSE4.2 AVX AVX2 AVX512F AVX512_VNNI FMA
To enable them in other operations, rebuild TensorFlow with the appropriate compiler flags.
2022-08-24 06:21:51.096562: I tensorflow/compiler/xla/stream_executor/cuda/cuda_gpu_executor.cc:980] successful NUMA node read from SysFS had negative value (-1), but there must be at least one NUMA node, so returning NUMA node zero
2022-08-24 06:21:51.205001: I tensorflow/compiler/xla/stream_executor/cuda/cuda_gpu_executor.cc:980] successful NUMA node read from SysFS had negative value (-1), but there must be at least one NUMA node, so returning NUMA node zero
2022-08-24 06:21:51.205662: I tensorflow/compiler/xla/stream_executor/cuda/cuda_gpu_executor.cc:980] successful NUMA node read from SysFS had negative value (-1), but there must be at least one NUMA node, so returning NUMA node zero
2022-08-24 06:21:51.519049: I tensorflow/compiler/xla/stream_executor/cuda/cuda_gpu_executor.cc:980] successful NUMA node read from SysFS had negative value (-1), but there must be at least one NUMA node, so returning NUMA node zero
2022-08-24 06:21:51.519823: I tensorflow/compiler/xla/stream_executor/cuda/cuda_gpu_executor.cc:980] successful NUMA node read from SysFS had negative value (-1), but there must be at least one NUMA node, so returning NUMA node zero
2022-08-24 06:21:51.520469: I tensorflow/compiler/xla/stream_executor/cuda/cuda_gpu_executor.cc:980] successful NUMA node read from SysFS had negative value (-1), but there must be at least one NUMA node, so returning NUMA node zero
2022-08-24 06:21:51.521065: I tensorflow/core/common_runtime/gpu/gpu_device.cc:1616] Created device /job:localhost/replica:0/task:0/device:GPU:0 with 20834 MB memory:  -> device: 0, name: NVIDIA A10, pci bus id: 0000:00:07.0, compute capability: 8.6
2022-08-24 06:21:51.539342: I tensorflow/compiler/mlir/disc/tests/mlir_test.cc:460] --- TF Execution uses: 4.192 ms
2022-08-24 06:21:51.539362: I tensorflow/compiler/mlir/disc/tests/mlir_test.cc:467] 	output shape #0: [13,21,100]
2022-08-24 06:21:51.539686: I tensorflow/compiler/mlir/disc/tests/mlir_test.cc:460] --- TF Execution uses: 0.318 ms
2022-08-24 06:21:51.539689: I tensorflow/compiler/mlir/disc/tests/mlir_test.cc:467] 	output shape #0: [13,21,100]
2022-08-24 06:21:51.539911: I tensorflow/compiler/mlir/disc/tests/mlir_test.cc:460] --- TF Execution uses: 0.218 ms
2022-08-24 06:21:51.539915: I tensorflow/compiler/mlir/disc/tests/mlir_test.cc:467] 	output shape #0: [13,21,100]
2022-08-24 06:21:51.540141: I tensorflow/compiler/mlir/disc/tests/mlir_test.cc:460] --- TF Execution uses: 0.222 ms
2022-08-24 06:21:51.540144: I tensorflow/compiler/mlir/disc/tests/mlir_test.cc:467] 	output shape #0: [13,21,100]
2022-08-24 06:21:51.540363: I tensorflow/compiler/mlir/disc/tests/mlir_test.cc:460] --- TF Execution uses: 0.214 ms
2022-08-24 06:21:51.540366: I tensorflow/compiler/mlir/disc/tests/mlir_test.cc:467] 	output shape #0: [13,21,100]
2022-08-24 06:21:51.540372: I tensorflow/compiler/mlir/disc/tests/mlir_test.cc:477] processing output 0
[       OK ] TFSoftmaxOpTest.FullyDynamicShape3DF32 (1558 ms)
[----------] 1 test from TFSoftmaxOpTest (1558 ms total)

[----------] Global test environment tear-down
[==========] 1 test from 1 test suite ran. (1558 ms total)
[  PASSED  ] 1 test.
